HloModule xla_computation__lambda_.3131

primitive_computation_add.328 {
  constant.331 = pred[] constant(false)
  parameter.329 = f32[] parameter(0)
  parameter.330 = f32[] parameter(1)
  ROOT add.332 = f32[] add(parameter.329, parameter.330)
}

primitive_computation_add__1.340 {
  constant.343 = pred[] constant(false)
  parameter.341 = f32[] parameter(0)
  parameter.342 = f32[] parameter(1)
  ROOT add.344 = f32[] add(parameter.341, parameter.342)
}

primitive_computation_max.375 {
  constant.378 = pred[] constant(false)
  parameter.376 = f32[] parameter(0)
  parameter.377 = f32[] parameter(1)
  ROOT maximum.379 = f32[] maximum(parameter.376, parameter.377)
}

primitive_computation_add__2.386 {
  constant.389 = pred[] constant(false)
  parameter.387 = f32[] parameter(0)
  parameter.388 = f32[] parameter(1)
  ROOT add.390 = f32[] add(parameter.387, parameter.388)
}

primitive_computation_add__3.398 {
  constant.401 = pred[] constant(false)
  parameter.399 = f32[] parameter(0)
  parameter.400 = f32[] parameter(1)
  ROOT add.402 = f32[] add(parameter.399, parameter.400)
}

primitive_computation_add__4.437 {
  constant.440 = pred[] constant(false)
  parameter.438 = f32[] parameter(0)
  parameter.439 = f32[] parameter(1)
  ROOT add.441 = f32[] add(parameter.438, parameter.439)
}

primitive_computation_add__5.449 {
  constant.452 = pred[] constant(false)
  parameter.450 = f32[] parameter(0)
  parameter.451 = f32[] parameter(1)
  ROOT add.453 = f32[] add(parameter.450, parameter.451)
}

primitive_computation_add__6.488 {
  constant.491 = pred[] constant(false)
  parameter.489 = f32[] parameter(0)
  parameter.490 = f32[] parameter(1)
  ROOT add.492 = f32[] add(parameter.489, parameter.490)
}

primitive_computation_add__7.500 {
  constant.503 = pred[] constant(false)
  parameter.501 = f32[] parameter(0)
  parameter.502 = f32[] parameter(1)
  ROOT add.504 = f32[] add(parameter.501, parameter.502)
}

primitive_computation_add__8.535 {
  constant.538 = pred[] constant(false)
  parameter.536 = f32[] parameter(0)
  parameter.537 = f32[] parameter(1)
  ROOT add.539 = f32[] add(parameter.536, parameter.537)
}

primitive_computation_add__9.547 {
  constant.550 = pred[] constant(false)
  parameter.548 = f32[] parameter(0)
  parameter.549 = f32[] parameter(1)
  ROOT add.551 = f32[] add(parameter.548, parameter.549)
}

primitive_computation_add__10.590 {
  constant.593 = pred[] constant(false)
  parameter.591 = f32[] parameter(0)
  parameter.592 = f32[] parameter(1)
  ROOT add.594 = f32[] add(parameter.591, parameter.592)
}

primitive_computation_add__11.602 {
  constant.605 = pred[] constant(false)
  parameter.603 = f32[] parameter(0)
  parameter.604 = f32[] parameter(1)
  ROOT add.606 = f32[] add(parameter.603, parameter.604)
}

primitive_computation_add__12.641 {
  constant.644 = pred[] constant(false)
  parameter.642 = f32[] parameter(0)
  parameter.643 = f32[] parameter(1)
  ROOT add.645 = f32[] add(parameter.642, parameter.643)
}

primitive_computation_add__13.653 {
  constant.656 = pred[] constant(false)
  parameter.654 = f32[] parameter(0)
  parameter.655 = f32[] parameter(1)
  ROOT add.657 = f32[] add(parameter.654, parameter.655)
}

primitive_computation_add__14.692 {
  constant.695 = pred[] constant(false)
  parameter.693 = f32[] parameter(0)
  parameter.694 = f32[] parameter(1)
  ROOT add.696 = f32[] add(parameter.693, parameter.694)
}

primitive_computation_add__15.704 {
  constant.707 = pred[] constant(false)
  parameter.705 = f32[] parameter(0)
  parameter.706 = f32[] parameter(1)
  ROOT add.708 = f32[] add(parameter.705, parameter.706)
}

primitive_computation_add__16.747 {
  constant.750 = pred[] constant(false)
  parameter.748 = f32[] parameter(0)
  parameter.749 = f32[] parameter(1)
  ROOT add.751 = f32[] add(parameter.748, parameter.749)
}

primitive_computation_add__17.759 {
  constant.762 = pred[] constant(false)
  parameter.760 = f32[] parameter(0)
  parameter.761 = f32[] parameter(1)
  ROOT add.763 = f32[] add(parameter.760, parameter.761)
}

primitive_computation_add__18.798 {
  constant.801 = pred[] constant(false)
  parameter.799 = f32[] parameter(0)
  parameter.800 = f32[] parameter(1)
  ROOT add.802 = f32[] add(parameter.799, parameter.800)
}

primitive_computation_add__19.810 {
  constant.813 = pred[] constant(false)
  parameter.811 = f32[] parameter(0)
  parameter.812 = f32[] parameter(1)
  ROOT add.814 = f32[] add(parameter.811, parameter.812)
}

primitive_computation_add__20.849 {
  constant.852 = pred[] constant(false)
  parameter.850 = f32[] parameter(0)
  parameter.851 = f32[] parameter(1)
  ROOT add.853 = f32[] add(parameter.850, parameter.851)
}

primitive_computation_add__21.861 {
  constant.864 = pred[] constant(false)
  parameter.862 = f32[] parameter(0)
  parameter.863 = f32[] parameter(1)
  ROOT add.865 = f32[] add(parameter.862, parameter.863)
}

primitive_computation_add__22.904 {
  constant.907 = pred[] constant(false)
  parameter.905 = f32[] parameter(0)
  parameter.906 = f32[] parameter(1)
  ROOT add.908 = f32[] add(parameter.905, parameter.906)
}

primitive_computation_add__23.916 {
  constant.919 = pred[] constant(false)
  parameter.917 = f32[] parameter(0)
  parameter.918 = f32[] parameter(1)
  ROOT add.920 = f32[] add(parameter.917, parameter.918)
}

primitive_computation_add__24.955 {
  constant.958 = pred[] constant(false)
  parameter.956 = f32[] parameter(0)
  parameter.957 = f32[] parameter(1)
  ROOT add.959 = f32[] add(parameter.956, parameter.957)
}

primitive_computation_add__25.967 {
  constant.970 = pred[] constant(false)
  parameter.968 = f32[] parameter(0)
  parameter.969 = f32[] parameter(1)
  ROOT add.971 = f32[] add(parameter.968, parameter.969)
}

primitive_computation_add__26.1006 {
  constant.1009 = pred[] constant(false)
  parameter.1007 = f32[] parameter(0)
  parameter.1008 = f32[] parameter(1)
  ROOT add.1010 = f32[] add(parameter.1007, parameter.1008)
}

primitive_computation_add__27.1018 {
  constant.1021 = pred[] constant(false)
  parameter.1019 = f32[] parameter(0)
  parameter.1020 = f32[] parameter(1)
  ROOT add.1022 = f32[] add(parameter.1019, parameter.1020)
}

primitive_computation_add__28.1053 {
  constant.1056 = pred[] constant(false)
  parameter.1054 = f32[] parameter(0)
  parameter.1055 = f32[] parameter(1)
  ROOT add.1057 = f32[] add(parameter.1054, parameter.1055)
}

primitive_computation_add__29.1065 {
  constant.1068 = pred[] constant(false)
  parameter.1066 = f32[] parameter(0)
  parameter.1067 = f32[] parameter(1)
  ROOT add.1069 = f32[] add(parameter.1066, parameter.1067)
}

primitive_computation_add__30.1108 {
  constant.1111 = pred[] constant(false)
  parameter.1109 = f32[] parameter(0)
  parameter.1110 = f32[] parameter(1)
  ROOT add.1112 = f32[] add(parameter.1109, parameter.1110)
}

primitive_computation_add__31.1120 {
  constant.1123 = pred[] constant(false)
  parameter.1121 = f32[] parameter(0)
  parameter.1122 = f32[] parameter(1)
  ROOT add.1124 = f32[] add(parameter.1121, parameter.1122)
}

primitive_computation_add__32.1159 {
  constant.1162 = pred[] constant(false)
  parameter.1160 = f32[] parameter(0)
  parameter.1161 = f32[] parameter(1)
  ROOT add.1163 = f32[] add(parameter.1160, parameter.1161)
}

primitive_computation_add__33.1171 {
  constant.1174 = pred[] constant(false)
  parameter.1172 = f32[] parameter(0)
  parameter.1173 = f32[] parameter(1)
  ROOT add.1175 = f32[] add(parameter.1172, parameter.1173)
}

primitive_computation_add__34.1210 {
  constant.1213 = pred[] constant(false)
  parameter.1211 = f32[] parameter(0)
  parameter.1212 = f32[] parameter(1)
  ROOT add.1214 = f32[] add(parameter.1211, parameter.1212)
}

primitive_computation_add__35.1222 {
  constant.1225 = pred[] constant(false)
  parameter.1223 = f32[] parameter(0)
  parameter.1224 = f32[] parameter(1)
  ROOT add.1226 = f32[] add(parameter.1223, parameter.1224)
}

primitive_computation_add__36.1265 {
  constant.1268 = pred[] constant(false)
  parameter.1266 = f32[] parameter(0)
  parameter.1267 = f32[] parameter(1)
  ROOT add.1269 = f32[] add(parameter.1266, parameter.1267)
}

primitive_computation_add__37.1277 {
  constant.1280 = pred[] constant(false)
  parameter.1278 = f32[] parameter(0)
  parameter.1279 = f32[] parameter(1)
  ROOT add.1281 = f32[] add(parameter.1278, parameter.1279)
}

primitive_computation_add__38.1316 {
  constant.1319 = pred[] constant(false)
  parameter.1317 = f32[] parameter(0)
  parameter.1318 = f32[] parameter(1)
  ROOT add.1320 = f32[] add(parameter.1317, parameter.1318)
}

primitive_computation_add__39.1328 {
  constant.1331 = pred[] constant(false)
  parameter.1329 = f32[] parameter(0)
  parameter.1330 = f32[] parameter(1)
  ROOT add.1332 = f32[] add(parameter.1329, parameter.1330)
}

primitive_computation_add__40.1367 {
  constant.1370 = pred[] constant(false)
  parameter.1368 = f32[] parameter(0)
  parameter.1369 = f32[] parameter(1)
  ROOT add.1371 = f32[] add(parameter.1368, parameter.1369)
}

primitive_computation_add__41.1379 {
  constant.1382 = pred[] constant(false)
  parameter.1380 = f32[] parameter(0)
  parameter.1381 = f32[] parameter(1)
  ROOT add.1383 = f32[] add(parameter.1380, parameter.1381)
}

primitive_computation_add__42.1422 {
  constant.1425 = pred[] constant(false)
  parameter.1423 = f32[] parameter(0)
  parameter.1424 = f32[] parameter(1)
  ROOT add.1426 = f32[] add(parameter.1423, parameter.1424)
}

primitive_computation_add__43.1434 {
  constant.1437 = pred[] constant(false)
  parameter.1435 = f32[] parameter(0)
  parameter.1436 = f32[] parameter(1)
  ROOT add.1438 = f32[] add(parameter.1435, parameter.1436)
}

primitive_computation_add__44.1473 {
  constant.1476 = pred[] constant(false)
  parameter.1474 = f32[] parameter(0)
  parameter.1475 = f32[] parameter(1)
  ROOT add.1477 = f32[] add(parameter.1474, parameter.1475)
}

primitive_computation_add__45.1485 {
  constant.1488 = pred[] constant(false)
  parameter.1486 = f32[] parameter(0)
  parameter.1487 = f32[] parameter(1)
  ROOT add.1489 = f32[] add(parameter.1486, parameter.1487)
}

primitive_computation_add__46.1524 {
  constant.1527 = pred[] constant(false)
  parameter.1525 = f32[] parameter(0)
  parameter.1526 = f32[] parameter(1)
  ROOT add.1528 = f32[] add(parameter.1525, parameter.1526)
}

primitive_computation_add__47.1536 {
  constant.1539 = pred[] constant(false)
  parameter.1537 = f32[] parameter(0)
  parameter.1538 = f32[] parameter(1)
  ROOT add.1540 = f32[] add(parameter.1537, parameter.1538)
}

primitive_computation_add__48.1579 {
  constant.1582 = pred[] constant(false)
  parameter.1580 = f32[] parameter(0)
  parameter.1581 = f32[] parameter(1)
  ROOT add.1583 = f32[] add(parameter.1580, parameter.1581)
}

primitive_computation_add__49.1591 {
  constant.1594 = pred[] constant(false)
  parameter.1592 = f32[] parameter(0)
  parameter.1593 = f32[] parameter(1)
  ROOT add.1595 = f32[] add(parameter.1592, parameter.1593)
}

primitive_computation_add__50.1630 {
  constant.1633 = pred[] constant(false)
  parameter.1631 = f32[] parameter(0)
  parameter.1632 = f32[] parameter(1)
  ROOT add.1634 = f32[] add(parameter.1631, parameter.1632)
}

primitive_computation_add__51.1642 {
  constant.1645 = pred[] constant(false)
  parameter.1643 = f32[] parameter(0)
  parameter.1644 = f32[] parameter(1)
  ROOT add.1646 = f32[] add(parameter.1643, parameter.1644)
}

primitive_computation_add__52.1681 {
  constant.1684 = pred[] constant(false)
  parameter.1682 = f32[] parameter(0)
  parameter.1683 = f32[] parameter(1)
  ROOT add.1685 = f32[] add(parameter.1682, parameter.1683)
}

primitive_computation_add__53.1693 {
  constant.1696 = pred[] constant(false)
  parameter.1694 = f32[] parameter(0)
  parameter.1695 = f32[] parameter(1)
  ROOT add.1697 = f32[] add(parameter.1694, parameter.1695)
}

primitive_computation_add__54.1728 {
  constant.1731 = pred[] constant(false)
  parameter.1729 = f32[] parameter(0)
  parameter.1730 = f32[] parameter(1)
  ROOT add.1732 = f32[] add(parameter.1729, parameter.1730)
}

primitive_computation_add__55.1740 {
  constant.1743 = pred[] constant(false)
  parameter.1741 = f32[] parameter(0)
  parameter.1742 = f32[] parameter(1)
  ROOT add.1744 = f32[] add(parameter.1741, parameter.1742)
}

primitive_computation_add__56.1783 {
  constant.1786 = pred[] constant(false)
  parameter.1784 = f32[] parameter(0)
  parameter.1785 = f32[] parameter(1)
  ROOT add.1787 = f32[] add(parameter.1784, parameter.1785)
}

primitive_computation_add__57.1795 {
  constant.1798 = pred[] constant(false)
  parameter.1796 = f32[] parameter(0)
  parameter.1797 = f32[] parameter(1)
  ROOT add.1799 = f32[] add(parameter.1796, parameter.1797)
}

primitive_computation_add__58.1834 {
  constant.1837 = pred[] constant(false)
  parameter.1835 = f32[] parameter(0)
  parameter.1836 = f32[] parameter(1)
  ROOT add.1838 = f32[] add(parameter.1835, parameter.1836)
}

primitive_computation_add__59.1846 {
  constant.1849 = pred[] constant(false)
  parameter.1847 = f32[] parameter(0)
  parameter.1848 = f32[] parameter(1)
  ROOT add.1850 = f32[] add(parameter.1847, parameter.1848)
}

primitive_computation_add__60.1885 {
  constant.1888 = pred[] constant(false)
  parameter.1886 = f32[] parameter(0)
  parameter.1887 = f32[] parameter(1)
  ROOT add.1889 = f32[] add(parameter.1886, parameter.1887)
}

primitive_computation_add__61.1897 {
  constant.1900 = pred[] constant(false)
  parameter.1898 = f32[] parameter(0)
  parameter.1899 = f32[] parameter(1)
  ROOT add.1901 = f32[] add(parameter.1898, parameter.1899)
}

primitive_computation_add__62.1940 {
  constant.1943 = pred[] constant(false)
  parameter.1941 = f32[] parameter(0)
  parameter.1942 = f32[] parameter(1)
  ROOT add.1944 = f32[] add(parameter.1941, parameter.1942)
}

primitive_computation_add__63.1952 {
  constant.1955 = pred[] constant(false)
  parameter.1953 = f32[] parameter(0)
  parameter.1954 = f32[] parameter(1)
  ROOT add.1956 = f32[] add(parameter.1953, parameter.1954)
}

primitive_computation_add__64.1991 {
  constant.1994 = pred[] constant(false)
  parameter.1992 = f32[] parameter(0)
  parameter.1993 = f32[] parameter(1)
  ROOT add.1995 = f32[] add(parameter.1992, parameter.1993)
}

primitive_computation_add__65.2003 {
  constant.2006 = pred[] constant(false)
  parameter.2004 = f32[] parameter(0)
  parameter.2005 = f32[] parameter(1)
  ROOT add.2007 = f32[] add(parameter.2004, parameter.2005)
}

primitive_computation_add__66.2042 {
  constant.2045 = pred[] constant(false)
  parameter.2043 = f32[] parameter(0)
  parameter.2044 = f32[] parameter(1)
  ROOT add.2046 = f32[] add(parameter.2043, parameter.2044)
}

primitive_computation_add__67.2054 {
  constant.2057 = pred[] constant(false)
  parameter.2055 = f32[] parameter(0)
  parameter.2056 = f32[] parameter(1)
  ROOT add.2058 = f32[] add(parameter.2055, parameter.2056)
}

primitive_computation_add__68.2097 {
  constant.2100 = pred[] constant(false)
  parameter.2098 = f32[] parameter(0)
  parameter.2099 = f32[] parameter(1)
  ROOT add.2101 = f32[] add(parameter.2098, parameter.2099)
}

primitive_computation_add__69.2109 {
  constant.2112 = pred[] constant(false)
  parameter.2110 = f32[] parameter(0)
  parameter.2111 = f32[] parameter(1)
  ROOT add.2113 = f32[] add(parameter.2110, parameter.2111)
}

primitive_computation_add__70.2148 {
  constant.2151 = pred[] constant(false)
  parameter.2149 = f32[] parameter(0)
  parameter.2150 = f32[] parameter(1)
  ROOT add.2152 = f32[] add(parameter.2149, parameter.2150)
}

primitive_computation_add__71.2160 {
  constant.2163 = pred[] constant(false)
  parameter.2161 = f32[] parameter(0)
  parameter.2162 = f32[] parameter(1)
  ROOT add.2164 = f32[] add(parameter.2161, parameter.2162)
}

primitive_computation_add__72.2199 {
  constant.2202 = pred[] constant(false)
  parameter.2200 = f32[] parameter(0)
  parameter.2201 = f32[] parameter(1)
  ROOT add.2203 = f32[] add(parameter.2200, parameter.2201)
}

primitive_computation_add__73.2211 {
  constant.2214 = pred[] constant(false)
  parameter.2212 = f32[] parameter(0)
  parameter.2213 = f32[] parameter(1)
  ROOT add.2215 = f32[] add(parameter.2212, parameter.2213)
}

primitive_computation_add__74.2254 {
  constant.2257 = pred[] constant(false)
  parameter.2255 = f32[] parameter(0)
  parameter.2256 = f32[] parameter(1)
  ROOT add.2258 = f32[] add(parameter.2255, parameter.2256)
}

primitive_computation_add__75.2266 {
  constant.2269 = pred[] constant(false)
  parameter.2267 = f32[] parameter(0)
  parameter.2268 = f32[] parameter(1)
  ROOT add.2270 = f32[] add(parameter.2267, parameter.2268)
}

primitive_computation_add__76.2305 {
  constant.2308 = pred[] constant(false)
  parameter.2306 = f32[] parameter(0)
  parameter.2307 = f32[] parameter(1)
  ROOT add.2309 = f32[] add(parameter.2306, parameter.2307)
}

primitive_computation_add__77.2317 {
  constant.2320 = pred[] constant(false)
  parameter.2318 = f32[] parameter(0)
  parameter.2319 = f32[] parameter(1)
  ROOT add.2321 = f32[] add(parameter.2318, parameter.2319)
}

primitive_computation_add__78.2356 {
  constant.2359 = pred[] constant(false)
  parameter.2357 = f32[] parameter(0)
  parameter.2358 = f32[] parameter(1)
  ROOT add.2360 = f32[] add(parameter.2357, parameter.2358)
}

primitive_computation_add__79.2368 {
  constant.2371 = pred[] constant(false)
  parameter.2369 = f32[] parameter(0)
  parameter.2370 = f32[] parameter(1)
  ROOT add.2372 = f32[] add(parameter.2369, parameter.2370)
}

primitive_computation_add__80.2411 {
  constant.2414 = pred[] constant(false)
  parameter.2412 = f32[] parameter(0)
  parameter.2413 = f32[] parameter(1)
  ROOT add.2415 = f32[] add(parameter.2412, parameter.2413)
}

primitive_computation_add__81.2423 {
  constant.2426 = pred[] constant(false)
  parameter.2424 = f32[] parameter(0)
  parameter.2425 = f32[] parameter(1)
  ROOT add.2427 = f32[] add(parameter.2424, parameter.2425)
}

primitive_computation_add__82.2462 {
  constant.2465 = pred[] constant(false)
  parameter.2463 = f32[] parameter(0)
  parameter.2464 = f32[] parameter(1)
  ROOT add.2466 = f32[] add(parameter.2463, parameter.2464)
}

primitive_computation_add__83.2474 {
  constant.2477 = pred[] constant(false)
  parameter.2475 = f32[] parameter(0)
  parameter.2476 = f32[] parameter(1)
  ROOT add.2478 = f32[] add(parameter.2475, parameter.2476)
}

primitive_computation_add__84.2513 {
  constant.2516 = pred[] constant(false)
  parameter.2514 = f32[] parameter(0)
  parameter.2515 = f32[] parameter(1)
  ROOT add.2517 = f32[] add(parameter.2514, parameter.2515)
}

primitive_computation_add__85.2525 {
  constant.2528 = pred[] constant(false)
  parameter.2526 = f32[] parameter(0)
  parameter.2527 = f32[] parameter(1)
  ROOT add.2529 = f32[] add(parameter.2526, parameter.2527)
}

primitive_computation_add__86.2568 {
  constant.2571 = pred[] constant(false)
  parameter.2569 = f32[] parameter(0)
  parameter.2570 = f32[] parameter(1)
  ROOT add.2572 = f32[] add(parameter.2569, parameter.2570)
}

primitive_computation_add__87.2580 {
  constant.2583 = pred[] constant(false)
  parameter.2581 = f32[] parameter(0)
  parameter.2582 = f32[] parameter(1)
  ROOT add.2584 = f32[] add(parameter.2581, parameter.2582)
}

primitive_computation_add__88.2619 {
  constant.2622 = pred[] constant(false)
  parameter.2620 = f32[] parameter(0)
  parameter.2621 = f32[] parameter(1)
  ROOT add.2623 = f32[] add(parameter.2620, parameter.2621)
}

primitive_computation_add__89.2631 {
  constant.2634 = pred[] constant(false)
  parameter.2632 = f32[] parameter(0)
  parameter.2633 = f32[] parameter(1)
  ROOT add.2635 = f32[] add(parameter.2632, parameter.2633)
}

primitive_computation_add__90.2670 {
  constant.2673 = pred[] constant(false)
  parameter.2671 = f32[] parameter(0)
  parameter.2672 = f32[] parameter(1)
  ROOT add.2674 = f32[] add(parameter.2671, parameter.2672)
}

primitive_computation_add__91.2682 {
  constant.2685 = pred[] constant(false)
  parameter.2683 = f32[] parameter(0)
  parameter.2684 = f32[] parameter(1)
  ROOT add.2686 = f32[] add(parameter.2683, parameter.2684)
}

primitive_computation_add__92.2717 {
  constant.2720 = pred[] constant(false)
  parameter.2718 = f32[] parameter(0)
  parameter.2719 = f32[] parameter(1)
  ROOT add.2721 = f32[] add(parameter.2718, parameter.2719)
}

primitive_computation_add__93.2729 {
  constant.2732 = pred[] constant(false)
  parameter.2730 = f32[] parameter(0)
  parameter.2731 = f32[] parameter(1)
  ROOT add.2733 = f32[] add(parameter.2730, parameter.2731)
}

primitive_computation_add__94.2772 {
  constant.2775 = pred[] constant(false)
  parameter.2773 = f32[] parameter(0)
  parameter.2774 = f32[] parameter(1)
  ROOT add.2776 = f32[] add(parameter.2773, parameter.2774)
}

primitive_computation_add__95.2784 {
  constant.2787 = pred[] constant(false)
  parameter.2785 = f32[] parameter(0)
  parameter.2786 = f32[] parameter(1)
  ROOT add.2788 = f32[] add(parameter.2785, parameter.2786)
}

primitive_computation_add__96.2823 {
  constant.2826 = pred[] constant(false)
  parameter.2824 = f32[] parameter(0)
  parameter.2825 = f32[] parameter(1)
  ROOT add.2827 = f32[] add(parameter.2824, parameter.2825)
}

primitive_computation_add__97.2835 {
  constant.2838 = pred[] constant(false)
  parameter.2836 = f32[] parameter(0)
  parameter.2837 = f32[] parameter(1)
  ROOT add.2839 = f32[] add(parameter.2836, parameter.2837)
}

primitive_computation_add__98.2874 {
  constant.2877 = pred[] constant(false)
  parameter.2875 = f32[] parameter(0)
  parameter.2876 = f32[] parameter(1)
  ROOT add.2878 = f32[] add(parameter.2875, parameter.2876)
}

primitive_computation_add__99.2886 {
  constant.2889 = pred[] constant(false)
  parameter.2887 = f32[] parameter(0)
  parameter.2888 = f32[] parameter(1)
  ROOT add.2890 = f32[] add(parameter.2887, parameter.2888)
}

primitive_computation_add__100.2929 {
  constant.2932 = pred[] constant(false)
  parameter.2930 = f32[] parameter(0)
  parameter.2931 = f32[] parameter(1)
  ROOT add.2933 = f32[] add(parameter.2930, parameter.2931)
}

primitive_computation_add__101.2941 {
  constant.2944 = pred[] constant(false)
  parameter.2942 = f32[] parameter(0)
  parameter.2943 = f32[] parameter(1)
  ROOT add.2945 = f32[] add(parameter.2942, parameter.2943)
}

primitive_computation_add__102.2980 {
  constant.2983 = pred[] constant(false)
  parameter.2981 = f32[] parameter(0)
  parameter.2982 = f32[] parameter(1)
  ROOT add.2984 = f32[] add(parameter.2981, parameter.2982)
}

primitive_computation_add__103.2992 {
  constant.2995 = pred[] constant(false)
  parameter.2993 = f32[] parameter(0)
  parameter.2994 = f32[] parameter(1)
  ROOT add.2996 = f32[] add(parameter.2993, parameter.2994)
}

primitive_computation_add__104.3031 {
  constant.3034 = pred[] constant(false)
  parameter.3032 = f32[] parameter(0)
  parameter.3033 = f32[] parameter(1)
  ROOT add.3035 = f32[] add(parameter.3032, parameter.3033)
}

primitive_computation_add__105.3043 {
  constant.3046 = pred[] constant(false)
  parameter.3044 = f32[] parameter(0)
  parameter.3045 = f32[] parameter(1)
  ROOT add.3047 = f32[] add(parameter.3044, parameter.3045)
}

primitive_computation_add__106.3082 {
  constant.3085 = pred[] constant(false)
  parameter.3083 = f32[] parameter(0)
  parameter.3084 = f32[] parameter(1)
  ROOT add.3086 = f32[] add(parameter.3083, parameter.3084)
}

primitive_computation_add__107.3091 {
  constant.3094 = pred[] constant(false)
  parameter.3092 = f32[] parameter(0)
  parameter.3093 = f32[] parameter(1)
  ROOT add.3095 = f32[] add(parameter.3092, parameter.3093)
}

primitive_computation_max__1.3107 {
  constant.3110 = pred[] constant(false)
  parameter.3108 = f32[] parameter(0)
  parameter.3109 = f32[] parameter(1)
  ROOT maximum.3111 = f32[] maximum(parameter.3108, parameter.3109)
}

primitive_computation_add__108.3119 {
  constant.3122 = pred[] constant(false)
  parameter.3120 = f32[] parameter(0)
  parameter.3121 = f32[] parameter(1)
  ROOT add.3123 = f32[] add(parameter.3120, parameter.3121)
}

ENTRY xla_computation__lambda_.3131 {
  constant.322 = pred[] constant(false)
  constant.370 = pred[] constant(false)
  constant.428 = pred[] constant(false)
  constant.479 = pred[] constant(false)
  constant.581 = pred[] constant(false)
  constant.632 = pred[] constant(false)
  constant.683 = pred[] constant(false)
  constant.738 = pred[] constant(false)
  constant.789 = pred[] constant(false)
  constant.840 = pred[] constant(false)
  constant.895 = pred[] constant(false)
  constant.946 = pred[] constant(false)
  constant.997 = pred[] constant(false)
  constant.1099 = pred[] constant(false)
  constant.1150 = pred[] constant(false)
  constant.1201 = pred[] constant(false)
  constant.1256 = pred[] constant(false)
  constant.1307 = pred[] constant(false)
  constant.1358 = pred[] constant(false)
  constant.1413 = pred[] constant(false)
  constant.1464 = pred[] constant(false)
  constant.1515 = pred[] constant(false)
  constant.1570 = pred[] constant(false)
  constant.1621 = pred[] constant(false)
  constant.1672 = pred[] constant(false)
  constant.1774 = pred[] constant(false)
  constant.1825 = pred[] constant(false)
  constant.1876 = pred[] constant(false)
  constant.1931 = pred[] constant(false)
  constant.1982 = pred[] constant(false)
  constant.2033 = pred[] constant(false)
  constant.2088 = pred[] constant(false)
  constant.2139 = pred[] constant(false)
  constant.2190 = pred[] constant(false)
  constant.2245 = pred[] constant(false)
  constant.2296 = pred[] constant(false)
  constant.2347 = pred[] constant(false)
  constant.2402 = pred[] constant(false)
  constant.2453 = pred[] constant(false)
  constant.2504 = pred[] constant(false)
  constant.2559 = pred[] constant(false)
  constant.2610 = pred[] constant(false)
  constant.2661 = pred[] constant(false)
  constant.2763 = pred[] constant(false)
  constant.2814 = pred[] constant(false)
  constant.2865 = pred[] constant(false)
  constant.2920 = pred[] constant(false)
  constant.2971 = pred[] constant(false)
  constant.3022 = pred[] constant(false)
  constant.3077 = pred[] constant(false)
  constant.315 = f32[] constant(1)
  broadcast.316 = f32[2048]{0} broadcast(constant.315), dimensions={}
  broadcast.3065 = f32[1,1,1,2048]{3,2,1,0} broadcast(broadcast.316), dimensions={3}
  reshape.3066 = f32[1,2048]{1,0} reshape(broadcast.3065)
  broadcast.3067 = f32[1,7,7,2048]{3,2,1,0} broadcast(reshape.3066), dimensions={0,3}
  constant.309 = f32[] constant(1)
  broadcast.310 = f32[512]{0} broadcast(constant.309), dimensions={}
  broadcast.3014 = f32[1,1,1,512]{3,2,1,0} broadcast(broadcast.310), dimensions={3}
  reshape.3015 = f32[1,512]{1,0} reshape(broadcast.3014)
  broadcast.3016 = f32[1,7,7,512]{3,2,1,0} broadcast(reshape.3015), dimensions={0,3}
  constant.303 = f32[] constant(1)
  broadcast.304 = f32[512]{0} broadcast(constant.303), dimensions={}
  broadcast.2963 = f32[1,1,1,512]{3,2,1,0} broadcast(broadcast.304), dimensions={3}
  reshape.2964 = f32[1,512]{1,0} reshape(broadcast.2963)
  broadcast.2965 = f32[1,7,7,512]{3,2,1,0} broadcast(reshape.2964), dimensions={0,3}
  constant.297 = f32[] constant(1)
  broadcast.298 = f32[2048]{0} broadcast(constant.297), dimensions={}
  broadcast.2908 = f32[1,1,1,2048]{3,2,1,0} broadcast(broadcast.298), dimensions={3}
  reshape.2909 = f32[1,2048]{1,0} reshape(broadcast.2908)
  broadcast.2910 = f32[1,7,7,2048]{3,2,1,0} broadcast(reshape.2909), dimensions={0,3}
  constant.291 = f32[] constant(1)
  broadcast.292 = f32[512]{0} broadcast(constant.291), dimensions={}
  broadcast.2857 = f32[1,1,1,512]{3,2,1,0} broadcast(broadcast.292), dimensions={3}
  reshape.2858 = f32[1,512]{1,0} reshape(broadcast.2857)
  broadcast.2859 = f32[1,7,7,512]{3,2,1,0} broadcast(reshape.2858), dimensions={0,3}
  constant.285 = f32[] constant(1)
  broadcast.286 = f32[512]{0} broadcast(constant.285), dimensions={}
  broadcast.2806 = f32[1,1,1,512]{3,2,1,0} broadcast(broadcast.286), dimensions={3}
  reshape.2807 = f32[1,512]{1,0} reshape(broadcast.2806)
  broadcast.2808 = f32[1,7,7,512]{3,2,1,0} broadcast(reshape.2807), dimensions={0,3}
  constant.273 = f32[] constant(1)
  broadcast.274 = f32[2048]{0} broadcast(constant.273), dimensions={}
  broadcast.2704 = f32[1,1,1,2048]{3,2,1,0} broadcast(broadcast.274), dimensions={3}
  reshape.2705 = f32[1,2048]{1,0} reshape(broadcast.2704)
  broadcast.2706 = f32[1,7,7,2048]{3,2,1,0} broadcast(reshape.2705), dimensions={0,3}
  constant.267 = f32[] constant(1)
  broadcast.268 = f32[512]{0} broadcast(constant.267), dimensions={}
  broadcast.2653 = f32[1,1,1,512]{3,2,1,0} broadcast(broadcast.268), dimensions={3}
  reshape.2654 = f32[1,512]{1,0} reshape(broadcast.2653)
  broadcast.2655 = f32[1,7,7,512]{3,2,1,0} broadcast(reshape.2654), dimensions={0,3}
  constant.261 = f32[] constant(1)
  broadcast.262 = f32[512]{0} broadcast(constant.261), dimensions={}
  broadcast.2602 = f32[1,1,1,512]{3,2,1,0} broadcast(broadcast.262), dimensions={3}
  reshape.2603 = f32[1,512]{1,0} reshape(broadcast.2602)
  broadcast.2604 = f32[1,7,7,512]{3,2,1,0} broadcast(reshape.2603), dimensions={0,3}
  constant.255 = f32[] constant(1)
  broadcast.256 = f32[1024]{0} broadcast(constant.255), dimensions={}
  broadcast.2547 = f32[1,1,1,1024]{3,2,1,0} broadcast(broadcast.256), dimensions={3}
  reshape.2548 = f32[1,1024]{1,0} reshape(broadcast.2547)
  broadcast.2549 = f32[1,14,14,1024]{3,2,1,0} broadcast(reshape.2548), dimensions={0,3}
  constant.249 = f32[] constant(1)
  broadcast.250 = f32[256]{0} broadcast(constant.249), dimensions={}
  broadcast.2496 = f32[1,1,1,256]{3,2,1,0} broadcast(broadcast.250), dimensions={3}
  reshape.2497 = f32[1,256]{1,0} reshape(broadcast.2496)
  broadcast.2498 = f32[1,14,14,256]{3,2,1,0} broadcast(reshape.2497), dimensions={0,3}
  constant.243 = f32[] constant(1)
  broadcast.244 = f32[256]{0} broadcast(constant.243), dimensions={}
  broadcast.2445 = f32[1,1,1,256]{3,2,1,0} broadcast(broadcast.244), dimensions={3}
  reshape.2446 = f32[1,256]{1,0} reshape(broadcast.2445)
  broadcast.2447 = f32[1,14,14,256]{3,2,1,0} broadcast(reshape.2446), dimensions={0,3}
  constant.237 = f32[] constant(1)
  broadcast.238 = f32[1024]{0} broadcast(constant.237), dimensions={}
  broadcast.2390 = f32[1,1,1,1024]{3,2,1,0} broadcast(broadcast.238), dimensions={3}
  reshape.2391 = f32[1,1024]{1,0} reshape(broadcast.2390)
  broadcast.2392 = f32[1,14,14,1024]{3,2,1,0} broadcast(reshape.2391), dimensions={0,3}
  constant.231 = f32[] constant(1)
  broadcast.232 = f32[256]{0} broadcast(constant.231), dimensions={}
  broadcast.2339 = f32[1,1,1,256]{3,2,1,0} broadcast(broadcast.232), dimensions={3}
  reshape.2340 = f32[1,256]{1,0} reshape(broadcast.2339)
  broadcast.2341 = f32[1,14,14,256]{3,2,1,0} broadcast(reshape.2340), dimensions={0,3}
  constant.225 = f32[] constant(1)
  broadcast.226 = f32[256]{0} broadcast(constant.225), dimensions={}
  broadcast.2288 = f32[1,1,1,256]{3,2,1,0} broadcast(broadcast.226), dimensions={3}
  reshape.2289 = f32[1,256]{1,0} reshape(broadcast.2288)
  broadcast.2290 = f32[1,14,14,256]{3,2,1,0} broadcast(reshape.2289), dimensions={0,3}
  constant.219 = f32[] constant(1)
  broadcast.220 = f32[1024]{0} broadcast(constant.219), dimensions={}
  broadcast.2233 = f32[1,1,1,1024]{3,2,1,0} broadcast(broadcast.220), dimensions={3}
  reshape.2234 = f32[1,1024]{1,0} reshape(broadcast.2233)
  broadcast.2235 = f32[1,14,14,1024]{3,2,1,0} broadcast(reshape.2234), dimensions={0,3}
  constant.213 = f32[] constant(1)
  broadcast.214 = f32[256]{0} broadcast(constant.213), dimensions={}
  broadcast.2182 = f32[1,1,1,256]{3,2,1,0} broadcast(broadcast.214), dimensions={3}
  reshape.2183 = f32[1,256]{1,0} reshape(broadcast.2182)
  broadcast.2184 = f32[1,14,14,256]{3,2,1,0} broadcast(reshape.2183), dimensions={0,3}
  constant.207 = f32[] constant(1)
  broadcast.208 = f32[256]{0} broadcast(constant.207), dimensions={}
  broadcast.2131 = f32[1,1,1,256]{3,2,1,0} broadcast(broadcast.208), dimensions={3}
  reshape.2132 = f32[1,256]{1,0} reshape(broadcast.2131)
  broadcast.2133 = f32[1,14,14,256]{3,2,1,0} broadcast(reshape.2132), dimensions={0,3}
  constant.201 = f32[] constant(1)
  broadcast.202 = f32[1024]{0} broadcast(constant.201), dimensions={}
  broadcast.2076 = f32[1,1,1,1024]{3,2,1,0} broadcast(broadcast.202), dimensions={3}
  reshape.2077 = f32[1,1024]{1,0} reshape(broadcast.2076)
  broadcast.2078 = f32[1,14,14,1024]{3,2,1,0} broadcast(reshape.2077), dimensions={0,3}
  constant.195 = f32[] constant(1)
  broadcast.196 = f32[256]{0} broadcast(constant.195), dimensions={}
  broadcast.2025 = f32[1,1,1,256]{3,2,1,0} broadcast(broadcast.196), dimensions={3}
  reshape.2026 = f32[1,256]{1,0} reshape(broadcast.2025)
  broadcast.2027 = f32[1,14,14,256]{3,2,1,0} broadcast(reshape.2026), dimensions={0,3}
  constant.189 = f32[] constant(1)
  broadcast.190 = f32[256]{0} broadcast(constant.189), dimensions={}
  broadcast.1974 = f32[1,1,1,256]{3,2,1,0} broadcast(broadcast.190), dimensions={3}
  reshape.1975 = f32[1,256]{1,0} reshape(broadcast.1974)
  broadcast.1976 = f32[1,14,14,256]{3,2,1,0} broadcast(reshape.1975), dimensions={0,3}
  constant.183 = f32[] constant(1)
  broadcast.184 = f32[1024]{0} broadcast(constant.183), dimensions={}
  broadcast.1919 = f32[1,1,1,1024]{3,2,1,0} broadcast(broadcast.184), dimensions={3}
  reshape.1920 = f32[1,1024]{1,0} reshape(broadcast.1919)
  broadcast.1921 = f32[1,14,14,1024]{3,2,1,0} broadcast(reshape.1920), dimensions={0,3}
  constant.177 = f32[] constant(1)
  broadcast.178 = f32[256]{0} broadcast(constant.177), dimensions={}
  broadcast.1868 = f32[1,1,1,256]{3,2,1,0} broadcast(broadcast.178), dimensions={3}
  reshape.1869 = f32[1,256]{1,0} reshape(broadcast.1868)
  broadcast.1870 = f32[1,14,14,256]{3,2,1,0} broadcast(reshape.1869), dimensions={0,3}
  constant.171 = f32[] constant(1)
  broadcast.172 = f32[256]{0} broadcast(constant.171), dimensions={}
  broadcast.1817 = f32[1,1,1,256]{3,2,1,0} broadcast(broadcast.172), dimensions={3}
  reshape.1818 = f32[1,256]{1,0} reshape(broadcast.1817)
  broadcast.1819 = f32[1,14,14,256]{3,2,1,0} broadcast(reshape.1818), dimensions={0,3}
  constant.159 = f32[] constant(1)
  broadcast.160 = f32[1024]{0} broadcast(constant.159), dimensions={}
  broadcast.1715 = f32[1,1,1,1024]{3,2,1,0} broadcast(broadcast.160), dimensions={3}
  reshape.1716 = f32[1,1024]{1,0} reshape(broadcast.1715)
  broadcast.1717 = f32[1,14,14,1024]{3,2,1,0} broadcast(reshape.1716), dimensions={0,3}
  constant.153 = f32[] constant(1)
  broadcast.154 = f32[256]{0} broadcast(constant.153), dimensions={}
  broadcast.1664 = f32[1,1,1,256]{3,2,1,0} broadcast(broadcast.154), dimensions={3}
  reshape.1665 = f32[1,256]{1,0} reshape(broadcast.1664)
  broadcast.1666 = f32[1,14,14,256]{3,2,1,0} broadcast(reshape.1665), dimensions={0,3}
  constant.147 = f32[] constant(1)
  broadcast.148 = f32[256]{0} broadcast(constant.147), dimensions={}
  broadcast.1613 = f32[1,1,1,256]{3,2,1,0} broadcast(broadcast.148), dimensions={3}
  reshape.1614 = f32[1,256]{1,0} reshape(broadcast.1613)
  broadcast.1615 = f32[1,14,14,256]{3,2,1,0} broadcast(reshape.1614), dimensions={0,3}
  constant.141 = f32[] constant(1)
  broadcast.142 = f32[512]{0} broadcast(constant.141), dimensions={}
  broadcast.1558 = f32[1,1,1,512]{3,2,1,0} broadcast(broadcast.142), dimensions={3}
  reshape.1559 = f32[1,512]{1,0} reshape(broadcast.1558)
  broadcast.1560 = f32[1,28,28,512]{3,2,1,0} broadcast(reshape.1559), dimensions={0,3}
  constant.135 = f32[] constant(1)
  broadcast.136 = f32[128]{0} broadcast(constant.135), dimensions={}
  broadcast.1507 = f32[1,1,1,128]{3,2,1,0} broadcast(broadcast.136), dimensions={3}
  reshape.1508 = f32[1,128]{1,0} reshape(broadcast.1507)
  broadcast.1509 = f32[1,28,28,128]{3,2,1,0} broadcast(reshape.1508), dimensions={0,3}
  constant.129 = f32[] constant(1)
  broadcast.130 = f32[128]{0} broadcast(constant.129), dimensions={}
  broadcast.1456 = f32[1,1,1,128]{3,2,1,0} broadcast(broadcast.130), dimensions={3}
  reshape.1457 = f32[1,128]{1,0} reshape(broadcast.1456)
  broadcast.1458 = f32[1,28,28,128]{3,2,1,0} broadcast(reshape.1457), dimensions={0,3}
  constant.123 = f32[] constant(1)
  broadcast.124 = f32[512]{0} broadcast(constant.123), dimensions={}
  broadcast.1401 = f32[1,1,1,512]{3,2,1,0} broadcast(broadcast.124), dimensions={3}
  reshape.1402 = f32[1,512]{1,0} reshape(broadcast.1401)
  broadcast.1403 = f32[1,28,28,512]{3,2,1,0} broadcast(reshape.1402), dimensions={0,3}
  constant.117 = f32[] constant(1)
  broadcast.118 = f32[128]{0} broadcast(constant.117), dimensions={}
  broadcast.1350 = f32[1,1,1,128]{3,2,1,0} broadcast(broadcast.118), dimensions={3}
  reshape.1351 = f32[1,128]{1,0} reshape(broadcast.1350)
  broadcast.1352 = f32[1,28,28,128]{3,2,1,0} broadcast(reshape.1351), dimensions={0,3}
  constant.111 = f32[] constant(1)
  broadcast.112 = f32[128]{0} broadcast(constant.111), dimensions={}
  broadcast.1299 = f32[1,1,1,128]{3,2,1,0} broadcast(broadcast.112), dimensions={3}
  reshape.1300 = f32[1,128]{1,0} reshape(broadcast.1299)
  broadcast.1301 = f32[1,28,28,128]{3,2,1,0} broadcast(reshape.1300), dimensions={0,3}
  constant.105 = f32[] constant(1)
  broadcast.106 = f32[512]{0} broadcast(constant.105), dimensions={}
  broadcast.1244 = f32[1,1,1,512]{3,2,1,0} broadcast(broadcast.106), dimensions={3}
  reshape.1245 = f32[1,512]{1,0} reshape(broadcast.1244)
  broadcast.1246 = f32[1,28,28,512]{3,2,1,0} broadcast(reshape.1245), dimensions={0,3}
  constant.99 = f32[] constant(1)
  broadcast.100 = f32[128]{0} broadcast(constant.99), dimensions={}
  broadcast.1193 = f32[1,1,1,128]{3,2,1,0} broadcast(broadcast.100), dimensions={3}
  reshape.1194 = f32[1,128]{1,0} reshape(broadcast.1193)
  broadcast.1195 = f32[1,28,28,128]{3,2,1,0} broadcast(reshape.1194), dimensions={0,3}
  constant.93 = f32[] constant(1)
  broadcast.94 = f32[128]{0} broadcast(constant.93), dimensions={}
  broadcast.1142 = f32[1,1,1,128]{3,2,1,0} broadcast(broadcast.94), dimensions={3}
  reshape.1143 = f32[1,128]{1,0} reshape(broadcast.1142)
  broadcast.1144 = f32[1,28,28,128]{3,2,1,0} broadcast(reshape.1143), dimensions={0,3}
  constant.81 = f32[] constant(1)
  broadcast.82 = f32[512]{0} broadcast(constant.81), dimensions={}
  broadcast.1040 = f32[1,1,1,512]{3,2,1,0} broadcast(broadcast.82), dimensions={3}
  reshape.1041 = f32[1,512]{1,0} reshape(broadcast.1040)
  broadcast.1042 = f32[1,28,28,512]{3,2,1,0} broadcast(reshape.1041), dimensions={0,3}
  constant.75 = f32[] constant(1)
  broadcast.76 = f32[128]{0} broadcast(constant.75), dimensions={}
  broadcast.989 = f32[1,1,1,128]{3,2,1,0} broadcast(broadcast.76), dimensions={3}
  reshape.990 = f32[1,128]{1,0} reshape(broadcast.989)
  broadcast.991 = f32[1,28,28,128]{3,2,1,0} broadcast(reshape.990), dimensions={0,3}
  constant.69 = f32[] constant(1)
  broadcast.70 = f32[128]{0} broadcast(constant.69), dimensions={}
  broadcast.938 = f32[1,1,1,128]{3,2,1,0} broadcast(broadcast.70), dimensions={3}
  reshape.939 = f32[1,128]{1,0} reshape(broadcast.938)
  broadcast.940 = f32[1,28,28,128]{3,2,1,0} broadcast(reshape.939), dimensions={0,3}
  constant.63 = f32[] constant(1)
  broadcast.64 = f32[256]{0} broadcast(constant.63), dimensions={}
  broadcast.883 = f32[1,1,1,256]{3,2,1,0} broadcast(broadcast.64), dimensions={3}
  reshape.884 = f32[1,256]{1,0} reshape(broadcast.883)
  broadcast.885 = f32[1,55,55,256]{3,2,1,0} broadcast(reshape.884), dimensions={0,3}
  constant.57 = f32[] constant(1)
  broadcast.58 = f32[64]{0} broadcast(constant.57), dimensions={}
  broadcast.832 = f32[1,1,1,64]{3,2,1,0} broadcast(broadcast.58), dimensions={3}
  reshape.833 = f32[1,64]{1,0} reshape(broadcast.832)
  broadcast.834 = f32[1,55,55,64]{3,2,1,0} broadcast(reshape.833), dimensions={0,3}
  constant.51 = f32[] constant(1)
  broadcast.52 = f32[64]{0} broadcast(constant.51), dimensions={}
  broadcast.781 = f32[1,1,1,64]{3,2,1,0} broadcast(broadcast.52), dimensions={3}
  reshape.782 = f32[1,64]{1,0} reshape(broadcast.781)
  broadcast.783 = f32[1,55,55,64]{3,2,1,0} broadcast(reshape.782), dimensions={0,3}
  constant.45 = f32[] constant(1)
  broadcast.46 = f32[256]{0} broadcast(constant.45), dimensions={}
  broadcast.726 = f32[1,1,1,256]{3,2,1,0} broadcast(broadcast.46), dimensions={3}
  reshape.727 = f32[1,256]{1,0} reshape(broadcast.726)
  broadcast.728 = f32[1,55,55,256]{3,2,1,0} broadcast(reshape.727), dimensions={0,3}
  constant.39 = f32[] constant(1)
  broadcast.40 = f32[64]{0} broadcast(constant.39), dimensions={}
  broadcast.675 = f32[1,1,1,64]{3,2,1,0} broadcast(broadcast.40), dimensions={3}
  reshape.676 = f32[1,64]{1,0} reshape(broadcast.675)
  broadcast.677 = f32[1,55,55,64]{3,2,1,0} broadcast(reshape.676), dimensions={0,3}
  constant.33 = f32[] constant(1)
  broadcast.34 = f32[64]{0} broadcast(constant.33), dimensions={}
  broadcast.624 = f32[1,1,1,64]{3,2,1,0} broadcast(broadcast.34), dimensions={3}
  reshape.625 = f32[1,64]{1,0} reshape(broadcast.624)
  broadcast.626 = f32[1,55,55,64]{3,2,1,0} broadcast(reshape.625), dimensions={0,3}
  constant.21 = f32[] constant(1)
  broadcast.22 = f32[256]{0} broadcast(constant.21), dimensions={}
  broadcast.522 = f32[1,1,1,256]{3,2,1,0} broadcast(broadcast.22), dimensions={3}
  reshape.523 = f32[1,256]{1,0} reshape(broadcast.522)
  broadcast.524 = f32[1,55,55,256]{3,2,1,0} broadcast(reshape.523), dimensions={0,3}
  constant.15 = f32[] constant(1)
  broadcast.16 = f32[64]{0} broadcast(constant.15), dimensions={}
  broadcast.471 = f32[1,1,1,64]{3,2,1,0} broadcast(broadcast.16), dimensions={3}
  reshape.472 = f32[1,64]{1,0} reshape(broadcast.471)
  broadcast.473 = f32[1,55,55,64]{3,2,1,0} broadcast(reshape.472), dimensions={0,3}
  constant.9 = f32[] constant(1)
  broadcast.10 = f32[64]{0} broadcast(constant.9), dimensions={}
  broadcast.420 = f32[1,1,1,64]{3,2,1,0} broadcast(broadcast.10), dimensions={3}
  reshape.421 = f32[1,64]{1,0} reshape(broadcast.420)
  broadcast.422 = f32[1,55,55,64]{3,2,1,0} broadcast(reshape.421), dimensions={0,3}
  constant.3 = f32[] constant(1)
  broadcast.4 = f32[64]{0} broadcast(constant.3), dimensions={}
  broadcast.362 = f32[1,1,1,64]{3,2,1,0} broadcast(broadcast.4), dimensions={3}
  reshape.363 = f32[1,64]{1,0} reshape(broadcast.362)
  broadcast.364 = f32[1,112,112,64]{3,2,1,0} broadcast(reshape.363), dimensions={0,3}
  parameter.321 = f32[224,224,3,1]{3,2,1,0} parameter(0)
  constant.1 = f32[64,3,7,7]{3,2,1,0} constant({...})
  convolution.323 = f32[1,112,112,64]{3,2,1,0} convolution(parameter.321, constant.1), window={size=7x7 stride=2x2 pad=2_3x2_3}, dim_labels=01fb_oi01->b01f
  constant.2 = f32[1,1,1,64]{3,2,1,0} constant({...})
  reshape.324 = f32[1,64]{1,0} reshape(constant.2)
  broadcast.325 = f32[1,112,112,64]{3,2,1,0} broadcast(reshape.324), dimensions={0,3}
  add.326 = f32[1,112,112,64]{3,2,1,0} add(convolution.323, broadcast.325)
  constant.327 = f32[] constant(0)
  reduce.333 = f32[64]{0} reduce(add.326, constant.327), dimensions={0,1,2}, to_apply=primitive_computation_add.328
  broadcast.334 = f32[1,1,1,64]{3,2,1,0} broadcast(reduce.333), dimensions={3}
  constant.335 = f32[] constant(12544)
  broadcast.336 = f32[1,1,1,64]{3,2,1,0} broadcast(constant.335), dimensions={}
  divide.337 = f32[1,1,1,64]{3,2,1,0} divide(broadcast.334, broadcast.336)
  reshape.352 = f32[1,64]{1,0} reshape(divide.337)
  broadcast.353 = f32[1,112,112,64]{3,2,1,0} broadcast(reshape.352), dimensions={0,3}
  subtract.354 = f32[1,112,112,64]{3,2,1,0} subtract(add.326, broadcast.353)
  multiply.338 = f32[1,112,112,64]{3,2,1,0} multiply(add.326, add.326)
  constant.339 = f32[] constant(0)
  reduce.345 = f32[64]{0} reduce(multiply.338, constant.339), dimensions={0,1,2}, to_apply=primitive_computation_add__1.340
  broadcast.346 = f32[1,1,1,64]{3,2,1,0} broadcast(reduce.345), dimensions={3}
  constant.347 = f32[] constant(12544)
  broadcast.348 = f32[1,1,1,64]{3,2,1,0} broadcast(constant.347), dimensions={}
  divide.349 = f32[1,1,1,64]{3,2,1,0} divide(broadcast.346, broadcast.348)
  multiply.350 = f32[1,1,1,64]{3,2,1,0} multiply(divide.337, divide.337)
  subtract.351 = f32[1,1,1,64]{3,2,1,0} subtract(divide.349, multiply.350)
  constant.355 = f32[] constant(1e-05)
  broadcast.356 = f32[1,1,1,64]{3,2,1,0} broadcast(constant.355), dimensions={}
  add.357 = f32[1,1,1,64]{3,2,1,0} add(subtract.351, broadcast.356)
  rsqrt.358 = f32[1,1,1,64]{3,2,1,0} rsqrt(add.357)
  reshape.359 = f32[1,64]{1,0} reshape(rsqrt.358)
  broadcast.360 = f32[1,112,112,64]{3,2,1,0} broadcast(reshape.359), dimensions={0,3}
  multiply.361 = f32[1,112,112,64]{3,2,1,0} multiply(subtract.354, broadcast.360)
  multiply.365 = f32[1,112,112,64]{3,2,1,0} multiply(broadcast.364, multiply.361)
  constant.5 = f32[] constant(0)
  broadcast.6 = f32[64]{0} broadcast(constant.5), dimensions={}
  broadcast.366 = f32[1,1,1,64]{3,2,1,0} broadcast(broadcast.6), dimensions={3}
  reshape.367 = f32[1,64]{1,0} reshape(broadcast.366)
  broadcast.368 = f32[1,112,112,64]{3,2,1,0} broadcast(reshape.367), dimensions={0,3}
  add.369 = f32[1,112,112,64]{3,2,1,0} add(multiply.365, broadcast.368)
  constant.371 = f32[] constant(0)
  broadcast.372 = f32[1,112,112,64]{3,2,1,0} broadcast(constant.371), dimensions={}
  maximum.373 = f32[1,112,112,64]{3,2,1,0} maximum(add.369, broadcast.372)
  constant.374 = f32[] constant(-inf)
  reduce-window.380 = f32[1,55,55,64]{3,2,1,0} reduce-window(maximum.373, constant.374), window={size=1x3x3x1 stride=1x2x2x1}, to_apply=primitive_computation_max.375
  constant.7 = f32[1,1,64,64]{3,2,1,0} constant({...})
  convolution.381 = f32[1,55,55,64]{3,2,1,0} convolution(reduce-window.380, constant.7), window={size=1x1}, dim_labels=b01f_01io->b01f
  constant.8 = f32[1,1,1,64]{3,2,1,0} constant({...})
  reshape.382 = f32[1,64]{1,0} reshape(constant.8)
  broadcast.383 = f32[1,55,55,64]{3,2,1,0} broadcast(reshape.382), dimensions={0,3}
  add.384 = f32[1,55,55,64]{3,2,1,0} add(convolution.381, broadcast.383)
  constant.385 = f32[] constant(0)
  reduce.391 = f32[64]{0} reduce(add.384, constant.385), dimensions={0,1,2}, to_apply=primitive_computation_add__2.386
  broadcast.392 = f32[1,1,1,64]{3,2,1,0} broadcast(reduce.391), dimensions={3}
  constant.393 = f32[] constant(3025)
  broadcast.394 = f32[1,1,1,64]{3,2,1,0} broadcast(constant.393), dimensions={}
  divide.395 = f32[1,1,1,64]{3,2,1,0} divide(broadcast.392, broadcast.394)
  reshape.410 = f32[1,64]{1,0} reshape(divide.395)
  broadcast.411 = f32[1,55,55,64]{3,2,1,0} broadcast(reshape.410), dimensions={0,3}
  subtract.412 = f32[1,55,55,64]{3,2,1,0} subtract(add.384, broadcast.411)
  multiply.396 = f32[1,55,55,64]{3,2,1,0} multiply(add.384, add.384)
  constant.397 = f32[] constant(0)
  reduce.403 = f32[64]{0} reduce(multiply.396, constant.397), dimensions={0,1,2}, to_apply=primitive_computation_add__3.398
  broadcast.404 = f32[1,1,1,64]{3,2,1,0} broadcast(reduce.403), dimensions={3}
  constant.405 = f32[] constant(3025)
  broadcast.406 = f32[1,1,1,64]{3,2,1,0} broadcast(constant.405), dimensions={}
  divide.407 = f32[1,1,1,64]{3,2,1,0} divide(broadcast.404, broadcast.406)
  multiply.408 = f32[1,1,1,64]{3,2,1,0} multiply(divide.395, divide.395)
  subtract.409 = f32[1,1,1,64]{3,2,1,0} subtract(divide.407, multiply.408)
  constant.413 = f32[] constant(1e-05)
  broadcast.414 = f32[1,1,1,64]{3,2,1,0} broadcast(constant.413), dimensions={}
  add.415 = f32[1,1,1,64]{3,2,1,0} add(subtract.409, broadcast.414)
  rsqrt.416 = f32[1,1,1,64]{3,2,1,0} rsqrt(add.415)
  reshape.417 = f32[1,64]{1,0} reshape(rsqrt.416)
  broadcast.418 = f32[1,55,55,64]{3,2,1,0} broadcast(reshape.417), dimensions={0,3}
  multiply.419 = f32[1,55,55,64]{3,2,1,0} multiply(subtract.412, broadcast.418)
  multiply.423 = f32[1,55,55,64]{3,2,1,0} multiply(broadcast.422, multiply.419)
  constant.11 = f32[] constant(0)
  broadcast.12 = f32[64]{0} broadcast(constant.11), dimensions={}
  broadcast.424 = f32[1,1,1,64]{3,2,1,0} broadcast(broadcast.12), dimensions={3}
  reshape.425 = f32[1,64]{1,0} reshape(broadcast.424)
  broadcast.426 = f32[1,55,55,64]{3,2,1,0} broadcast(reshape.425), dimensions={0,3}
  add.427 = f32[1,55,55,64]{3,2,1,0} add(multiply.423, broadcast.426)
  constant.429 = f32[] constant(0)
  broadcast.430 = f32[1,55,55,64]{3,2,1,0} broadcast(constant.429), dimensions={}
  maximum.431 = f32[1,55,55,64]{3,2,1,0} maximum(add.427, broadcast.430)
  constant.13 = f32[3,3,64,64]{3,2,1,0} constant({...})
  convolution.432 = f32[1,55,55,64]{3,2,1,0} convolution(maximum.431, constant.13), window={size=3x3 pad=1_1x1_1}, dim_labels=b01f_01io->b01f
  constant.14 = f32[1,1,1,64]{3,2,1,0} constant({...})
  reshape.433 = f32[1,64]{1,0} reshape(constant.14)
  broadcast.434 = f32[1,55,55,64]{3,2,1,0} broadcast(reshape.433), dimensions={0,3}
  add.435 = f32[1,55,55,64]{3,2,1,0} add(convolution.432, broadcast.434)
  constant.436 = f32[] constant(0)
  reduce.442 = f32[64]{0} reduce(add.435, constant.436), dimensions={0,1,2}, to_apply=primitive_computation_add__4.437
  broadcast.443 = f32[1,1,1,64]{3,2,1,0} broadcast(reduce.442), dimensions={3}
  constant.444 = f32[] constant(3025)
  broadcast.445 = f32[1,1,1,64]{3,2,1,0} broadcast(constant.444), dimensions={}
  divide.446 = f32[1,1,1,64]{3,2,1,0} divide(broadcast.443, broadcast.445)
  reshape.461 = f32[1,64]{1,0} reshape(divide.446)
  broadcast.462 = f32[1,55,55,64]{3,2,1,0} broadcast(reshape.461), dimensions={0,3}
  subtract.463 = f32[1,55,55,64]{3,2,1,0} subtract(add.435, broadcast.462)
  multiply.447 = f32[1,55,55,64]{3,2,1,0} multiply(add.435, add.435)
  constant.448 = f32[] constant(0)
  reduce.454 = f32[64]{0} reduce(multiply.447, constant.448), dimensions={0,1,2}, to_apply=primitive_computation_add__5.449
  broadcast.455 = f32[1,1,1,64]{3,2,1,0} broadcast(reduce.454), dimensions={3}
  constant.456 = f32[] constant(3025)
  broadcast.457 = f32[1,1,1,64]{3,2,1,0} broadcast(constant.456), dimensions={}
  divide.458 = f32[1,1,1,64]{3,2,1,0} divide(broadcast.455, broadcast.457)
  multiply.459 = f32[1,1,1,64]{3,2,1,0} multiply(divide.446, divide.446)
  subtract.460 = f32[1,1,1,64]{3,2,1,0} subtract(divide.458, multiply.459)
  constant.464 = f32[] constant(1e-05)
  broadcast.465 = f32[1,1,1,64]{3,2,1,0} broadcast(constant.464), dimensions={}
  add.466 = f32[1,1,1,64]{3,2,1,0} add(subtract.460, broadcast.465)
  rsqrt.467 = f32[1,1,1,64]{3,2,1,0} rsqrt(add.466)
  reshape.468 = f32[1,64]{1,0} reshape(rsqrt.467)
  broadcast.469 = f32[1,55,55,64]{3,2,1,0} broadcast(reshape.468), dimensions={0,3}
  multiply.470 = f32[1,55,55,64]{3,2,1,0} multiply(subtract.463, broadcast.469)
  multiply.474 = f32[1,55,55,64]{3,2,1,0} multiply(broadcast.473, multiply.470)
  constant.17 = f32[] constant(0)
  broadcast.18 = f32[64]{0} broadcast(constant.17), dimensions={}
  broadcast.475 = f32[1,1,1,64]{3,2,1,0} broadcast(broadcast.18), dimensions={3}
  reshape.476 = f32[1,64]{1,0} reshape(broadcast.475)
  broadcast.477 = f32[1,55,55,64]{3,2,1,0} broadcast(reshape.476), dimensions={0,3}
  add.478 = f32[1,55,55,64]{3,2,1,0} add(multiply.474, broadcast.477)
  constant.480 = f32[] constant(0)
  broadcast.481 = f32[1,55,55,64]{3,2,1,0} broadcast(constant.480), dimensions={}
  maximum.482 = f32[1,55,55,64]{3,2,1,0} maximum(add.478, broadcast.481)
  constant.19 = f32[1,1,64,256]{3,2,1,0} constant({...})
  convolution.483 = f32[1,55,55,256]{3,2,1,0} convolution(maximum.482, constant.19), window={size=1x1}, dim_labels=b01f_01io->b01f
  constant.20 = f32[1,1,1,256]{3,2,1,0} constant({...})
  reshape.484 = f32[1,256]{1,0} reshape(constant.20)
  broadcast.485 = f32[1,55,55,256]{3,2,1,0} broadcast(reshape.484), dimensions={0,3}
  add.486 = f32[1,55,55,256]{3,2,1,0} add(convolution.483, broadcast.485)
  constant.487 = f32[] constant(0)
  reduce.493 = f32[256]{0} reduce(add.486, constant.487), dimensions={0,1,2}, to_apply=primitive_computation_add__6.488
  broadcast.494 = f32[1,1,1,256]{3,2,1,0} broadcast(reduce.493), dimensions={3}
  constant.495 = f32[] constant(3025)
  broadcast.496 = f32[1,1,1,256]{3,2,1,0} broadcast(constant.495), dimensions={}
  divide.497 = f32[1,1,1,256]{3,2,1,0} divide(broadcast.494, broadcast.496)
  reshape.512 = f32[1,256]{1,0} reshape(divide.497)
  broadcast.513 = f32[1,55,55,256]{3,2,1,0} broadcast(reshape.512), dimensions={0,3}
  subtract.514 = f32[1,55,55,256]{3,2,1,0} subtract(add.486, broadcast.513)
  multiply.498 = f32[1,55,55,256]{3,2,1,0} multiply(add.486, add.486)
  constant.499 = f32[] constant(0)
  reduce.505 = f32[256]{0} reduce(multiply.498, constant.499), dimensions={0,1,2}, to_apply=primitive_computation_add__7.500
  broadcast.506 = f32[1,1,1,256]{3,2,1,0} broadcast(reduce.505), dimensions={3}
  constant.507 = f32[] constant(3025)
  broadcast.508 = f32[1,1,1,256]{3,2,1,0} broadcast(constant.507), dimensions={}
  divide.509 = f32[1,1,1,256]{3,2,1,0} divide(broadcast.506, broadcast.508)
  multiply.510 = f32[1,1,1,256]{3,2,1,0} multiply(divide.497, divide.497)
  subtract.511 = f32[1,1,1,256]{3,2,1,0} subtract(divide.509, multiply.510)
  constant.515 = f32[] constant(1e-05)
  broadcast.516 = f32[1,1,1,256]{3,2,1,0} broadcast(constant.515), dimensions={}
  add.517 = f32[1,1,1,256]{3,2,1,0} add(subtract.511, broadcast.516)
  rsqrt.518 = f32[1,1,1,256]{3,2,1,0} rsqrt(add.517)
  reshape.519 = f32[1,256]{1,0} reshape(rsqrt.518)
  broadcast.520 = f32[1,55,55,256]{3,2,1,0} broadcast(reshape.519), dimensions={0,3}
  multiply.521 = f32[1,55,55,256]{3,2,1,0} multiply(subtract.514, broadcast.520)
  multiply.525 = f32[1,55,55,256]{3,2,1,0} multiply(broadcast.524, multiply.521)
  constant.23 = f32[] constant(0)
  broadcast.24 = f32[256]{0} broadcast(constant.23), dimensions={}
  broadcast.526 = f32[1,1,1,256]{3,2,1,0} broadcast(broadcast.24), dimensions={3}
  reshape.527 = f32[1,256]{1,0} reshape(broadcast.526)
  broadcast.528 = f32[1,55,55,256]{3,2,1,0} broadcast(reshape.527), dimensions={0,3}
  add.529 = f32[1,55,55,256]{3,2,1,0} add(multiply.525, broadcast.528)
  constant.577 = f32[] constant(0)
  broadcast.578 = f32[1,55,55,256]{3,2,1,0} broadcast(constant.577), dimensions={}
  add.579 = f32[1,55,55,256]{3,2,1,0} add(add.529, broadcast.578)
  constant.27 = f32[] constant(1)
  broadcast.28 = f32[256]{0} broadcast(constant.27), dimensions={}
  broadcast.569 = f32[1,1,1,256]{3,2,1,0} broadcast(broadcast.28), dimensions={3}
  reshape.570 = f32[1,256]{1,0} reshape(broadcast.569)
  broadcast.571 = f32[1,55,55,256]{3,2,1,0} broadcast(reshape.570), dimensions={0,3}
  constant.25 = f32[1,1,64,256]{3,2,1,0} constant({...})
  convolution.530 = f32[1,55,55,256]{3,2,1,0} convolution(reduce-window.380, constant.25), window={size=1x1}, dim_labels=b01f_01io->b01f
  constant.26 = f32[1,1,1,256]{3,2,1,0} constant({...})
  reshape.531 = f32[1,256]{1,0} reshape(constant.26)
  broadcast.532 = f32[1,55,55,256]{3,2,1,0} broadcast(reshape.531), dimensions={0,3}
  add.533 = f32[1,55,55,256]{3,2,1,0} add(convolution.530, broadcast.532)
  constant.534 = f32[] constant(0)
  reduce.540 = f32[256]{0} reduce(add.533, constant.534), dimensions={0,1,2}, to_apply=primitive_computation_add__8.535
  broadcast.541 = f32[1,1,1,256]{3,2,1,0} broadcast(reduce.540), dimensions={3}
  constant.542 = f32[] constant(3025)
  broadcast.543 = f32[1,1,1,256]{3,2,1,0} broadcast(constant.542), dimensions={}
  divide.544 = f32[1,1,1,256]{3,2,1,0} divide(broadcast.541, broadcast.543)
  reshape.559 = f32[1,256]{1,0} reshape(divide.544)
  broadcast.560 = f32[1,55,55,256]{3,2,1,0} broadcast(reshape.559), dimensions={0,3}
  subtract.561 = f32[1,55,55,256]{3,2,1,0} subtract(add.533, broadcast.560)
  multiply.545 = f32[1,55,55,256]{3,2,1,0} multiply(add.533, add.533)
  constant.546 = f32[] constant(0)
  reduce.552 = f32[256]{0} reduce(multiply.545, constant.546), dimensions={0,1,2}, to_apply=primitive_computation_add__9.547
  broadcast.553 = f32[1,1,1,256]{3,2,1,0} broadcast(reduce.552), dimensions={3}
  constant.554 = f32[] constant(3025)
  broadcast.555 = f32[1,1,1,256]{3,2,1,0} broadcast(constant.554), dimensions={}
  divide.556 = f32[1,1,1,256]{3,2,1,0} divide(broadcast.553, broadcast.555)
  multiply.557 = f32[1,1,1,256]{3,2,1,0} multiply(divide.544, divide.544)
  subtract.558 = f32[1,1,1,256]{3,2,1,0} subtract(divide.556, multiply.557)
  constant.562 = f32[] constant(1e-05)
  broadcast.563 = f32[1,1,1,256]{3,2,1,0} broadcast(constant.562), dimensions={}
  add.564 = f32[1,1,1,256]{3,2,1,0} add(subtract.558, broadcast.563)
  rsqrt.565 = f32[1,1,1,256]{3,2,1,0} rsqrt(add.564)
  reshape.566 = f32[1,256]{1,0} reshape(rsqrt.565)
  broadcast.567 = f32[1,55,55,256]{3,2,1,0} broadcast(reshape.566), dimensions={0,3}
  multiply.568 = f32[1,55,55,256]{3,2,1,0} multiply(subtract.561, broadcast.567)
  multiply.572 = f32[1,55,55,256]{3,2,1,0} multiply(broadcast.571, multiply.568)
  constant.29 = f32[] constant(0)
  broadcast.30 = f32[256]{0} broadcast(constant.29), dimensions={}
  broadcast.573 = f32[1,1,1,256]{3,2,1,0} broadcast(broadcast.30), dimensions={3}
  reshape.574 = f32[1,256]{1,0} reshape(broadcast.573)
  broadcast.575 = f32[1,55,55,256]{3,2,1,0} broadcast(reshape.574), dimensions={0,3}
  add.576 = f32[1,55,55,256]{3,2,1,0} add(multiply.572, broadcast.575)
  add.580 = f32[1,55,55,256]{3,2,1,0} add(add.579, add.576)
  constant.582 = f32[] constant(0)
  broadcast.583 = f32[1,55,55,256]{3,2,1,0} broadcast(constant.582), dimensions={}
  maximum.584 = f32[1,55,55,256]{3,2,1,0} maximum(add.580, broadcast.583)
  constant.31 = f32[1,1,256,64]{3,2,1,0} constant({...})
  convolution.585 = f32[1,55,55,64]{3,2,1,0} convolution(maximum.584, constant.31), window={size=1x1}, dim_labels=b01f_01io->b01f
  constant.32 = f32[1,1,1,64]{3,2,1,0} constant({...})
  reshape.586 = f32[1,64]{1,0} reshape(constant.32)
  broadcast.587 = f32[1,55,55,64]{3,2,1,0} broadcast(reshape.586), dimensions={0,3}
  add.588 = f32[1,55,55,64]{3,2,1,0} add(convolution.585, broadcast.587)
  constant.589 = f32[] constant(0)
  reduce.595 = f32[64]{0} reduce(add.588, constant.589), dimensions={0,1,2}, to_apply=primitive_computation_add__10.590
  broadcast.596 = f32[1,1,1,64]{3,2,1,0} broadcast(reduce.595), dimensions={3}
  constant.597 = f32[] constant(3025)
  broadcast.598 = f32[1,1,1,64]{3,2,1,0} broadcast(constant.597), dimensions={}
  divide.599 = f32[1,1,1,64]{3,2,1,0} divide(broadcast.596, broadcast.598)
  reshape.614 = f32[1,64]{1,0} reshape(divide.599)
  broadcast.615 = f32[1,55,55,64]{3,2,1,0} broadcast(reshape.614), dimensions={0,3}
  subtract.616 = f32[1,55,55,64]{3,2,1,0} subtract(add.588, broadcast.615)
  multiply.600 = f32[1,55,55,64]{3,2,1,0} multiply(add.588, add.588)
  constant.601 = f32[] constant(0)
  reduce.607 = f32[64]{0} reduce(multiply.600, constant.601), dimensions={0,1,2}, to_apply=primitive_computation_add__11.602
  broadcast.608 = f32[1,1,1,64]{3,2,1,0} broadcast(reduce.607), dimensions={3}
  constant.609 = f32[] constant(3025)
  broadcast.610 = f32[1,1,1,64]{3,2,1,0} broadcast(constant.609), dimensions={}
  divide.611 = f32[1,1,1,64]{3,2,1,0} divide(broadcast.608, broadcast.610)
  multiply.612 = f32[1,1,1,64]{3,2,1,0} multiply(divide.599, divide.599)
  subtract.613 = f32[1,1,1,64]{3,2,1,0} subtract(divide.611, multiply.612)
  constant.617 = f32[] constant(1e-05)
  broadcast.618 = f32[1,1,1,64]{3,2,1,0} broadcast(constant.617), dimensions={}
  add.619 = f32[1,1,1,64]{3,2,1,0} add(subtract.613, broadcast.618)
  rsqrt.620 = f32[1,1,1,64]{3,2,1,0} rsqrt(add.619)
  reshape.621 = f32[1,64]{1,0} reshape(rsqrt.620)
  broadcast.622 = f32[1,55,55,64]{3,2,1,0} broadcast(reshape.621), dimensions={0,3}
  multiply.623 = f32[1,55,55,64]{3,2,1,0} multiply(subtract.616, broadcast.622)
  multiply.627 = f32[1,55,55,64]{3,2,1,0} multiply(broadcast.626, multiply.623)
  constant.35 = f32[] constant(0)
  broadcast.36 = f32[64]{0} broadcast(constant.35), dimensions={}
  broadcast.628 = f32[1,1,1,64]{3,2,1,0} broadcast(broadcast.36), dimensions={3}
  reshape.629 = f32[1,64]{1,0} reshape(broadcast.628)
  broadcast.630 = f32[1,55,55,64]{3,2,1,0} broadcast(reshape.629), dimensions={0,3}
  add.631 = f32[1,55,55,64]{3,2,1,0} add(multiply.627, broadcast.630)
  constant.633 = f32[] constant(0)
  broadcast.634 = f32[1,55,55,64]{3,2,1,0} broadcast(constant.633), dimensions={}
  maximum.635 = f32[1,55,55,64]{3,2,1,0} maximum(add.631, broadcast.634)
  constant.37 = f32[3,3,64,64]{3,2,1,0} constant({...})
  convolution.636 = f32[1,55,55,64]{3,2,1,0} convolution(maximum.635, constant.37), window={size=3x3 pad=1_1x1_1}, dim_labels=b01f_01io->b01f
  constant.38 = f32[1,1,1,64]{3,2,1,0} constant({...})
  reshape.637 = f32[1,64]{1,0} reshape(constant.38)
  broadcast.638 = f32[1,55,55,64]{3,2,1,0} broadcast(reshape.637), dimensions={0,3}
  add.639 = f32[1,55,55,64]{3,2,1,0} add(convolution.636, broadcast.638)
  constant.640 = f32[] constant(0)
  reduce.646 = f32[64]{0} reduce(add.639, constant.640), dimensions={0,1,2}, to_apply=primitive_computation_add__12.641
  broadcast.647 = f32[1,1,1,64]{3,2,1,0} broadcast(reduce.646), dimensions={3}
  constant.648 = f32[] constant(3025)
  broadcast.649 = f32[1,1,1,64]{3,2,1,0} broadcast(constant.648), dimensions={}
  divide.650 = f32[1,1,1,64]{3,2,1,0} divide(broadcast.647, broadcast.649)
  reshape.665 = f32[1,64]{1,0} reshape(divide.650)
  broadcast.666 = f32[1,55,55,64]{3,2,1,0} broadcast(reshape.665), dimensions={0,3}
  subtract.667 = f32[1,55,55,64]{3,2,1,0} subtract(add.639, broadcast.666)
  multiply.651 = f32[1,55,55,64]{3,2,1,0} multiply(add.639, add.639)
  constant.652 = f32[] constant(0)
  reduce.658 = f32[64]{0} reduce(multiply.651, constant.652), dimensions={0,1,2}, to_apply=primitive_computation_add__13.653
  broadcast.659 = f32[1,1,1,64]{3,2,1,0} broadcast(reduce.658), dimensions={3}
  constant.660 = f32[] constant(3025)
  broadcast.661 = f32[1,1,1,64]{3,2,1,0} broadcast(constant.660), dimensions={}
  divide.662 = f32[1,1,1,64]{3,2,1,0} divide(broadcast.659, broadcast.661)
  multiply.663 = f32[1,1,1,64]{3,2,1,0} multiply(divide.650, divide.650)
  subtract.664 = f32[1,1,1,64]{3,2,1,0} subtract(divide.662, multiply.663)
  constant.668 = f32[] constant(1e-05)
  broadcast.669 = f32[1,1,1,64]{3,2,1,0} broadcast(constant.668), dimensions={}
  add.670 = f32[1,1,1,64]{3,2,1,0} add(subtract.664, broadcast.669)
  rsqrt.671 = f32[1,1,1,64]{3,2,1,0} rsqrt(add.670)
  reshape.672 = f32[1,64]{1,0} reshape(rsqrt.671)
  broadcast.673 = f32[1,55,55,64]{3,2,1,0} broadcast(reshape.672), dimensions={0,3}
  multiply.674 = f32[1,55,55,64]{3,2,1,0} multiply(subtract.667, broadcast.673)
  multiply.678 = f32[1,55,55,64]{3,2,1,0} multiply(broadcast.677, multiply.674)
  constant.41 = f32[] constant(0)
  broadcast.42 = f32[64]{0} broadcast(constant.41), dimensions={}
  broadcast.679 = f32[1,1,1,64]{3,2,1,0} broadcast(broadcast.42), dimensions={3}
  reshape.680 = f32[1,64]{1,0} reshape(broadcast.679)
  broadcast.681 = f32[1,55,55,64]{3,2,1,0} broadcast(reshape.680), dimensions={0,3}
  add.682 = f32[1,55,55,64]{3,2,1,0} add(multiply.678, broadcast.681)
  constant.684 = f32[] constant(0)
  broadcast.685 = f32[1,55,55,64]{3,2,1,0} broadcast(constant.684), dimensions={}
  maximum.686 = f32[1,55,55,64]{3,2,1,0} maximum(add.682, broadcast.685)
  constant.43 = f32[1,1,64,256]{3,2,1,0} constant({...})
  convolution.687 = f32[1,55,55,256]{3,2,1,0} convolution(maximum.686, constant.43), window={size=1x1}, dim_labels=b01f_01io->b01f
  constant.44 = f32[1,1,1,256]{3,2,1,0} constant({...})
  reshape.688 = f32[1,256]{1,0} reshape(constant.44)
  broadcast.689 = f32[1,55,55,256]{3,2,1,0} broadcast(reshape.688), dimensions={0,3}
  add.690 = f32[1,55,55,256]{3,2,1,0} add(convolution.687, broadcast.689)
  constant.691 = f32[] constant(0)
  reduce.697 = f32[256]{0} reduce(add.690, constant.691), dimensions={0,1,2}, to_apply=primitive_computation_add__14.692
  broadcast.698 = f32[1,1,1,256]{3,2,1,0} broadcast(reduce.697), dimensions={3}
  constant.699 = f32[] constant(3025)
  broadcast.700 = f32[1,1,1,256]{3,2,1,0} broadcast(constant.699), dimensions={}
  divide.701 = f32[1,1,1,256]{3,2,1,0} divide(broadcast.698, broadcast.700)
  reshape.716 = f32[1,256]{1,0} reshape(divide.701)
  broadcast.717 = f32[1,55,55,256]{3,2,1,0} broadcast(reshape.716), dimensions={0,3}
  subtract.718 = f32[1,55,55,256]{3,2,1,0} subtract(add.690, broadcast.717)
  multiply.702 = f32[1,55,55,256]{3,2,1,0} multiply(add.690, add.690)
  constant.703 = f32[] constant(0)
  reduce.709 = f32[256]{0} reduce(multiply.702, constant.703), dimensions={0,1,2}, to_apply=primitive_computation_add__15.704
  broadcast.710 = f32[1,1,1,256]{3,2,1,0} broadcast(reduce.709), dimensions={3}
  constant.711 = f32[] constant(3025)
  broadcast.712 = f32[1,1,1,256]{3,2,1,0} broadcast(constant.711), dimensions={}
  divide.713 = f32[1,1,1,256]{3,2,1,0} divide(broadcast.710, broadcast.712)
  multiply.714 = f32[1,1,1,256]{3,2,1,0} multiply(divide.701, divide.701)
  subtract.715 = f32[1,1,1,256]{3,2,1,0} subtract(divide.713, multiply.714)
  constant.719 = f32[] constant(1e-05)
  broadcast.720 = f32[1,1,1,256]{3,2,1,0} broadcast(constant.719), dimensions={}
  add.721 = f32[1,1,1,256]{3,2,1,0} add(subtract.715, broadcast.720)
  rsqrt.722 = f32[1,1,1,256]{3,2,1,0} rsqrt(add.721)
  reshape.723 = f32[1,256]{1,0} reshape(rsqrt.722)
  broadcast.724 = f32[1,55,55,256]{3,2,1,0} broadcast(reshape.723), dimensions={0,3}
  multiply.725 = f32[1,55,55,256]{3,2,1,0} multiply(subtract.718, broadcast.724)
  multiply.729 = f32[1,55,55,256]{3,2,1,0} multiply(broadcast.728, multiply.725)
  constant.47 = f32[] constant(0)
  broadcast.48 = f32[256]{0} broadcast(constant.47), dimensions={}
  broadcast.730 = f32[1,1,1,256]{3,2,1,0} broadcast(broadcast.48), dimensions={3}
  reshape.731 = f32[1,256]{1,0} reshape(broadcast.730)
  broadcast.732 = f32[1,55,55,256]{3,2,1,0} broadcast(reshape.731), dimensions={0,3}
  add.733 = f32[1,55,55,256]{3,2,1,0} add(multiply.729, broadcast.732)
  constant.734 = f32[] constant(0)
  broadcast.735 = f32[1,55,55,256]{3,2,1,0} broadcast(constant.734), dimensions={}
  add.736 = f32[1,55,55,256]{3,2,1,0} add(add.733, broadcast.735)
  add.737 = f32[1,55,55,256]{3,2,1,0} add(add.736, maximum.584)
  constant.739 = f32[] constant(0)
  broadcast.740 = f32[1,55,55,256]{3,2,1,0} broadcast(constant.739), dimensions={}
  maximum.741 = f32[1,55,55,256]{3,2,1,0} maximum(add.737, broadcast.740)
  constant.49 = f32[1,1,256,64]{3,2,1,0} constant({...})
  convolution.742 = f32[1,55,55,64]{3,2,1,0} convolution(maximum.741, constant.49), window={size=1x1}, dim_labels=b01f_01io->b01f
  constant.50 = f32[1,1,1,64]{3,2,1,0} constant({...})
  reshape.743 = f32[1,64]{1,0} reshape(constant.50)
  broadcast.744 = f32[1,55,55,64]{3,2,1,0} broadcast(reshape.743), dimensions={0,3}
  add.745 = f32[1,55,55,64]{3,2,1,0} add(convolution.742, broadcast.744)
  constant.746 = f32[] constant(0)
  reduce.752 = f32[64]{0} reduce(add.745, constant.746), dimensions={0,1,2}, to_apply=primitive_computation_add__16.747
  broadcast.753 = f32[1,1,1,64]{3,2,1,0} broadcast(reduce.752), dimensions={3}
  constant.754 = f32[] constant(3025)
  broadcast.755 = f32[1,1,1,64]{3,2,1,0} broadcast(constant.754), dimensions={}
  divide.756 = f32[1,1,1,64]{3,2,1,0} divide(broadcast.753, broadcast.755)
  reshape.771 = f32[1,64]{1,0} reshape(divide.756)
  broadcast.772 = f32[1,55,55,64]{3,2,1,0} broadcast(reshape.771), dimensions={0,3}
  subtract.773 = f32[1,55,55,64]{3,2,1,0} subtract(add.745, broadcast.772)
  multiply.757 = f32[1,55,55,64]{3,2,1,0} multiply(add.745, add.745)
  constant.758 = f32[] constant(0)
  reduce.764 = f32[64]{0} reduce(multiply.757, constant.758), dimensions={0,1,2}, to_apply=primitive_computation_add__17.759
  broadcast.765 = f32[1,1,1,64]{3,2,1,0} broadcast(reduce.764), dimensions={3}
  constant.766 = f32[] constant(3025)
  broadcast.767 = f32[1,1,1,64]{3,2,1,0} broadcast(constant.766), dimensions={}
  divide.768 = f32[1,1,1,64]{3,2,1,0} divide(broadcast.765, broadcast.767)
  multiply.769 = f32[1,1,1,64]{3,2,1,0} multiply(divide.756, divide.756)
  subtract.770 = f32[1,1,1,64]{3,2,1,0} subtract(divide.768, multiply.769)
  constant.774 = f32[] constant(1e-05)
  broadcast.775 = f32[1,1,1,64]{3,2,1,0} broadcast(constant.774), dimensions={}
  add.776 = f32[1,1,1,64]{3,2,1,0} add(subtract.770, broadcast.775)
  rsqrt.777 = f32[1,1,1,64]{3,2,1,0} rsqrt(add.776)
  reshape.778 = f32[1,64]{1,0} reshape(rsqrt.777)
  broadcast.779 = f32[1,55,55,64]{3,2,1,0} broadcast(reshape.778), dimensions={0,3}
  multiply.780 = f32[1,55,55,64]{3,2,1,0} multiply(subtract.773, broadcast.779)
  multiply.784 = f32[1,55,55,64]{3,2,1,0} multiply(broadcast.783, multiply.780)
  constant.53 = f32[] constant(0)
  broadcast.54 = f32[64]{0} broadcast(constant.53), dimensions={}
  broadcast.785 = f32[1,1,1,64]{3,2,1,0} broadcast(broadcast.54), dimensions={3}
  reshape.786 = f32[1,64]{1,0} reshape(broadcast.785)
  broadcast.787 = f32[1,55,55,64]{3,2,1,0} broadcast(reshape.786), dimensions={0,3}
  add.788 = f32[1,55,55,64]{3,2,1,0} add(multiply.784, broadcast.787)
  constant.790 = f32[] constant(0)
  broadcast.791 = f32[1,55,55,64]{3,2,1,0} broadcast(constant.790), dimensions={}
  maximum.792 = f32[1,55,55,64]{3,2,1,0} maximum(add.788, broadcast.791)
  constant.55 = f32[3,3,64,64]{3,2,1,0} constant({...})
  convolution.793 = f32[1,55,55,64]{3,2,1,0} convolution(maximum.792, constant.55), window={size=3x3 pad=1_1x1_1}, dim_labels=b01f_01io->b01f
  constant.56 = f32[1,1,1,64]{3,2,1,0} constant({...})
  reshape.794 = f32[1,64]{1,0} reshape(constant.56)
  broadcast.795 = f32[1,55,55,64]{3,2,1,0} broadcast(reshape.794), dimensions={0,3}
  add.796 = f32[1,55,55,64]{3,2,1,0} add(convolution.793, broadcast.795)
  constant.797 = f32[] constant(0)
  reduce.803 = f32[64]{0} reduce(add.796, constant.797), dimensions={0,1,2}, to_apply=primitive_computation_add__18.798
  broadcast.804 = f32[1,1,1,64]{3,2,1,0} broadcast(reduce.803), dimensions={3}
  constant.805 = f32[] constant(3025)
  broadcast.806 = f32[1,1,1,64]{3,2,1,0} broadcast(constant.805), dimensions={}
  divide.807 = f32[1,1,1,64]{3,2,1,0} divide(broadcast.804, broadcast.806)
  reshape.822 = f32[1,64]{1,0} reshape(divide.807)
  broadcast.823 = f32[1,55,55,64]{3,2,1,0} broadcast(reshape.822), dimensions={0,3}
  subtract.824 = f32[1,55,55,64]{3,2,1,0} subtract(add.796, broadcast.823)
  multiply.808 = f32[1,55,55,64]{3,2,1,0} multiply(add.796, add.796)
  constant.809 = f32[] constant(0)
  reduce.815 = f32[64]{0} reduce(multiply.808, constant.809), dimensions={0,1,2}, to_apply=primitive_computation_add__19.810
  broadcast.816 = f32[1,1,1,64]{3,2,1,0} broadcast(reduce.815), dimensions={3}
  constant.817 = f32[] constant(3025)
  broadcast.818 = f32[1,1,1,64]{3,2,1,0} broadcast(constant.817), dimensions={}
  divide.819 = f32[1,1,1,64]{3,2,1,0} divide(broadcast.816, broadcast.818)
  multiply.820 = f32[1,1,1,64]{3,2,1,0} multiply(divide.807, divide.807)
  subtract.821 = f32[1,1,1,64]{3,2,1,0} subtract(divide.819, multiply.820)
  constant.825 = f32[] constant(1e-05)
  broadcast.826 = f32[1,1,1,64]{3,2,1,0} broadcast(constant.825), dimensions={}
  add.827 = f32[1,1,1,64]{3,2,1,0} add(subtract.821, broadcast.826)
  rsqrt.828 = f32[1,1,1,64]{3,2,1,0} rsqrt(add.827)
  reshape.829 = f32[1,64]{1,0} reshape(rsqrt.828)
  broadcast.830 = f32[1,55,55,64]{3,2,1,0} broadcast(reshape.829), dimensions={0,3}
  multiply.831 = f32[1,55,55,64]{3,2,1,0} multiply(subtract.824, broadcast.830)
  multiply.835 = f32[1,55,55,64]{3,2,1,0} multiply(broadcast.834, multiply.831)
  constant.59 = f32[] constant(0)
  broadcast.60 = f32[64]{0} broadcast(constant.59), dimensions={}
  broadcast.836 = f32[1,1,1,64]{3,2,1,0} broadcast(broadcast.60), dimensions={3}
  reshape.837 = f32[1,64]{1,0} reshape(broadcast.836)
  broadcast.838 = f32[1,55,55,64]{3,2,1,0} broadcast(reshape.837), dimensions={0,3}
  add.839 = f32[1,55,55,64]{3,2,1,0} add(multiply.835, broadcast.838)
  constant.841 = f32[] constant(0)
  broadcast.842 = f32[1,55,55,64]{3,2,1,0} broadcast(constant.841), dimensions={}
  maximum.843 = f32[1,55,55,64]{3,2,1,0} maximum(add.839, broadcast.842)
  constant.61 = f32[1,1,64,256]{3,2,1,0} constant({...})
  convolution.844 = f32[1,55,55,256]{3,2,1,0} convolution(maximum.843, constant.61), window={size=1x1}, dim_labels=b01f_01io->b01f
  constant.62 = f32[1,1,1,256]{3,2,1,0} constant({...})
  reshape.845 = f32[1,256]{1,0} reshape(constant.62)
  broadcast.846 = f32[1,55,55,256]{3,2,1,0} broadcast(reshape.845), dimensions={0,3}
  add.847 = f32[1,55,55,256]{3,2,1,0} add(convolution.844, broadcast.846)
  constant.848 = f32[] constant(0)
  reduce.854 = f32[256]{0} reduce(add.847, constant.848), dimensions={0,1,2}, to_apply=primitive_computation_add__20.849
  broadcast.855 = f32[1,1,1,256]{3,2,1,0} broadcast(reduce.854), dimensions={3}
  constant.856 = f32[] constant(3025)
  broadcast.857 = f32[1,1,1,256]{3,2,1,0} broadcast(constant.856), dimensions={}
  divide.858 = f32[1,1,1,256]{3,2,1,0} divide(broadcast.855, broadcast.857)
  reshape.873 = f32[1,256]{1,0} reshape(divide.858)
  broadcast.874 = f32[1,55,55,256]{3,2,1,0} broadcast(reshape.873), dimensions={0,3}
  subtract.875 = f32[1,55,55,256]{3,2,1,0} subtract(add.847, broadcast.874)
  multiply.859 = f32[1,55,55,256]{3,2,1,0} multiply(add.847, add.847)
  constant.860 = f32[] constant(0)
  reduce.866 = f32[256]{0} reduce(multiply.859, constant.860), dimensions={0,1,2}, to_apply=primitive_computation_add__21.861
  broadcast.867 = f32[1,1,1,256]{3,2,1,0} broadcast(reduce.866), dimensions={3}
  constant.868 = f32[] constant(3025)
  broadcast.869 = f32[1,1,1,256]{3,2,1,0} broadcast(constant.868), dimensions={}
  divide.870 = f32[1,1,1,256]{3,2,1,0} divide(broadcast.867, broadcast.869)
  multiply.871 = f32[1,1,1,256]{3,2,1,0} multiply(divide.858, divide.858)
  subtract.872 = f32[1,1,1,256]{3,2,1,0} subtract(divide.870, multiply.871)
  constant.876 = f32[] constant(1e-05)
  broadcast.877 = f32[1,1,1,256]{3,2,1,0} broadcast(constant.876), dimensions={}
  add.878 = f32[1,1,1,256]{3,2,1,0} add(subtract.872, broadcast.877)
  rsqrt.879 = f32[1,1,1,256]{3,2,1,0} rsqrt(add.878)
  reshape.880 = f32[1,256]{1,0} reshape(rsqrt.879)
  broadcast.881 = f32[1,55,55,256]{3,2,1,0} broadcast(reshape.880), dimensions={0,3}
  multiply.882 = f32[1,55,55,256]{3,2,1,0} multiply(subtract.875, broadcast.881)
  multiply.886 = f32[1,55,55,256]{3,2,1,0} multiply(broadcast.885, multiply.882)
  constant.65 = f32[] constant(0)
  broadcast.66 = f32[256]{0} broadcast(constant.65), dimensions={}
  broadcast.887 = f32[1,1,1,256]{3,2,1,0} broadcast(broadcast.66), dimensions={3}
  reshape.888 = f32[1,256]{1,0} reshape(broadcast.887)
  broadcast.889 = f32[1,55,55,256]{3,2,1,0} broadcast(reshape.888), dimensions={0,3}
  add.890 = f32[1,55,55,256]{3,2,1,0} add(multiply.886, broadcast.889)
  constant.891 = f32[] constant(0)
  broadcast.892 = f32[1,55,55,256]{3,2,1,0} broadcast(constant.891), dimensions={}
  add.893 = f32[1,55,55,256]{3,2,1,0} add(add.890, broadcast.892)
  add.894 = f32[1,55,55,256]{3,2,1,0} add(add.893, maximum.741)
  constant.896 = f32[] constant(0)
  broadcast.897 = f32[1,55,55,256]{3,2,1,0} broadcast(constant.896), dimensions={}
  maximum.898 = f32[1,55,55,256]{3,2,1,0} maximum(add.894, broadcast.897)
  constant.67 = f32[1,1,256,128]{3,2,1,0} constant({...})
  convolution.899 = f32[1,28,28,128]{3,2,1,0} convolution(maximum.898, constant.67), window={size=1x1 stride=2x2}, dim_labels=b01f_01io->b01f
  constant.68 = f32[1,1,1,128]{3,2,1,0} constant({...})
  reshape.900 = f32[1,128]{1,0} reshape(constant.68)
  broadcast.901 = f32[1,28,28,128]{3,2,1,0} broadcast(reshape.900), dimensions={0,3}
  add.902 = f32[1,28,28,128]{3,2,1,0} add(convolution.899, broadcast.901)
  constant.903 = f32[] constant(0)
  reduce.909 = f32[128]{0} reduce(add.902, constant.903), dimensions={0,1,2}, to_apply=primitive_computation_add__22.904
  broadcast.910 = f32[1,1,1,128]{3,2,1,0} broadcast(reduce.909), dimensions={3}
  constant.911 = f32[] constant(784)
  broadcast.912 = f32[1,1,1,128]{3,2,1,0} broadcast(constant.911), dimensions={}
  divide.913 = f32[1,1,1,128]{3,2,1,0} divide(broadcast.910, broadcast.912)
  reshape.928 = f32[1,128]{1,0} reshape(divide.913)
  broadcast.929 = f32[1,28,28,128]{3,2,1,0} broadcast(reshape.928), dimensions={0,3}
  subtract.930 = f32[1,28,28,128]{3,2,1,0} subtract(add.902, broadcast.929)
  multiply.914 = f32[1,28,28,128]{3,2,1,0} multiply(add.902, add.902)
  constant.915 = f32[] constant(0)
  reduce.921 = f32[128]{0} reduce(multiply.914, constant.915), dimensions={0,1,2}, to_apply=primitive_computation_add__23.916
  broadcast.922 = f32[1,1,1,128]{3,2,1,0} broadcast(reduce.921), dimensions={3}
  constant.923 = f32[] constant(784)
  broadcast.924 = f32[1,1,1,128]{3,2,1,0} broadcast(constant.923), dimensions={}
  divide.925 = f32[1,1,1,128]{3,2,1,0} divide(broadcast.922, broadcast.924)
  multiply.926 = f32[1,1,1,128]{3,2,1,0} multiply(divide.913, divide.913)
  subtract.927 = f32[1,1,1,128]{3,2,1,0} subtract(divide.925, multiply.926)
  constant.931 = f32[] constant(1e-05)
  broadcast.932 = f32[1,1,1,128]{3,2,1,0} broadcast(constant.931), dimensions={}
  add.933 = f32[1,1,1,128]{3,2,1,0} add(subtract.927, broadcast.932)
  rsqrt.934 = f32[1,1,1,128]{3,2,1,0} rsqrt(add.933)
  reshape.935 = f32[1,128]{1,0} reshape(rsqrt.934)
  broadcast.936 = f32[1,28,28,128]{3,2,1,0} broadcast(reshape.935), dimensions={0,3}
  multiply.937 = f32[1,28,28,128]{3,2,1,0} multiply(subtract.930, broadcast.936)
  multiply.941 = f32[1,28,28,128]{3,2,1,0} multiply(broadcast.940, multiply.937)
  constant.71 = f32[] constant(0)
  broadcast.72 = f32[128]{0} broadcast(constant.71), dimensions={}
  broadcast.942 = f32[1,1,1,128]{3,2,1,0} broadcast(broadcast.72), dimensions={3}
  reshape.943 = f32[1,128]{1,0} reshape(broadcast.942)
  broadcast.944 = f32[1,28,28,128]{3,2,1,0} broadcast(reshape.943), dimensions={0,3}
  add.945 = f32[1,28,28,128]{3,2,1,0} add(multiply.941, broadcast.944)
  constant.947 = f32[] constant(0)
  broadcast.948 = f32[1,28,28,128]{3,2,1,0} broadcast(constant.947), dimensions={}
  maximum.949 = f32[1,28,28,128]{3,2,1,0} maximum(add.945, broadcast.948)
  constant.73 = f32[3,3,128,128]{3,2,1,0} constant({...})
  convolution.950 = f32[1,28,28,128]{3,2,1,0} convolution(maximum.949, constant.73), window={size=3x3 pad=1_1x1_1}, dim_labels=b01f_01io->b01f
  constant.74 = f32[1,1,1,128]{3,2,1,0} constant({...})
  reshape.951 = f32[1,128]{1,0} reshape(constant.74)
  broadcast.952 = f32[1,28,28,128]{3,2,1,0} broadcast(reshape.951), dimensions={0,3}
  add.953 = f32[1,28,28,128]{3,2,1,0} add(convolution.950, broadcast.952)
  constant.954 = f32[] constant(0)
  reduce.960 = f32[128]{0} reduce(add.953, constant.954), dimensions={0,1,2}, to_apply=primitive_computation_add__24.955
  broadcast.961 = f32[1,1,1,128]{3,2,1,0} broadcast(reduce.960), dimensions={3}
  constant.962 = f32[] constant(784)
  broadcast.963 = f32[1,1,1,128]{3,2,1,0} broadcast(constant.962), dimensions={}
  divide.964 = f32[1,1,1,128]{3,2,1,0} divide(broadcast.961, broadcast.963)
  reshape.979 = f32[1,128]{1,0} reshape(divide.964)
  broadcast.980 = f32[1,28,28,128]{3,2,1,0} broadcast(reshape.979), dimensions={0,3}
  subtract.981 = f32[1,28,28,128]{3,2,1,0} subtract(add.953, broadcast.980)
  multiply.965 = f32[1,28,28,128]{3,2,1,0} multiply(add.953, add.953)
  constant.966 = f32[] constant(0)
  reduce.972 = f32[128]{0} reduce(multiply.965, constant.966), dimensions={0,1,2}, to_apply=primitive_computation_add__25.967
  broadcast.973 = f32[1,1,1,128]{3,2,1,0} broadcast(reduce.972), dimensions={3}
  constant.974 = f32[] constant(784)
  broadcast.975 = f32[1,1,1,128]{3,2,1,0} broadcast(constant.974), dimensions={}
  divide.976 = f32[1,1,1,128]{3,2,1,0} divide(broadcast.973, broadcast.975)
  multiply.977 = f32[1,1,1,128]{3,2,1,0} multiply(divide.964, divide.964)
  subtract.978 = f32[1,1,1,128]{3,2,1,0} subtract(divide.976, multiply.977)
  constant.982 = f32[] constant(1e-05)
  broadcast.983 = f32[1,1,1,128]{3,2,1,0} broadcast(constant.982), dimensions={}
  add.984 = f32[1,1,1,128]{3,2,1,0} add(subtract.978, broadcast.983)
  rsqrt.985 = f32[1,1,1,128]{3,2,1,0} rsqrt(add.984)
  reshape.986 = f32[1,128]{1,0} reshape(rsqrt.985)
  broadcast.987 = f32[1,28,28,128]{3,2,1,0} broadcast(reshape.986), dimensions={0,3}
  multiply.988 = f32[1,28,28,128]{3,2,1,0} multiply(subtract.981, broadcast.987)
  multiply.992 = f32[1,28,28,128]{3,2,1,0} multiply(broadcast.991, multiply.988)
  constant.77 = f32[] constant(0)
  broadcast.78 = f32[128]{0} broadcast(constant.77), dimensions={}
  broadcast.993 = f32[1,1,1,128]{3,2,1,0} broadcast(broadcast.78), dimensions={3}
  reshape.994 = f32[1,128]{1,0} reshape(broadcast.993)
  broadcast.995 = f32[1,28,28,128]{3,2,1,0} broadcast(reshape.994), dimensions={0,3}
  add.996 = f32[1,28,28,128]{3,2,1,0} add(multiply.992, broadcast.995)
  constant.998 = f32[] constant(0)
  broadcast.999 = f32[1,28,28,128]{3,2,1,0} broadcast(constant.998), dimensions={}
  maximum.1000 = f32[1,28,28,128]{3,2,1,0} maximum(add.996, broadcast.999)
  constant.79 = f32[1,1,128,512]{3,2,1,0} constant({...})
  convolution.1001 = f32[1,28,28,512]{3,2,1,0} convolution(maximum.1000, constant.79), window={size=1x1}, dim_labels=b01f_01io->b01f
  constant.80 = f32[1,1,1,512]{3,2,1,0} constant({...})
  reshape.1002 = f32[1,512]{1,0} reshape(constant.80)
  broadcast.1003 = f32[1,28,28,512]{3,2,1,0} broadcast(reshape.1002), dimensions={0,3}
  add.1004 = f32[1,28,28,512]{3,2,1,0} add(convolution.1001, broadcast.1003)
  constant.1005 = f32[] constant(0)
  reduce.1011 = f32[512]{0} reduce(add.1004, constant.1005), dimensions={0,1,2}, to_apply=primitive_computation_add__26.1006
  broadcast.1012 = f32[1,1,1,512]{3,2,1,0} broadcast(reduce.1011), dimensions={3}
  constant.1013 = f32[] constant(784)
  broadcast.1014 = f32[1,1,1,512]{3,2,1,0} broadcast(constant.1013), dimensions={}
  divide.1015 = f32[1,1,1,512]{3,2,1,0} divide(broadcast.1012, broadcast.1014)
  reshape.1030 = f32[1,512]{1,0} reshape(divide.1015)
  broadcast.1031 = f32[1,28,28,512]{3,2,1,0} broadcast(reshape.1030), dimensions={0,3}
  subtract.1032 = f32[1,28,28,512]{3,2,1,0} subtract(add.1004, broadcast.1031)
  multiply.1016 = f32[1,28,28,512]{3,2,1,0} multiply(add.1004, add.1004)
  constant.1017 = f32[] constant(0)
  reduce.1023 = f32[512]{0} reduce(multiply.1016, constant.1017), dimensions={0,1,2}, to_apply=primitive_computation_add__27.1018
  broadcast.1024 = f32[1,1,1,512]{3,2,1,0} broadcast(reduce.1023), dimensions={3}
  constant.1025 = f32[] constant(784)
  broadcast.1026 = f32[1,1,1,512]{3,2,1,0} broadcast(constant.1025), dimensions={}
  divide.1027 = f32[1,1,1,512]{3,2,1,0} divide(broadcast.1024, broadcast.1026)
  multiply.1028 = f32[1,1,1,512]{3,2,1,0} multiply(divide.1015, divide.1015)
  subtract.1029 = f32[1,1,1,512]{3,2,1,0} subtract(divide.1027, multiply.1028)
  constant.1033 = f32[] constant(1e-05)
  broadcast.1034 = f32[1,1,1,512]{3,2,1,0} broadcast(constant.1033), dimensions={}
  add.1035 = f32[1,1,1,512]{3,2,1,0} add(subtract.1029, broadcast.1034)
  rsqrt.1036 = f32[1,1,1,512]{3,2,1,0} rsqrt(add.1035)
  reshape.1037 = f32[1,512]{1,0} reshape(rsqrt.1036)
  broadcast.1038 = f32[1,28,28,512]{3,2,1,0} broadcast(reshape.1037), dimensions={0,3}
  multiply.1039 = f32[1,28,28,512]{3,2,1,0} multiply(subtract.1032, broadcast.1038)
  multiply.1043 = f32[1,28,28,512]{3,2,1,0} multiply(broadcast.1042, multiply.1039)
  constant.83 = f32[] constant(0)
  broadcast.84 = f32[512]{0} broadcast(constant.83), dimensions={}
  broadcast.1044 = f32[1,1,1,512]{3,2,1,0} broadcast(broadcast.84), dimensions={3}
  reshape.1045 = f32[1,512]{1,0} reshape(broadcast.1044)
  broadcast.1046 = f32[1,28,28,512]{3,2,1,0} broadcast(reshape.1045), dimensions={0,3}
  add.1047 = f32[1,28,28,512]{3,2,1,0} add(multiply.1043, broadcast.1046)
  constant.1095 = f32[] constant(0)
  broadcast.1096 = f32[1,28,28,512]{3,2,1,0} broadcast(constant.1095), dimensions={}
  add.1097 = f32[1,28,28,512]{3,2,1,0} add(add.1047, broadcast.1096)
  constant.87 = f32[] constant(1)
  broadcast.88 = f32[512]{0} broadcast(constant.87), dimensions={}
  broadcast.1087 = f32[1,1,1,512]{3,2,1,0} broadcast(broadcast.88), dimensions={3}
  reshape.1088 = f32[1,512]{1,0} reshape(broadcast.1087)
  broadcast.1089 = f32[1,28,28,512]{3,2,1,0} broadcast(reshape.1088), dimensions={0,3}
  constant.85 = f32[1,1,256,512]{3,2,1,0} constant({...})
  convolution.1048 = f32[1,28,28,512]{3,2,1,0} convolution(maximum.898, constant.85), window={size=1x1 stride=2x2}, dim_labels=b01f_01io->b01f
  constant.86 = f32[1,1,1,512]{3,2,1,0} constant({...})
  reshape.1049 = f32[1,512]{1,0} reshape(constant.86)
  broadcast.1050 = f32[1,28,28,512]{3,2,1,0} broadcast(reshape.1049), dimensions={0,3}
  add.1051 = f32[1,28,28,512]{3,2,1,0} add(convolution.1048, broadcast.1050)
  constant.1052 = f32[] constant(0)
  reduce.1058 = f32[512]{0} reduce(add.1051, constant.1052), dimensions={0,1,2}, to_apply=primitive_computation_add__28.1053
  broadcast.1059 = f32[1,1,1,512]{3,2,1,0} broadcast(reduce.1058), dimensions={3}
  constant.1060 = f32[] constant(784)
  broadcast.1061 = f32[1,1,1,512]{3,2,1,0} broadcast(constant.1060), dimensions={}
  divide.1062 = f32[1,1,1,512]{3,2,1,0} divide(broadcast.1059, broadcast.1061)
  reshape.1077 = f32[1,512]{1,0} reshape(divide.1062)
  broadcast.1078 = f32[1,28,28,512]{3,2,1,0} broadcast(reshape.1077), dimensions={0,3}
  subtract.1079 = f32[1,28,28,512]{3,2,1,0} subtract(add.1051, broadcast.1078)
  multiply.1063 = f32[1,28,28,512]{3,2,1,0} multiply(add.1051, add.1051)
  constant.1064 = f32[] constant(0)
  reduce.1070 = f32[512]{0} reduce(multiply.1063, constant.1064), dimensions={0,1,2}, to_apply=primitive_computation_add__29.1065
  broadcast.1071 = f32[1,1,1,512]{3,2,1,0} broadcast(reduce.1070), dimensions={3}
  constant.1072 = f32[] constant(784)
  broadcast.1073 = f32[1,1,1,512]{3,2,1,0} broadcast(constant.1072), dimensions={}
  divide.1074 = f32[1,1,1,512]{3,2,1,0} divide(broadcast.1071, broadcast.1073)
  multiply.1075 = f32[1,1,1,512]{3,2,1,0} multiply(divide.1062, divide.1062)
  subtract.1076 = f32[1,1,1,512]{3,2,1,0} subtract(divide.1074, multiply.1075)
  constant.1080 = f32[] constant(1e-05)
  broadcast.1081 = f32[1,1,1,512]{3,2,1,0} broadcast(constant.1080), dimensions={}
  add.1082 = f32[1,1,1,512]{3,2,1,0} add(subtract.1076, broadcast.1081)
  rsqrt.1083 = f32[1,1,1,512]{3,2,1,0} rsqrt(add.1082)
  reshape.1084 = f32[1,512]{1,0} reshape(rsqrt.1083)
  broadcast.1085 = f32[1,28,28,512]{3,2,1,0} broadcast(reshape.1084), dimensions={0,3}
  multiply.1086 = f32[1,28,28,512]{3,2,1,0} multiply(subtract.1079, broadcast.1085)
  multiply.1090 = f32[1,28,28,512]{3,2,1,0} multiply(broadcast.1089, multiply.1086)
  constant.89 = f32[] constant(0)
  broadcast.90 = f32[512]{0} broadcast(constant.89), dimensions={}
  broadcast.1091 = f32[1,1,1,512]{3,2,1,0} broadcast(broadcast.90), dimensions={3}
  reshape.1092 = f32[1,512]{1,0} reshape(broadcast.1091)
  broadcast.1093 = f32[1,28,28,512]{3,2,1,0} broadcast(reshape.1092), dimensions={0,3}
  add.1094 = f32[1,28,28,512]{3,2,1,0} add(multiply.1090, broadcast.1093)
  add.1098 = f32[1,28,28,512]{3,2,1,0} add(add.1097, add.1094)
  constant.1100 = f32[] constant(0)
  broadcast.1101 = f32[1,28,28,512]{3,2,1,0} broadcast(constant.1100), dimensions={}
  maximum.1102 = f32[1,28,28,512]{3,2,1,0} maximum(add.1098, broadcast.1101)
  constant.91 = f32[1,1,512,128]{3,2,1,0} constant({...})
  convolution.1103 = f32[1,28,28,128]{3,2,1,0} convolution(maximum.1102, constant.91), window={size=1x1}, dim_labels=b01f_01io->b01f
  constant.92 = f32[1,1,1,128]{3,2,1,0} constant({...})
  reshape.1104 = f32[1,128]{1,0} reshape(constant.92)
  broadcast.1105 = f32[1,28,28,128]{3,2,1,0} broadcast(reshape.1104), dimensions={0,3}
  add.1106 = f32[1,28,28,128]{3,2,1,0} add(convolution.1103, broadcast.1105)
  constant.1107 = f32[] constant(0)
  reduce.1113 = f32[128]{0} reduce(add.1106, constant.1107), dimensions={0,1,2}, to_apply=primitive_computation_add__30.1108
  broadcast.1114 = f32[1,1,1,128]{3,2,1,0} broadcast(reduce.1113), dimensions={3}
  constant.1115 = f32[] constant(784)
  broadcast.1116 = f32[1,1,1,128]{3,2,1,0} broadcast(constant.1115), dimensions={}
  divide.1117 = f32[1,1,1,128]{3,2,1,0} divide(broadcast.1114, broadcast.1116)
  reshape.1132 = f32[1,128]{1,0} reshape(divide.1117)
  broadcast.1133 = f32[1,28,28,128]{3,2,1,0} broadcast(reshape.1132), dimensions={0,3}
  subtract.1134 = f32[1,28,28,128]{3,2,1,0} subtract(add.1106, broadcast.1133)
  multiply.1118 = f32[1,28,28,128]{3,2,1,0} multiply(add.1106, add.1106)
  constant.1119 = f32[] constant(0)
  reduce.1125 = f32[128]{0} reduce(multiply.1118, constant.1119), dimensions={0,1,2}, to_apply=primitive_computation_add__31.1120
  broadcast.1126 = f32[1,1,1,128]{3,2,1,0} broadcast(reduce.1125), dimensions={3}
  constant.1127 = f32[] constant(784)
  broadcast.1128 = f32[1,1,1,128]{3,2,1,0} broadcast(constant.1127), dimensions={}
  divide.1129 = f32[1,1,1,128]{3,2,1,0} divide(broadcast.1126, broadcast.1128)
  multiply.1130 = f32[1,1,1,128]{3,2,1,0} multiply(divide.1117, divide.1117)
  subtract.1131 = f32[1,1,1,128]{3,2,1,0} subtract(divide.1129, multiply.1130)
  constant.1135 = f32[] constant(1e-05)
  broadcast.1136 = f32[1,1,1,128]{3,2,1,0} broadcast(constant.1135), dimensions={}
  add.1137 = f32[1,1,1,128]{3,2,1,0} add(subtract.1131, broadcast.1136)
  rsqrt.1138 = f32[1,1,1,128]{3,2,1,0} rsqrt(add.1137)
  reshape.1139 = f32[1,128]{1,0} reshape(rsqrt.1138)
  broadcast.1140 = f32[1,28,28,128]{3,2,1,0} broadcast(reshape.1139), dimensions={0,3}
  multiply.1141 = f32[1,28,28,128]{3,2,1,0} multiply(subtract.1134, broadcast.1140)
  multiply.1145 = f32[1,28,28,128]{3,2,1,0} multiply(broadcast.1144, multiply.1141)
  constant.95 = f32[] constant(0)
  broadcast.96 = f32[128]{0} broadcast(constant.95), dimensions={}
  broadcast.1146 = f32[1,1,1,128]{3,2,1,0} broadcast(broadcast.96), dimensions={3}
  reshape.1147 = f32[1,128]{1,0} reshape(broadcast.1146)
  broadcast.1148 = f32[1,28,28,128]{3,2,1,0} broadcast(reshape.1147), dimensions={0,3}
  add.1149 = f32[1,28,28,128]{3,2,1,0} add(multiply.1145, broadcast.1148)
  constant.1151 = f32[] constant(0)
  broadcast.1152 = f32[1,28,28,128]{3,2,1,0} broadcast(constant.1151), dimensions={}
  maximum.1153 = f32[1,28,28,128]{3,2,1,0} maximum(add.1149, broadcast.1152)
  constant.97 = f32[3,3,128,128]{3,2,1,0} constant({...})
  convolution.1154 = f32[1,28,28,128]{3,2,1,0} convolution(maximum.1153, constant.97), window={size=3x3 pad=1_1x1_1}, dim_labels=b01f_01io->b01f
  constant.98 = f32[1,1,1,128]{3,2,1,0} constant({...})
  reshape.1155 = f32[1,128]{1,0} reshape(constant.98)
  broadcast.1156 = f32[1,28,28,128]{3,2,1,0} broadcast(reshape.1155), dimensions={0,3}
  add.1157 = f32[1,28,28,128]{3,2,1,0} add(convolution.1154, broadcast.1156)
  constant.1158 = f32[] constant(0)
  reduce.1164 = f32[128]{0} reduce(add.1157, constant.1158), dimensions={0,1,2}, to_apply=primitive_computation_add__32.1159
  broadcast.1165 = f32[1,1,1,128]{3,2,1,0} broadcast(reduce.1164), dimensions={3}
  constant.1166 = f32[] constant(784)
  broadcast.1167 = f32[1,1,1,128]{3,2,1,0} broadcast(constant.1166), dimensions={}
  divide.1168 = f32[1,1,1,128]{3,2,1,0} divide(broadcast.1165, broadcast.1167)
  reshape.1183 = f32[1,128]{1,0} reshape(divide.1168)
  broadcast.1184 = f32[1,28,28,128]{3,2,1,0} broadcast(reshape.1183), dimensions={0,3}
  subtract.1185 = f32[1,28,28,128]{3,2,1,0} subtract(add.1157, broadcast.1184)
  multiply.1169 = f32[1,28,28,128]{3,2,1,0} multiply(add.1157, add.1157)
  constant.1170 = f32[] constant(0)
  reduce.1176 = f32[128]{0} reduce(multiply.1169, constant.1170), dimensions={0,1,2}, to_apply=primitive_computation_add__33.1171
  broadcast.1177 = f32[1,1,1,128]{3,2,1,0} broadcast(reduce.1176), dimensions={3}
  constant.1178 = f32[] constant(784)
  broadcast.1179 = f32[1,1,1,128]{3,2,1,0} broadcast(constant.1178), dimensions={}
  divide.1180 = f32[1,1,1,128]{3,2,1,0} divide(broadcast.1177, broadcast.1179)
  multiply.1181 = f32[1,1,1,128]{3,2,1,0} multiply(divide.1168, divide.1168)
  subtract.1182 = f32[1,1,1,128]{3,2,1,0} subtract(divide.1180, multiply.1181)
  constant.1186 = f32[] constant(1e-05)
  broadcast.1187 = f32[1,1,1,128]{3,2,1,0} broadcast(constant.1186), dimensions={}
  add.1188 = f32[1,1,1,128]{3,2,1,0} add(subtract.1182, broadcast.1187)
  rsqrt.1189 = f32[1,1,1,128]{3,2,1,0} rsqrt(add.1188)
  reshape.1190 = f32[1,128]{1,0} reshape(rsqrt.1189)
  broadcast.1191 = f32[1,28,28,128]{3,2,1,0} broadcast(reshape.1190), dimensions={0,3}
  multiply.1192 = f32[1,28,28,128]{3,2,1,0} multiply(subtract.1185, broadcast.1191)
  multiply.1196 = f32[1,28,28,128]{3,2,1,0} multiply(broadcast.1195, multiply.1192)
  constant.101 = f32[] constant(0)
  broadcast.102 = f32[128]{0} broadcast(constant.101), dimensions={}
  broadcast.1197 = f32[1,1,1,128]{3,2,1,0} broadcast(broadcast.102), dimensions={3}
  reshape.1198 = f32[1,128]{1,0} reshape(broadcast.1197)
  broadcast.1199 = f32[1,28,28,128]{3,2,1,0} broadcast(reshape.1198), dimensions={0,3}
  add.1200 = f32[1,28,28,128]{3,2,1,0} add(multiply.1196, broadcast.1199)
  constant.1202 = f32[] constant(0)
  broadcast.1203 = f32[1,28,28,128]{3,2,1,0} broadcast(constant.1202), dimensions={}
  maximum.1204 = f32[1,28,28,128]{3,2,1,0} maximum(add.1200, broadcast.1203)
  constant.103 = f32[1,1,128,512]{3,2,1,0} constant({...})
  convolution.1205 = f32[1,28,28,512]{3,2,1,0} convolution(maximum.1204, constant.103), window={size=1x1}, dim_labels=b01f_01io->b01f
  constant.104 = f32[1,1,1,512]{3,2,1,0} constant({...})
  reshape.1206 = f32[1,512]{1,0} reshape(constant.104)
  broadcast.1207 = f32[1,28,28,512]{3,2,1,0} broadcast(reshape.1206), dimensions={0,3}
  add.1208 = f32[1,28,28,512]{3,2,1,0} add(convolution.1205, broadcast.1207)
  constant.1209 = f32[] constant(0)
  reduce.1215 = f32[512]{0} reduce(add.1208, constant.1209), dimensions={0,1,2}, to_apply=primitive_computation_add__34.1210
  broadcast.1216 = f32[1,1,1,512]{3,2,1,0} broadcast(reduce.1215), dimensions={3}
  constant.1217 = f32[] constant(784)
  broadcast.1218 = f32[1,1,1,512]{3,2,1,0} broadcast(constant.1217), dimensions={}
  divide.1219 = f32[1,1,1,512]{3,2,1,0} divide(broadcast.1216, broadcast.1218)
  reshape.1234 = f32[1,512]{1,0} reshape(divide.1219)
  broadcast.1235 = f32[1,28,28,512]{3,2,1,0} broadcast(reshape.1234), dimensions={0,3}
  subtract.1236 = f32[1,28,28,512]{3,2,1,0} subtract(add.1208, broadcast.1235)
  multiply.1220 = f32[1,28,28,512]{3,2,1,0} multiply(add.1208, add.1208)
  constant.1221 = f32[] constant(0)
  reduce.1227 = f32[512]{0} reduce(multiply.1220, constant.1221), dimensions={0,1,2}, to_apply=primitive_computation_add__35.1222
  broadcast.1228 = f32[1,1,1,512]{3,2,1,0} broadcast(reduce.1227), dimensions={3}
  constant.1229 = f32[] constant(784)
  broadcast.1230 = f32[1,1,1,512]{3,2,1,0} broadcast(constant.1229), dimensions={}
  divide.1231 = f32[1,1,1,512]{3,2,1,0} divide(broadcast.1228, broadcast.1230)
  multiply.1232 = f32[1,1,1,512]{3,2,1,0} multiply(divide.1219, divide.1219)
  subtract.1233 = f32[1,1,1,512]{3,2,1,0} subtract(divide.1231, multiply.1232)
  constant.1237 = f32[] constant(1e-05)
  broadcast.1238 = f32[1,1,1,512]{3,2,1,0} broadcast(constant.1237), dimensions={}
  add.1239 = f32[1,1,1,512]{3,2,1,0} add(subtract.1233, broadcast.1238)
  rsqrt.1240 = f32[1,1,1,512]{3,2,1,0} rsqrt(add.1239)
  reshape.1241 = f32[1,512]{1,0} reshape(rsqrt.1240)
  broadcast.1242 = f32[1,28,28,512]{3,2,1,0} broadcast(reshape.1241), dimensions={0,3}
  multiply.1243 = f32[1,28,28,512]{3,2,1,0} multiply(subtract.1236, broadcast.1242)
  multiply.1247 = f32[1,28,28,512]{3,2,1,0} multiply(broadcast.1246, multiply.1243)
  constant.107 = f32[] constant(0)
  broadcast.108 = f32[512]{0} broadcast(constant.107), dimensions={}
  broadcast.1248 = f32[1,1,1,512]{3,2,1,0} broadcast(broadcast.108), dimensions={3}
  reshape.1249 = f32[1,512]{1,0} reshape(broadcast.1248)
  broadcast.1250 = f32[1,28,28,512]{3,2,1,0} broadcast(reshape.1249), dimensions={0,3}
  add.1251 = f32[1,28,28,512]{3,2,1,0} add(multiply.1247, broadcast.1250)
  constant.1252 = f32[] constant(0)
  broadcast.1253 = f32[1,28,28,512]{3,2,1,0} broadcast(constant.1252), dimensions={}
  add.1254 = f32[1,28,28,512]{3,2,1,0} add(add.1251, broadcast.1253)
  add.1255 = f32[1,28,28,512]{3,2,1,0} add(add.1254, maximum.1102)
  constant.1257 = f32[] constant(0)
  broadcast.1258 = f32[1,28,28,512]{3,2,1,0} broadcast(constant.1257), dimensions={}
  maximum.1259 = f32[1,28,28,512]{3,2,1,0} maximum(add.1255, broadcast.1258)
  constant.109 = f32[1,1,512,128]{3,2,1,0} constant({...})
  convolution.1260 = f32[1,28,28,128]{3,2,1,0} convolution(maximum.1259, constant.109), window={size=1x1}, dim_labels=b01f_01io->b01f
  constant.110 = f32[1,1,1,128]{3,2,1,0} constant({...})
  reshape.1261 = f32[1,128]{1,0} reshape(constant.110)
  broadcast.1262 = f32[1,28,28,128]{3,2,1,0} broadcast(reshape.1261), dimensions={0,3}
  add.1263 = f32[1,28,28,128]{3,2,1,0} add(convolution.1260, broadcast.1262)
  constant.1264 = f32[] constant(0)
  reduce.1270 = f32[128]{0} reduce(add.1263, constant.1264), dimensions={0,1,2}, to_apply=primitive_computation_add__36.1265
  broadcast.1271 = f32[1,1,1,128]{3,2,1,0} broadcast(reduce.1270), dimensions={3}
  constant.1272 = f32[] constant(784)
  broadcast.1273 = f32[1,1,1,128]{3,2,1,0} broadcast(constant.1272), dimensions={}
  divide.1274 = f32[1,1,1,128]{3,2,1,0} divide(broadcast.1271, broadcast.1273)
  reshape.1289 = f32[1,128]{1,0} reshape(divide.1274)
  broadcast.1290 = f32[1,28,28,128]{3,2,1,0} broadcast(reshape.1289), dimensions={0,3}
  subtract.1291 = f32[1,28,28,128]{3,2,1,0} subtract(add.1263, broadcast.1290)
  multiply.1275 = f32[1,28,28,128]{3,2,1,0} multiply(add.1263, add.1263)
  constant.1276 = f32[] constant(0)
  reduce.1282 = f32[128]{0} reduce(multiply.1275, constant.1276), dimensions={0,1,2}, to_apply=primitive_computation_add__37.1277
  broadcast.1283 = f32[1,1,1,128]{3,2,1,0} broadcast(reduce.1282), dimensions={3}
  constant.1284 = f32[] constant(784)
  broadcast.1285 = f32[1,1,1,128]{3,2,1,0} broadcast(constant.1284), dimensions={}
  divide.1286 = f32[1,1,1,128]{3,2,1,0} divide(broadcast.1283, broadcast.1285)
  multiply.1287 = f32[1,1,1,128]{3,2,1,0} multiply(divide.1274, divide.1274)
  subtract.1288 = f32[1,1,1,128]{3,2,1,0} subtract(divide.1286, multiply.1287)
  constant.1292 = f32[] constant(1e-05)
  broadcast.1293 = f32[1,1,1,128]{3,2,1,0} broadcast(constant.1292), dimensions={}
  add.1294 = f32[1,1,1,128]{3,2,1,0} add(subtract.1288, broadcast.1293)
  rsqrt.1295 = f32[1,1,1,128]{3,2,1,0} rsqrt(add.1294)
  reshape.1296 = f32[1,128]{1,0} reshape(rsqrt.1295)
  broadcast.1297 = f32[1,28,28,128]{3,2,1,0} broadcast(reshape.1296), dimensions={0,3}
  multiply.1298 = f32[1,28,28,128]{3,2,1,0} multiply(subtract.1291, broadcast.1297)
  multiply.1302 = f32[1,28,28,128]{3,2,1,0} multiply(broadcast.1301, multiply.1298)
  constant.113 = f32[] constant(0)
  broadcast.114 = f32[128]{0} broadcast(constant.113), dimensions={}
  broadcast.1303 = f32[1,1,1,128]{3,2,1,0} broadcast(broadcast.114), dimensions={3}
  reshape.1304 = f32[1,128]{1,0} reshape(broadcast.1303)
  broadcast.1305 = f32[1,28,28,128]{3,2,1,0} broadcast(reshape.1304), dimensions={0,3}
  add.1306 = f32[1,28,28,128]{3,2,1,0} add(multiply.1302, broadcast.1305)
  constant.1308 = f32[] constant(0)
  broadcast.1309 = f32[1,28,28,128]{3,2,1,0} broadcast(constant.1308), dimensions={}
  maximum.1310 = f32[1,28,28,128]{3,2,1,0} maximum(add.1306, broadcast.1309)
  constant.115 = f32[3,3,128,128]{3,2,1,0} constant({...})
  convolution.1311 = f32[1,28,28,128]{3,2,1,0} convolution(maximum.1310, constant.115), window={size=3x3 pad=1_1x1_1}, dim_labels=b01f_01io->b01f
  constant.116 = f32[1,1,1,128]{3,2,1,0} constant({...})
  reshape.1312 = f32[1,128]{1,0} reshape(constant.116)
  broadcast.1313 = f32[1,28,28,128]{3,2,1,0} broadcast(reshape.1312), dimensions={0,3}
  add.1314 = f32[1,28,28,128]{3,2,1,0} add(convolution.1311, broadcast.1313)
  constant.1315 = f32[] constant(0)
  reduce.1321 = f32[128]{0} reduce(add.1314, constant.1315), dimensions={0,1,2}, to_apply=primitive_computation_add__38.1316
  broadcast.1322 = f32[1,1,1,128]{3,2,1,0} broadcast(reduce.1321), dimensions={3}
  constant.1323 = f32[] constant(784)
  broadcast.1324 = f32[1,1,1,128]{3,2,1,0} broadcast(constant.1323), dimensions={}
  divide.1325 = f32[1,1,1,128]{3,2,1,0} divide(broadcast.1322, broadcast.1324)
  reshape.1340 = f32[1,128]{1,0} reshape(divide.1325)
  broadcast.1341 = f32[1,28,28,128]{3,2,1,0} broadcast(reshape.1340), dimensions={0,3}
  subtract.1342 = f32[1,28,28,128]{3,2,1,0} subtract(add.1314, broadcast.1341)
  multiply.1326 = f32[1,28,28,128]{3,2,1,0} multiply(add.1314, add.1314)
  constant.1327 = f32[] constant(0)
  reduce.1333 = f32[128]{0} reduce(multiply.1326, constant.1327), dimensions={0,1,2}, to_apply=primitive_computation_add__39.1328
  broadcast.1334 = f32[1,1,1,128]{3,2,1,0} broadcast(reduce.1333), dimensions={3}
  constant.1335 = f32[] constant(784)
  broadcast.1336 = f32[1,1,1,128]{3,2,1,0} broadcast(constant.1335), dimensions={}
  divide.1337 = f32[1,1,1,128]{3,2,1,0} divide(broadcast.1334, broadcast.1336)
  multiply.1338 = f32[1,1,1,128]{3,2,1,0} multiply(divide.1325, divide.1325)
  subtract.1339 = f32[1,1,1,128]{3,2,1,0} subtract(divide.1337, multiply.1338)
  constant.1343 = f32[] constant(1e-05)
  broadcast.1344 = f32[1,1,1,128]{3,2,1,0} broadcast(constant.1343), dimensions={}
  add.1345 = f32[1,1,1,128]{3,2,1,0} add(subtract.1339, broadcast.1344)
  rsqrt.1346 = f32[1,1,1,128]{3,2,1,0} rsqrt(add.1345)
  reshape.1347 = f32[1,128]{1,0} reshape(rsqrt.1346)
  broadcast.1348 = f32[1,28,28,128]{3,2,1,0} broadcast(reshape.1347), dimensions={0,3}
  multiply.1349 = f32[1,28,28,128]{3,2,1,0} multiply(subtract.1342, broadcast.1348)
  multiply.1353 = f32[1,28,28,128]{3,2,1,0} multiply(broadcast.1352, multiply.1349)
  constant.119 = f32[] constant(0)
  broadcast.120 = f32[128]{0} broadcast(constant.119), dimensions={}
  broadcast.1354 = f32[1,1,1,128]{3,2,1,0} broadcast(broadcast.120), dimensions={3}
  reshape.1355 = f32[1,128]{1,0} reshape(broadcast.1354)
  broadcast.1356 = f32[1,28,28,128]{3,2,1,0} broadcast(reshape.1355), dimensions={0,3}
  add.1357 = f32[1,28,28,128]{3,2,1,0} add(multiply.1353, broadcast.1356)
  constant.1359 = f32[] constant(0)
  broadcast.1360 = f32[1,28,28,128]{3,2,1,0} broadcast(constant.1359), dimensions={}
  maximum.1361 = f32[1,28,28,128]{3,2,1,0} maximum(add.1357, broadcast.1360)
  constant.121 = f32[1,1,128,512]{3,2,1,0} constant({...})
  convolution.1362 = f32[1,28,28,512]{3,2,1,0} convolution(maximum.1361, constant.121), window={size=1x1}, dim_labels=b01f_01io->b01f
  constant.122 = f32[1,1,1,512]{3,2,1,0} constant({...})
  reshape.1363 = f32[1,512]{1,0} reshape(constant.122)
  broadcast.1364 = f32[1,28,28,512]{3,2,1,0} broadcast(reshape.1363), dimensions={0,3}
  add.1365 = f32[1,28,28,512]{3,2,1,0} add(convolution.1362, broadcast.1364)
  constant.1366 = f32[] constant(0)
  reduce.1372 = f32[512]{0} reduce(add.1365, constant.1366), dimensions={0,1,2}, to_apply=primitive_computation_add__40.1367
  broadcast.1373 = f32[1,1,1,512]{3,2,1,0} broadcast(reduce.1372), dimensions={3}
  constant.1374 = f32[] constant(784)
  broadcast.1375 = f32[1,1,1,512]{3,2,1,0} broadcast(constant.1374), dimensions={}
  divide.1376 = f32[1,1,1,512]{3,2,1,0} divide(broadcast.1373, broadcast.1375)
  reshape.1391 = f32[1,512]{1,0} reshape(divide.1376)
  broadcast.1392 = f32[1,28,28,512]{3,2,1,0} broadcast(reshape.1391), dimensions={0,3}
  subtract.1393 = f32[1,28,28,512]{3,2,1,0} subtract(add.1365, broadcast.1392)
  multiply.1377 = f32[1,28,28,512]{3,2,1,0} multiply(add.1365, add.1365)
  constant.1378 = f32[] constant(0)
  reduce.1384 = f32[512]{0} reduce(multiply.1377, constant.1378), dimensions={0,1,2}, to_apply=primitive_computation_add__41.1379
  broadcast.1385 = f32[1,1,1,512]{3,2,1,0} broadcast(reduce.1384), dimensions={3}
  constant.1386 = f32[] constant(784)
  broadcast.1387 = f32[1,1,1,512]{3,2,1,0} broadcast(constant.1386), dimensions={}
  divide.1388 = f32[1,1,1,512]{3,2,1,0} divide(broadcast.1385, broadcast.1387)
  multiply.1389 = f32[1,1,1,512]{3,2,1,0} multiply(divide.1376, divide.1376)
  subtract.1390 = f32[1,1,1,512]{3,2,1,0} subtract(divide.1388, multiply.1389)
  constant.1394 = f32[] constant(1e-05)
  broadcast.1395 = f32[1,1,1,512]{3,2,1,0} broadcast(constant.1394), dimensions={}
  add.1396 = f32[1,1,1,512]{3,2,1,0} add(subtract.1390, broadcast.1395)
  rsqrt.1397 = f32[1,1,1,512]{3,2,1,0} rsqrt(add.1396)
  reshape.1398 = f32[1,512]{1,0} reshape(rsqrt.1397)
  broadcast.1399 = f32[1,28,28,512]{3,2,1,0} broadcast(reshape.1398), dimensions={0,3}
  multiply.1400 = f32[1,28,28,512]{3,2,1,0} multiply(subtract.1393, broadcast.1399)
  multiply.1404 = f32[1,28,28,512]{3,2,1,0} multiply(broadcast.1403, multiply.1400)
  constant.125 = f32[] constant(0)
  broadcast.126 = f32[512]{0} broadcast(constant.125), dimensions={}
  broadcast.1405 = f32[1,1,1,512]{3,2,1,0} broadcast(broadcast.126), dimensions={3}
  reshape.1406 = f32[1,512]{1,0} reshape(broadcast.1405)
  broadcast.1407 = f32[1,28,28,512]{3,2,1,0} broadcast(reshape.1406), dimensions={0,3}
  add.1408 = f32[1,28,28,512]{3,2,1,0} add(multiply.1404, broadcast.1407)
  constant.1409 = f32[] constant(0)
  broadcast.1410 = f32[1,28,28,512]{3,2,1,0} broadcast(constant.1409), dimensions={}
  add.1411 = f32[1,28,28,512]{3,2,1,0} add(add.1408, broadcast.1410)
  add.1412 = f32[1,28,28,512]{3,2,1,0} add(add.1411, maximum.1259)
  constant.1414 = f32[] constant(0)
  broadcast.1415 = f32[1,28,28,512]{3,2,1,0} broadcast(constant.1414), dimensions={}
  maximum.1416 = f32[1,28,28,512]{3,2,1,0} maximum(add.1412, broadcast.1415)
  constant.127 = f32[1,1,512,128]{3,2,1,0} constant({...})
  convolution.1417 = f32[1,28,28,128]{3,2,1,0} convolution(maximum.1416, constant.127), window={size=1x1}, dim_labels=b01f_01io->b01f
  constant.128 = f32[1,1,1,128]{3,2,1,0} constant({...})
  reshape.1418 = f32[1,128]{1,0} reshape(constant.128)
  broadcast.1419 = f32[1,28,28,128]{3,2,1,0} broadcast(reshape.1418), dimensions={0,3}
  add.1420 = f32[1,28,28,128]{3,2,1,0} add(convolution.1417, broadcast.1419)
  constant.1421 = f32[] constant(0)
  reduce.1427 = f32[128]{0} reduce(add.1420, constant.1421), dimensions={0,1,2}, to_apply=primitive_computation_add__42.1422
  broadcast.1428 = f32[1,1,1,128]{3,2,1,0} broadcast(reduce.1427), dimensions={3}
  constant.1429 = f32[] constant(784)
  broadcast.1430 = f32[1,1,1,128]{3,2,1,0} broadcast(constant.1429), dimensions={}
  divide.1431 = f32[1,1,1,128]{3,2,1,0} divide(broadcast.1428, broadcast.1430)
  reshape.1446 = f32[1,128]{1,0} reshape(divide.1431)
  broadcast.1447 = f32[1,28,28,128]{3,2,1,0} broadcast(reshape.1446), dimensions={0,3}
  subtract.1448 = f32[1,28,28,128]{3,2,1,0} subtract(add.1420, broadcast.1447)
  multiply.1432 = f32[1,28,28,128]{3,2,1,0} multiply(add.1420, add.1420)
  constant.1433 = f32[] constant(0)
  reduce.1439 = f32[128]{0} reduce(multiply.1432, constant.1433), dimensions={0,1,2}, to_apply=primitive_computation_add__43.1434
  broadcast.1440 = f32[1,1,1,128]{3,2,1,0} broadcast(reduce.1439), dimensions={3}
  constant.1441 = f32[] constant(784)
  broadcast.1442 = f32[1,1,1,128]{3,2,1,0} broadcast(constant.1441), dimensions={}
  divide.1443 = f32[1,1,1,128]{3,2,1,0} divide(broadcast.1440, broadcast.1442)
  multiply.1444 = f32[1,1,1,128]{3,2,1,0} multiply(divide.1431, divide.1431)
  subtract.1445 = f32[1,1,1,128]{3,2,1,0} subtract(divide.1443, multiply.1444)
  constant.1449 = f32[] constant(1e-05)
  broadcast.1450 = f32[1,1,1,128]{3,2,1,0} broadcast(constant.1449), dimensions={}
  add.1451 = f32[1,1,1,128]{3,2,1,0} add(subtract.1445, broadcast.1450)
  rsqrt.1452 = f32[1,1,1,128]{3,2,1,0} rsqrt(add.1451)
  reshape.1453 = f32[1,128]{1,0} reshape(rsqrt.1452)
  broadcast.1454 = f32[1,28,28,128]{3,2,1,0} broadcast(reshape.1453), dimensions={0,3}
  multiply.1455 = f32[1,28,28,128]{3,2,1,0} multiply(subtract.1448, broadcast.1454)
  multiply.1459 = f32[1,28,28,128]{3,2,1,0} multiply(broadcast.1458, multiply.1455)
  constant.131 = f32[] constant(0)
  broadcast.132 = f32[128]{0} broadcast(constant.131), dimensions={}
  broadcast.1460 = f32[1,1,1,128]{3,2,1,0} broadcast(broadcast.132), dimensions={3}
  reshape.1461 = f32[1,128]{1,0} reshape(broadcast.1460)
  broadcast.1462 = f32[1,28,28,128]{3,2,1,0} broadcast(reshape.1461), dimensions={0,3}
  add.1463 = f32[1,28,28,128]{3,2,1,0} add(multiply.1459, broadcast.1462)
  constant.1465 = f32[] constant(0)
  broadcast.1466 = f32[1,28,28,128]{3,2,1,0} broadcast(constant.1465), dimensions={}
  maximum.1467 = f32[1,28,28,128]{3,2,1,0} maximum(add.1463, broadcast.1466)
  constant.133 = f32[3,3,128,128]{3,2,1,0} constant({...})
  convolution.1468 = f32[1,28,28,128]{3,2,1,0} convolution(maximum.1467, constant.133), window={size=3x3 pad=1_1x1_1}, dim_labels=b01f_01io->b01f
  constant.134 = f32[1,1,1,128]{3,2,1,0} constant({...})
  reshape.1469 = f32[1,128]{1,0} reshape(constant.134)
  broadcast.1470 = f32[1,28,28,128]{3,2,1,0} broadcast(reshape.1469), dimensions={0,3}
  add.1471 = f32[1,28,28,128]{3,2,1,0} add(convolution.1468, broadcast.1470)
  constant.1472 = f32[] constant(0)
  reduce.1478 = f32[128]{0} reduce(add.1471, constant.1472), dimensions={0,1,2}, to_apply=primitive_computation_add__44.1473
  broadcast.1479 = f32[1,1,1,128]{3,2,1,0} broadcast(reduce.1478), dimensions={3}
  constant.1480 = f32[] constant(784)
  broadcast.1481 = f32[1,1,1,128]{3,2,1,0} broadcast(constant.1480), dimensions={}
  divide.1482 = f32[1,1,1,128]{3,2,1,0} divide(broadcast.1479, broadcast.1481)
  reshape.1497 = f32[1,128]{1,0} reshape(divide.1482)
  broadcast.1498 = f32[1,28,28,128]{3,2,1,0} broadcast(reshape.1497), dimensions={0,3}
  subtract.1499 = f32[1,28,28,128]{3,2,1,0} subtract(add.1471, broadcast.1498)
  multiply.1483 = f32[1,28,28,128]{3,2,1,0} multiply(add.1471, add.1471)
  constant.1484 = f32[] constant(0)
  reduce.1490 = f32[128]{0} reduce(multiply.1483, constant.1484), dimensions={0,1,2}, to_apply=primitive_computation_add__45.1485
  broadcast.1491 = f32[1,1,1,128]{3,2,1,0} broadcast(reduce.1490), dimensions={3}
  constant.1492 = f32[] constant(784)
  broadcast.1493 = f32[1,1,1,128]{3,2,1,0} broadcast(constant.1492), dimensions={}
  divide.1494 = f32[1,1,1,128]{3,2,1,0} divide(broadcast.1491, broadcast.1493)
  multiply.1495 = f32[1,1,1,128]{3,2,1,0} multiply(divide.1482, divide.1482)
  subtract.1496 = f32[1,1,1,128]{3,2,1,0} subtract(divide.1494, multiply.1495)
  constant.1500 = f32[] constant(1e-05)
  broadcast.1501 = f32[1,1,1,128]{3,2,1,0} broadcast(constant.1500), dimensions={}
  add.1502 = f32[1,1,1,128]{3,2,1,0} add(subtract.1496, broadcast.1501)
  rsqrt.1503 = f32[1,1,1,128]{3,2,1,0} rsqrt(add.1502)
  reshape.1504 = f32[1,128]{1,0} reshape(rsqrt.1503)
  broadcast.1505 = f32[1,28,28,128]{3,2,1,0} broadcast(reshape.1504), dimensions={0,3}
  multiply.1506 = f32[1,28,28,128]{3,2,1,0} multiply(subtract.1499, broadcast.1505)
  multiply.1510 = f32[1,28,28,128]{3,2,1,0} multiply(broadcast.1509, multiply.1506)
  constant.137 = f32[] constant(0)
  broadcast.138 = f32[128]{0} broadcast(constant.137), dimensions={}
  broadcast.1511 = f32[1,1,1,128]{3,2,1,0} broadcast(broadcast.138), dimensions={3}
  reshape.1512 = f32[1,128]{1,0} reshape(broadcast.1511)
  broadcast.1513 = f32[1,28,28,128]{3,2,1,0} broadcast(reshape.1512), dimensions={0,3}
  add.1514 = f32[1,28,28,128]{3,2,1,0} add(multiply.1510, broadcast.1513)
  constant.1516 = f32[] constant(0)
  broadcast.1517 = f32[1,28,28,128]{3,2,1,0} broadcast(constant.1516), dimensions={}
  maximum.1518 = f32[1,28,28,128]{3,2,1,0} maximum(add.1514, broadcast.1517)
  constant.139 = f32[1,1,128,512]{3,2,1,0} constant({...})
  convolution.1519 = f32[1,28,28,512]{3,2,1,0} convolution(maximum.1518, constant.139), window={size=1x1}, dim_labels=b01f_01io->b01f
  constant.140 = f32[1,1,1,512]{3,2,1,0} constant({...})
  reshape.1520 = f32[1,512]{1,0} reshape(constant.140)
  broadcast.1521 = f32[1,28,28,512]{3,2,1,0} broadcast(reshape.1520), dimensions={0,3}
  add.1522 = f32[1,28,28,512]{3,2,1,0} add(convolution.1519, broadcast.1521)
  constant.1523 = f32[] constant(0)
  reduce.1529 = f32[512]{0} reduce(add.1522, constant.1523), dimensions={0,1,2}, to_apply=primitive_computation_add__46.1524
  broadcast.1530 = f32[1,1,1,512]{3,2,1,0} broadcast(reduce.1529), dimensions={3}
  constant.1531 = f32[] constant(784)
  broadcast.1532 = f32[1,1,1,512]{3,2,1,0} broadcast(constant.1531), dimensions={}
  divide.1533 = f32[1,1,1,512]{3,2,1,0} divide(broadcast.1530, broadcast.1532)
  reshape.1548 = f32[1,512]{1,0} reshape(divide.1533)
  broadcast.1549 = f32[1,28,28,512]{3,2,1,0} broadcast(reshape.1548), dimensions={0,3}
  subtract.1550 = f32[1,28,28,512]{3,2,1,0} subtract(add.1522, broadcast.1549)
  multiply.1534 = f32[1,28,28,512]{3,2,1,0} multiply(add.1522, add.1522)
  constant.1535 = f32[] constant(0)
  reduce.1541 = f32[512]{0} reduce(multiply.1534, constant.1535), dimensions={0,1,2}, to_apply=primitive_computation_add__47.1536
  broadcast.1542 = f32[1,1,1,512]{3,2,1,0} broadcast(reduce.1541), dimensions={3}
  constant.1543 = f32[] constant(784)
  broadcast.1544 = f32[1,1,1,512]{3,2,1,0} broadcast(constant.1543), dimensions={}
  divide.1545 = f32[1,1,1,512]{3,2,1,0} divide(broadcast.1542, broadcast.1544)
  multiply.1546 = f32[1,1,1,512]{3,2,1,0} multiply(divide.1533, divide.1533)
  subtract.1547 = f32[1,1,1,512]{3,2,1,0} subtract(divide.1545, multiply.1546)
  constant.1551 = f32[] constant(1e-05)
  broadcast.1552 = f32[1,1,1,512]{3,2,1,0} broadcast(constant.1551), dimensions={}
  add.1553 = f32[1,1,1,512]{3,2,1,0} add(subtract.1547, broadcast.1552)
  rsqrt.1554 = f32[1,1,1,512]{3,2,1,0} rsqrt(add.1553)
  reshape.1555 = f32[1,512]{1,0} reshape(rsqrt.1554)
  broadcast.1556 = f32[1,28,28,512]{3,2,1,0} broadcast(reshape.1555), dimensions={0,3}
  multiply.1557 = f32[1,28,28,512]{3,2,1,0} multiply(subtract.1550, broadcast.1556)
  multiply.1561 = f32[1,28,28,512]{3,2,1,0} multiply(broadcast.1560, multiply.1557)
  constant.143 = f32[] constant(0)
  broadcast.144 = f32[512]{0} broadcast(constant.143), dimensions={}
  broadcast.1562 = f32[1,1,1,512]{3,2,1,0} broadcast(broadcast.144), dimensions={3}
  reshape.1563 = f32[1,512]{1,0} reshape(broadcast.1562)
  broadcast.1564 = f32[1,28,28,512]{3,2,1,0} broadcast(reshape.1563), dimensions={0,3}
  add.1565 = f32[1,28,28,512]{3,2,1,0} add(multiply.1561, broadcast.1564)
  constant.1566 = f32[] constant(0)
  broadcast.1567 = f32[1,28,28,512]{3,2,1,0} broadcast(constant.1566), dimensions={}
  add.1568 = f32[1,28,28,512]{3,2,1,0} add(add.1565, broadcast.1567)
  add.1569 = f32[1,28,28,512]{3,2,1,0} add(add.1568, maximum.1416)
  constant.1571 = f32[] constant(0)
  broadcast.1572 = f32[1,28,28,512]{3,2,1,0} broadcast(constant.1571), dimensions={}
  maximum.1573 = f32[1,28,28,512]{3,2,1,0} maximum(add.1569, broadcast.1572)
  constant.145 = f32[1,1,512,256]{3,2,1,0} constant({...})
  convolution.1574 = f32[1,14,14,256]{3,2,1,0} convolution(maximum.1573, constant.145), window={size=1x1 stride=2x2}, dim_labels=b01f_01io->b01f
  constant.146 = f32[1,1,1,256]{3,2,1,0} constant({...})
  reshape.1575 = f32[1,256]{1,0} reshape(constant.146)
  broadcast.1576 = f32[1,14,14,256]{3,2,1,0} broadcast(reshape.1575), dimensions={0,3}
  add.1577 = f32[1,14,14,256]{3,2,1,0} add(convolution.1574, broadcast.1576)
  constant.1578 = f32[] constant(0)
  reduce.1584 = f32[256]{0} reduce(add.1577, constant.1578), dimensions={0,1,2}, to_apply=primitive_computation_add__48.1579
  broadcast.1585 = f32[1,1,1,256]{3,2,1,0} broadcast(reduce.1584), dimensions={3}
  constant.1586 = f32[] constant(196)
  broadcast.1587 = f32[1,1,1,256]{3,2,1,0} broadcast(constant.1586), dimensions={}
  divide.1588 = f32[1,1,1,256]{3,2,1,0} divide(broadcast.1585, broadcast.1587)
  reshape.1603 = f32[1,256]{1,0} reshape(divide.1588)
  broadcast.1604 = f32[1,14,14,256]{3,2,1,0} broadcast(reshape.1603), dimensions={0,3}
  subtract.1605 = f32[1,14,14,256]{3,2,1,0} subtract(add.1577, broadcast.1604)
  multiply.1589 = f32[1,14,14,256]{3,2,1,0} multiply(add.1577, add.1577)
  constant.1590 = f32[] constant(0)
  reduce.1596 = f32[256]{0} reduce(multiply.1589, constant.1590), dimensions={0,1,2}, to_apply=primitive_computation_add__49.1591
  broadcast.1597 = f32[1,1,1,256]{3,2,1,0} broadcast(reduce.1596), dimensions={3}
  constant.1598 = f32[] constant(196)
  broadcast.1599 = f32[1,1,1,256]{3,2,1,0} broadcast(constant.1598), dimensions={}
  divide.1600 = f32[1,1,1,256]{3,2,1,0} divide(broadcast.1597, broadcast.1599)
  multiply.1601 = f32[1,1,1,256]{3,2,1,0} multiply(divide.1588, divide.1588)
  subtract.1602 = f32[1,1,1,256]{3,2,1,0} subtract(divide.1600, multiply.1601)
  constant.1606 = f32[] constant(1e-05)
  broadcast.1607 = f32[1,1,1,256]{3,2,1,0} broadcast(constant.1606), dimensions={}
  add.1608 = f32[1,1,1,256]{3,2,1,0} add(subtract.1602, broadcast.1607)
  rsqrt.1609 = f32[1,1,1,256]{3,2,1,0} rsqrt(add.1608)
  reshape.1610 = f32[1,256]{1,0} reshape(rsqrt.1609)
  broadcast.1611 = f32[1,14,14,256]{3,2,1,0} broadcast(reshape.1610), dimensions={0,3}
  multiply.1612 = f32[1,14,14,256]{3,2,1,0} multiply(subtract.1605, broadcast.1611)
  multiply.1616 = f32[1,14,14,256]{3,2,1,0} multiply(broadcast.1615, multiply.1612)
  constant.149 = f32[] constant(0)
  broadcast.150 = f32[256]{0} broadcast(constant.149), dimensions={}
  broadcast.1617 = f32[1,1,1,256]{3,2,1,0} broadcast(broadcast.150), dimensions={3}
  reshape.1618 = f32[1,256]{1,0} reshape(broadcast.1617)
  broadcast.1619 = f32[1,14,14,256]{3,2,1,0} broadcast(reshape.1618), dimensions={0,3}
  add.1620 = f32[1,14,14,256]{3,2,1,0} add(multiply.1616, broadcast.1619)
  constant.1622 = f32[] constant(0)
  broadcast.1623 = f32[1,14,14,256]{3,2,1,0} broadcast(constant.1622), dimensions={}
  maximum.1624 = f32[1,14,14,256]{3,2,1,0} maximum(add.1620, broadcast.1623)
  constant.151 = f32[3,3,256,256]{3,2,1,0} constant({...})
  convolution.1625 = f32[1,14,14,256]{3,2,1,0} convolution(maximum.1624, constant.151), window={size=3x3 pad=1_1x1_1}, dim_labels=b01f_01io->b01f
  constant.152 = f32[1,1,1,256]{3,2,1,0} constant({...})
  reshape.1626 = f32[1,256]{1,0} reshape(constant.152)
  broadcast.1627 = f32[1,14,14,256]{3,2,1,0} broadcast(reshape.1626), dimensions={0,3}
  add.1628 = f32[1,14,14,256]{3,2,1,0} add(convolution.1625, broadcast.1627)
  constant.1629 = f32[] constant(0)
  reduce.1635 = f32[256]{0} reduce(add.1628, constant.1629), dimensions={0,1,2}, to_apply=primitive_computation_add__50.1630
  broadcast.1636 = f32[1,1,1,256]{3,2,1,0} broadcast(reduce.1635), dimensions={3}
  constant.1637 = f32[] constant(196)
  broadcast.1638 = f32[1,1,1,256]{3,2,1,0} broadcast(constant.1637), dimensions={}
  divide.1639 = f32[1,1,1,256]{3,2,1,0} divide(broadcast.1636, broadcast.1638)
  reshape.1654 = f32[1,256]{1,0} reshape(divide.1639)
  broadcast.1655 = f32[1,14,14,256]{3,2,1,0} broadcast(reshape.1654), dimensions={0,3}
  subtract.1656 = f32[1,14,14,256]{3,2,1,0} subtract(add.1628, broadcast.1655)
  multiply.1640 = f32[1,14,14,256]{3,2,1,0} multiply(add.1628, add.1628)
  constant.1641 = f32[] constant(0)
  reduce.1647 = f32[256]{0} reduce(multiply.1640, constant.1641), dimensions={0,1,2}, to_apply=primitive_computation_add__51.1642
  broadcast.1648 = f32[1,1,1,256]{3,2,1,0} broadcast(reduce.1647), dimensions={3}
  constant.1649 = f32[] constant(196)
  broadcast.1650 = f32[1,1,1,256]{3,2,1,0} broadcast(constant.1649), dimensions={}
  divide.1651 = f32[1,1,1,256]{3,2,1,0} divide(broadcast.1648, broadcast.1650)
  multiply.1652 = f32[1,1,1,256]{3,2,1,0} multiply(divide.1639, divide.1639)
  subtract.1653 = f32[1,1,1,256]{3,2,1,0} subtract(divide.1651, multiply.1652)
  constant.1657 = f32[] constant(1e-05)
  broadcast.1658 = f32[1,1,1,256]{3,2,1,0} broadcast(constant.1657), dimensions={}
  add.1659 = f32[1,1,1,256]{3,2,1,0} add(subtract.1653, broadcast.1658)
  rsqrt.1660 = f32[1,1,1,256]{3,2,1,0} rsqrt(add.1659)
  reshape.1661 = f32[1,256]{1,0} reshape(rsqrt.1660)
  broadcast.1662 = f32[1,14,14,256]{3,2,1,0} broadcast(reshape.1661), dimensions={0,3}
  multiply.1663 = f32[1,14,14,256]{3,2,1,0} multiply(subtract.1656, broadcast.1662)
  multiply.1667 = f32[1,14,14,256]{3,2,1,0} multiply(broadcast.1666, multiply.1663)
  constant.155 = f32[] constant(0)
  broadcast.156 = f32[256]{0} broadcast(constant.155), dimensions={}
  broadcast.1668 = f32[1,1,1,256]{3,2,1,0} broadcast(broadcast.156), dimensions={3}
  reshape.1669 = f32[1,256]{1,0} reshape(broadcast.1668)
  broadcast.1670 = f32[1,14,14,256]{3,2,1,0} broadcast(reshape.1669), dimensions={0,3}
  add.1671 = f32[1,14,14,256]{3,2,1,0} add(multiply.1667, broadcast.1670)
  constant.1673 = f32[] constant(0)
  broadcast.1674 = f32[1,14,14,256]{3,2,1,0} broadcast(constant.1673), dimensions={}
  maximum.1675 = f32[1,14,14,256]{3,2,1,0} maximum(add.1671, broadcast.1674)
  constant.157 = f32[1,1,256,1024]{3,2,1,0} constant({...})
  convolution.1676 = f32[1,14,14,1024]{3,2,1,0} convolution(maximum.1675, constant.157), window={size=1x1}, dim_labels=b01f_01io->b01f
  constant.158 = f32[1,1,1,1024]{3,2,1,0} constant({...})
  reshape.1677 = f32[1,1024]{1,0} reshape(constant.158)
  broadcast.1678 = f32[1,14,14,1024]{3,2,1,0} broadcast(reshape.1677), dimensions={0,3}
  add.1679 = f32[1,14,14,1024]{3,2,1,0} add(convolution.1676, broadcast.1678)
  constant.1680 = f32[] constant(0)
  reduce.1686 = f32[1024]{0} reduce(add.1679, constant.1680), dimensions={0,1,2}, to_apply=primitive_computation_add__52.1681
  broadcast.1687 = f32[1,1,1,1024]{3,2,1,0} broadcast(reduce.1686), dimensions={3}
  constant.1688 = f32[] constant(196)
  broadcast.1689 = f32[1,1,1,1024]{3,2,1,0} broadcast(constant.1688), dimensions={}
  divide.1690 = f32[1,1,1,1024]{3,2,1,0} divide(broadcast.1687, broadcast.1689)
  reshape.1705 = f32[1,1024]{1,0} reshape(divide.1690)
  broadcast.1706 = f32[1,14,14,1024]{3,2,1,0} broadcast(reshape.1705), dimensions={0,3}
  subtract.1707 = f32[1,14,14,1024]{3,2,1,0} subtract(add.1679, broadcast.1706)
  multiply.1691 = f32[1,14,14,1024]{3,2,1,0} multiply(add.1679, add.1679)
  constant.1692 = f32[] constant(0)
  reduce.1698 = f32[1024]{0} reduce(multiply.1691, constant.1692), dimensions={0,1,2}, to_apply=primitive_computation_add__53.1693
  broadcast.1699 = f32[1,1,1,1024]{3,2,1,0} broadcast(reduce.1698), dimensions={3}
  constant.1700 = f32[] constant(196)
  broadcast.1701 = f32[1,1,1,1024]{3,2,1,0} broadcast(constant.1700), dimensions={}
  divide.1702 = f32[1,1,1,1024]{3,2,1,0} divide(broadcast.1699, broadcast.1701)
  multiply.1703 = f32[1,1,1,1024]{3,2,1,0} multiply(divide.1690, divide.1690)
  subtract.1704 = f32[1,1,1,1024]{3,2,1,0} subtract(divide.1702, multiply.1703)
  constant.1708 = f32[] constant(1e-05)
  broadcast.1709 = f32[1,1,1,1024]{3,2,1,0} broadcast(constant.1708), dimensions={}
  add.1710 = f32[1,1,1,1024]{3,2,1,0} add(subtract.1704, broadcast.1709)
  rsqrt.1711 = f32[1,1,1,1024]{3,2,1,0} rsqrt(add.1710)
  reshape.1712 = f32[1,1024]{1,0} reshape(rsqrt.1711)
  broadcast.1713 = f32[1,14,14,1024]{3,2,1,0} broadcast(reshape.1712), dimensions={0,3}
  multiply.1714 = f32[1,14,14,1024]{3,2,1,0} multiply(subtract.1707, broadcast.1713)
  multiply.1718 = f32[1,14,14,1024]{3,2,1,0} multiply(broadcast.1717, multiply.1714)
  constant.161 = f32[] constant(0)
  broadcast.162 = f32[1024]{0} broadcast(constant.161), dimensions={}
  broadcast.1719 = f32[1,1,1,1024]{3,2,1,0} broadcast(broadcast.162), dimensions={3}
  reshape.1720 = f32[1,1024]{1,0} reshape(broadcast.1719)
  broadcast.1721 = f32[1,14,14,1024]{3,2,1,0} broadcast(reshape.1720), dimensions={0,3}
  add.1722 = f32[1,14,14,1024]{3,2,1,0} add(multiply.1718, broadcast.1721)
  constant.1770 = f32[] constant(0)
  broadcast.1771 = f32[1,14,14,1024]{3,2,1,0} broadcast(constant.1770), dimensions={}
  add.1772 = f32[1,14,14,1024]{3,2,1,0} add(add.1722, broadcast.1771)
  constant.165 = f32[] constant(1)
  broadcast.166 = f32[1024]{0} broadcast(constant.165), dimensions={}
  broadcast.1762 = f32[1,1,1,1024]{3,2,1,0} broadcast(broadcast.166), dimensions={3}
  reshape.1763 = f32[1,1024]{1,0} reshape(broadcast.1762)
  broadcast.1764 = f32[1,14,14,1024]{3,2,1,0} broadcast(reshape.1763), dimensions={0,3}
  constant.163 = f32[1,1,512,1024]{3,2,1,0} constant({...})
  convolution.1723 = f32[1,14,14,1024]{3,2,1,0} convolution(maximum.1573, constant.163), window={size=1x1 stride=2x2}, dim_labels=b01f_01io->b01f
  constant.164 = f32[1,1,1,1024]{3,2,1,0} constant({...})
  reshape.1724 = f32[1,1024]{1,0} reshape(constant.164)
  broadcast.1725 = f32[1,14,14,1024]{3,2,1,0} broadcast(reshape.1724), dimensions={0,3}
  add.1726 = f32[1,14,14,1024]{3,2,1,0} add(convolution.1723, broadcast.1725)
  constant.1727 = f32[] constant(0)
  reduce.1733 = f32[1024]{0} reduce(add.1726, constant.1727), dimensions={0,1,2}, to_apply=primitive_computation_add__54.1728
  broadcast.1734 = f32[1,1,1,1024]{3,2,1,0} broadcast(reduce.1733), dimensions={3}
  constant.1735 = f32[] constant(196)
  broadcast.1736 = f32[1,1,1,1024]{3,2,1,0} broadcast(constant.1735), dimensions={}
  divide.1737 = f32[1,1,1,1024]{3,2,1,0} divide(broadcast.1734, broadcast.1736)
  reshape.1752 = f32[1,1024]{1,0} reshape(divide.1737)
  broadcast.1753 = f32[1,14,14,1024]{3,2,1,0} broadcast(reshape.1752), dimensions={0,3}
  subtract.1754 = f32[1,14,14,1024]{3,2,1,0} subtract(add.1726, broadcast.1753)
  multiply.1738 = f32[1,14,14,1024]{3,2,1,0} multiply(add.1726, add.1726)
  constant.1739 = f32[] constant(0)
  reduce.1745 = f32[1024]{0} reduce(multiply.1738, constant.1739), dimensions={0,1,2}, to_apply=primitive_computation_add__55.1740
  broadcast.1746 = f32[1,1,1,1024]{3,2,1,0} broadcast(reduce.1745), dimensions={3}
  constant.1747 = f32[] constant(196)
  broadcast.1748 = f32[1,1,1,1024]{3,2,1,0} broadcast(constant.1747), dimensions={}
  divide.1749 = f32[1,1,1,1024]{3,2,1,0} divide(broadcast.1746, broadcast.1748)
  multiply.1750 = f32[1,1,1,1024]{3,2,1,0} multiply(divide.1737, divide.1737)
  subtract.1751 = f32[1,1,1,1024]{3,2,1,0} subtract(divide.1749, multiply.1750)
  constant.1755 = f32[] constant(1e-05)
  broadcast.1756 = f32[1,1,1,1024]{3,2,1,0} broadcast(constant.1755), dimensions={}
  add.1757 = f32[1,1,1,1024]{3,2,1,0} add(subtract.1751, broadcast.1756)
  rsqrt.1758 = f32[1,1,1,1024]{3,2,1,0} rsqrt(add.1757)
  reshape.1759 = f32[1,1024]{1,0} reshape(rsqrt.1758)
  broadcast.1760 = f32[1,14,14,1024]{3,2,1,0} broadcast(reshape.1759), dimensions={0,3}
  multiply.1761 = f32[1,14,14,1024]{3,2,1,0} multiply(subtract.1754, broadcast.1760)
  multiply.1765 = f32[1,14,14,1024]{3,2,1,0} multiply(broadcast.1764, multiply.1761)
  constant.167 = f32[] constant(0)
  broadcast.168 = f32[1024]{0} broadcast(constant.167), dimensions={}
  broadcast.1766 = f32[1,1,1,1024]{3,2,1,0} broadcast(broadcast.168), dimensions={3}
  reshape.1767 = f32[1,1024]{1,0} reshape(broadcast.1766)
  broadcast.1768 = f32[1,14,14,1024]{3,2,1,0} broadcast(reshape.1767), dimensions={0,3}
  add.1769 = f32[1,14,14,1024]{3,2,1,0} add(multiply.1765, broadcast.1768)
  add.1773 = f32[1,14,14,1024]{3,2,1,0} add(add.1772, add.1769)
  constant.1775 = f32[] constant(0)
  broadcast.1776 = f32[1,14,14,1024]{3,2,1,0} broadcast(constant.1775), dimensions={}
  maximum.1777 = f32[1,14,14,1024]{3,2,1,0} maximum(add.1773, broadcast.1776)
  constant.169 = f32[1,1,1024,256]{3,2,1,0} constant({...})
  convolution.1778 = f32[1,14,14,256]{3,2,1,0} convolution(maximum.1777, constant.169), window={size=1x1}, dim_labels=b01f_01io->b01f
  constant.170 = f32[1,1,1,256]{3,2,1,0} constant({...})
  reshape.1779 = f32[1,256]{1,0} reshape(constant.170)
  broadcast.1780 = f32[1,14,14,256]{3,2,1,0} broadcast(reshape.1779), dimensions={0,3}
  add.1781 = f32[1,14,14,256]{3,2,1,0} add(convolution.1778, broadcast.1780)
  constant.1782 = f32[] constant(0)
  reduce.1788 = f32[256]{0} reduce(add.1781, constant.1782), dimensions={0,1,2}, to_apply=primitive_computation_add__56.1783
  broadcast.1789 = f32[1,1,1,256]{3,2,1,0} broadcast(reduce.1788), dimensions={3}
  constant.1790 = f32[] constant(196)
  broadcast.1791 = f32[1,1,1,256]{3,2,1,0} broadcast(constant.1790), dimensions={}
  divide.1792 = f32[1,1,1,256]{3,2,1,0} divide(broadcast.1789, broadcast.1791)
  reshape.1807 = f32[1,256]{1,0} reshape(divide.1792)
  broadcast.1808 = f32[1,14,14,256]{3,2,1,0} broadcast(reshape.1807), dimensions={0,3}
  subtract.1809 = f32[1,14,14,256]{3,2,1,0} subtract(add.1781, broadcast.1808)
  multiply.1793 = f32[1,14,14,256]{3,2,1,0} multiply(add.1781, add.1781)
  constant.1794 = f32[] constant(0)
  reduce.1800 = f32[256]{0} reduce(multiply.1793, constant.1794), dimensions={0,1,2}, to_apply=primitive_computation_add__57.1795
  broadcast.1801 = f32[1,1,1,256]{3,2,1,0} broadcast(reduce.1800), dimensions={3}
  constant.1802 = f32[] constant(196)
  broadcast.1803 = f32[1,1,1,256]{3,2,1,0} broadcast(constant.1802), dimensions={}
  divide.1804 = f32[1,1,1,256]{3,2,1,0} divide(broadcast.1801, broadcast.1803)
  multiply.1805 = f32[1,1,1,256]{3,2,1,0} multiply(divide.1792, divide.1792)
  subtract.1806 = f32[1,1,1,256]{3,2,1,0} subtract(divide.1804, multiply.1805)
  constant.1810 = f32[] constant(1e-05)
  broadcast.1811 = f32[1,1,1,256]{3,2,1,0} broadcast(constant.1810), dimensions={}
  add.1812 = f32[1,1,1,256]{3,2,1,0} add(subtract.1806, broadcast.1811)
  rsqrt.1813 = f32[1,1,1,256]{3,2,1,0} rsqrt(add.1812)
  reshape.1814 = f32[1,256]{1,0} reshape(rsqrt.1813)
  broadcast.1815 = f32[1,14,14,256]{3,2,1,0} broadcast(reshape.1814), dimensions={0,3}
  multiply.1816 = f32[1,14,14,256]{3,2,1,0} multiply(subtract.1809, broadcast.1815)
  multiply.1820 = f32[1,14,14,256]{3,2,1,0} multiply(broadcast.1819, multiply.1816)
  constant.173 = f32[] constant(0)
  broadcast.174 = f32[256]{0} broadcast(constant.173), dimensions={}
  broadcast.1821 = f32[1,1,1,256]{3,2,1,0} broadcast(broadcast.174), dimensions={3}
  reshape.1822 = f32[1,256]{1,0} reshape(broadcast.1821)
  broadcast.1823 = f32[1,14,14,256]{3,2,1,0} broadcast(reshape.1822), dimensions={0,3}
  add.1824 = f32[1,14,14,256]{3,2,1,0} add(multiply.1820, broadcast.1823)
  constant.1826 = f32[] constant(0)
  broadcast.1827 = f32[1,14,14,256]{3,2,1,0} broadcast(constant.1826), dimensions={}
  maximum.1828 = f32[1,14,14,256]{3,2,1,0} maximum(add.1824, broadcast.1827)
  constant.175 = f32[3,3,256,256]{3,2,1,0} constant({...})
  convolution.1829 = f32[1,14,14,256]{3,2,1,0} convolution(maximum.1828, constant.175), window={size=3x3 pad=1_1x1_1}, dim_labels=b01f_01io->b01f
  constant.176 = f32[1,1,1,256]{3,2,1,0} constant({...})
  reshape.1830 = f32[1,256]{1,0} reshape(constant.176)
  broadcast.1831 = f32[1,14,14,256]{3,2,1,0} broadcast(reshape.1830), dimensions={0,3}
  add.1832 = f32[1,14,14,256]{3,2,1,0} add(convolution.1829, broadcast.1831)
  constant.1833 = f32[] constant(0)
  reduce.1839 = f32[256]{0} reduce(add.1832, constant.1833), dimensions={0,1,2}, to_apply=primitive_computation_add__58.1834
  broadcast.1840 = f32[1,1,1,256]{3,2,1,0} broadcast(reduce.1839), dimensions={3}
  constant.1841 = f32[] constant(196)
  broadcast.1842 = f32[1,1,1,256]{3,2,1,0} broadcast(constant.1841), dimensions={}
  divide.1843 = f32[1,1,1,256]{3,2,1,0} divide(broadcast.1840, broadcast.1842)
  reshape.1858 = f32[1,256]{1,0} reshape(divide.1843)
  broadcast.1859 = f32[1,14,14,256]{3,2,1,0} broadcast(reshape.1858), dimensions={0,3}
  subtract.1860 = f32[1,14,14,256]{3,2,1,0} subtract(add.1832, broadcast.1859)
  multiply.1844 = f32[1,14,14,256]{3,2,1,0} multiply(add.1832, add.1832)
  constant.1845 = f32[] constant(0)
  reduce.1851 = f32[256]{0} reduce(multiply.1844, constant.1845), dimensions={0,1,2}, to_apply=primitive_computation_add__59.1846
  broadcast.1852 = f32[1,1,1,256]{3,2,1,0} broadcast(reduce.1851), dimensions={3}
  constant.1853 = f32[] constant(196)
  broadcast.1854 = f32[1,1,1,256]{3,2,1,0} broadcast(constant.1853), dimensions={}
  divide.1855 = f32[1,1,1,256]{3,2,1,0} divide(broadcast.1852, broadcast.1854)
  multiply.1856 = f32[1,1,1,256]{3,2,1,0} multiply(divide.1843, divide.1843)
  subtract.1857 = f32[1,1,1,256]{3,2,1,0} subtract(divide.1855, multiply.1856)
  constant.1861 = f32[] constant(1e-05)
  broadcast.1862 = f32[1,1,1,256]{3,2,1,0} broadcast(constant.1861), dimensions={}
  add.1863 = f32[1,1,1,256]{3,2,1,0} add(subtract.1857, broadcast.1862)
  rsqrt.1864 = f32[1,1,1,256]{3,2,1,0} rsqrt(add.1863)
  reshape.1865 = f32[1,256]{1,0} reshape(rsqrt.1864)
  broadcast.1866 = f32[1,14,14,256]{3,2,1,0} broadcast(reshape.1865), dimensions={0,3}
  multiply.1867 = f32[1,14,14,256]{3,2,1,0} multiply(subtract.1860, broadcast.1866)
  multiply.1871 = f32[1,14,14,256]{3,2,1,0} multiply(broadcast.1870, multiply.1867)
  constant.179 = f32[] constant(0)
  broadcast.180 = f32[256]{0} broadcast(constant.179), dimensions={}
  broadcast.1872 = f32[1,1,1,256]{3,2,1,0} broadcast(broadcast.180), dimensions={3}
  reshape.1873 = f32[1,256]{1,0} reshape(broadcast.1872)
  broadcast.1874 = f32[1,14,14,256]{3,2,1,0} broadcast(reshape.1873), dimensions={0,3}
  add.1875 = f32[1,14,14,256]{3,2,1,0} add(multiply.1871, broadcast.1874)
  constant.1877 = f32[] constant(0)
  broadcast.1878 = f32[1,14,14,256]{3,2,1,0} broadcast(constant.1877), dimensions={}
  maximum.1879 = f32[1,14,14,256]{3,2,1,0} maximum(add.1875, broadcast.1878)
  constant.181 = f32[1,1,256,1024]{3,2,1,0} constant({...})
  convolution.1880 = f32[1,14,14,1024]{3,2,1,0} convolution(maximum.1879, constant.181), window={size=1x1}, dim_labels=b01f_01io->b01f
  constant.182 = f32[1,1,1,1024]{3,2,1,0} constant({...})
  reshape.1881 = f32[1,1024]{1,0} reshape(constant.182)
  broadcast.1882 = f32[1,14,14,1024]{3,2,1,0} broadcast(reshape.1881), dimensions={0,3}
  add.1883 = f32[1,14,14,1024]{3,2,1,0} add(convolution.1880, broadcast.1882)
  constant.1884 = f32[] constant(0)
  reduce.1890 = f32[1024]{0} reduce(add.1883, constant.1884), dimensions={0,1,2}, to_apply=primitive_computation_add__60.1885
  broadcast.1891 = f32[1,1,1,1024]{3,2,1,0} broadcast(reduce.1890), dimensions={3}
  constant.1892 = f32[] constant(196)
  broadcast.1893 = f32[1,1,1,1024]{3,2,1,0} broadcast(constant.1892), dimensions={}
  divide.1894 = f32[1,1,1,1024]{3,2,1,0} divide(broadcast.1891, broadcast.1893)
  reshape.1909 = f32[1,1024]{1,0} reshape(divide.1894)
  broadcast.1910 = f32[1,14,14,1024]{3,2,1,0} broadcast(reshape.1909), dimensions={0,3}
  subtract.1911 = f32[1,14,14,1024]{3,2,1,0} subtract(add.1883, broadcast.1910)
  multiply.1895 = f32[1,14,14,1024]{3,2,1,0} multiply(add.1883, add.1883)
  constant.1896 = f32[] constant(0)
  reduce.1902 = f32[1024]{0} reduce(multiply.1895, constant.1896), dimensions={0,1,2}, to_apply=primitive_computation_add__61.1897
  broadcast.1903 = f32[1,1,1,1024]{3,2,1,0} broadcast(reduce.1902), dimensions={3}
  constant.1904 = f32[] constant(196)
  broadcast.1905 = f32[1,1,1,1024]{3,2,1,0} broadcast(constant.1904), dimensions={}
  divide.1906 = f32[1,1,1,1024]{3,2,1,0} divide(broadcast.1903, broadcast.1905)
  multiply.1907 = f32[1,1,1,1024]{3,2,1,0} multiply(divide.1894, divide.1894)
  subtract.1908 = f32[1,1,1,1024]{3,2,1,0} subtract(divide.1906, multiply.1907)
  constant.1912 = f32[] constant(1e-05)
  broadcast.1913 = f32[1,1,1,1024]{3,2,1,0} broadcast(constant.1912), dimensions={}
  add.1914 = f32[1,1,1,1024]{3,2,1,0} add(subtract.1908, broadcast.1913)
  rsqrt.1915 = f32[1,1,1,1024]{3,2,1,0} rsqrt(add.1914)
  reshape.1916 = f32[1,1024]{1,0} reshape(rsqrt.1915)
  broadcast.1917 = f32[1,14,14,1024]{3,2,1,0} broadcast(reshape.1916), dimensions={0,3}
  multiply.1918 = f32[1,14,14,1024]{3,2,1,0} multiply(subtract.1911, broadcast.1917)
  multiply.1922 = f32[1,14,14,1024]{3,2,1,0} multiply(broadcast.1921, multiply.1918)
  constant.185 = f32[] constant(0)
  broadcast.186 = f32[1024]{0} broadcast(constant.185), dimensions={}
  broadcast.1923 = f32[1,1,1,1024]{3,2,1,0} broadcast(broadcast.186), dimensions={3}
  reshape.1924 = f32[1,1024]{1,0} reshape(broadcast.1923)
  broadcast.1925 = f32[1,14,14,1024]{3,2,1,0} broadcast(reshape.1924), dimensions={0,3}
  add.1926 = f32[1,14,14,1024]{3,2,1,0} add(multiply.1922, broadcast.1925)
  constant.1927 = f32[] constant(0)
  broadcast.1928 = f32[1,14,14,1024]{3,2,1,0} broadcast(constant.1927), dimensions={}
  add.1929 = f32[1,14,14,1024]{3,2,1,0} add(add.1926, broadcast.1928)
  add.1930 = f32[1,14,14,1024]{3,2,1,0} add(add.1929, maximum.1777)
  constant.1932 = f32[] constant(0)
  broadcast.1933 = f32[1,14,14,1024]{3,2,1,0} broadcast(constant.1932), dimensions={}
  maximum.1934 = f32[1,14,14,1024]{3,2,1,0} maximum(add.1930, broadcast.1933)
  constant.187 = f32[1,1,1024,256]{3,2,1,0} constant({...})
  convolution.1935 = f32[1,14,14,256]{3,2,1,0} convolution(maximum.1934, constant.187), window={size=1x1}, dim_labels=b01f_01io->b01f
  constant.188 = f32[1,1,1,256]{3,2,1,0} constant({...})
  reshape.1936 = f32[1,256]{1,0} reshape(constant.188)
  broadcast.1937 = f32[1,14,14,256]{3,2,1,0} broadcast(reshape.1936), dimensions={0,3}
  add.1938 = f32[1,14,14,256]{3,2,1,0} add(convolution.1935, broadcast.1937)
  constant.1939 = f32[] constant(0)
  reduce.1945 = f32[256]{0} reduce(add.1938, constant.1939), dimensions={0,1,2}, to_apply=primitive_computation_add__62.1940
  broadcast.1946 = f32[1,1,1,256]{3,2,1,0} broadcast(reduce.1945), dimensions={3}
  constant.1947 = f32[] constant(196)
  broadcast.1948 = f32[1,1,1,256]{3,2,1,0} broadcast(constant.1947), dimensions={}
  divide.1949 = f32[1,1,1,256]{3,2,1,0} divide(broadcast.1946, broadcast.1948)
  reshape.1964 = f32[1,256]{1,0} reshape(divide.1949)
  broadcast.1965 = f32[1,14,14,256]{3,2,1,0} broadcast(reshape.1964), dimensions={0,3}
  subtract.1966 = f32[1,14,14,256]{3,2,1,0} subtract(add.1938, broadcast.1965)
  multiply.1950 = f32[1,14,14,256]{3,2,1,0} multiply(add.1938, add.1938)
  constant.1951 = f32[] constant(0)
  reduce.1957 = f32[256]{0} reduce(multiply.1950, constant.1951), dimensions={0,1,2}, to_apply=primitive_computation_add__63.1952
  broadcast.1958 = f32[1,1,1,256]{3,2,1,0} broadcast(reduce.1957), dimensions={3}
  constant.1959 = f32[] constant(196)
  broadcast.1960 = f32[1,1,1,256]{3,2,1,0} broadcast(constant.1959), dimensions={}
  divide.1961 = f32[1,1,1,256]{3,2,1,0} divide(broadcast.1958, broadcast.1960)
  multiply.1962 = f32[1,1,1,256]{3,2,1,0} multiply(divide.1949, divide.1949)
  subtract.1963 = f32[1,1,1,256]{3,2,1,0} subtract(divide.1961, multiply.1962)
  constant.1967 = f32[] constant(1e-05)
  broadcast.1968 = f32[1,1,1,256]{3,2,1,0} broadcast(constant.1967), dimensions={}
  add.1969 = f32[1,1,1,256]{3,2,1,0} add(subtract.1963, broadcast.1968)
  rsqrt.1970 = f32[1,1,1,256]{3,2,1,0} rsqrt(add.1969)
  reshape.1971 = f32[1,256]{1,0} reshape(rsqrt.1970)
  broadcast.1972 = f32[1,14,14,256]{3,2,1,0} broadcast(reshape.1971), dimensions={0,3}
  multiply.1973 = f32[1,14,14,256]{3,2,1,0} multiply(subtract.1966, broadcast.1972)
  multiply.1977 = f32[1,14,14,256]{3,2,1,0} multiply(broadcast.1976, multiply.1973)
  constant.191 = f32[] constant(0)
  broadcast.192 = f32[256]{0} broadcast(constant.191), dimensions={}
  broadcast.1978 = f32[1,1,1,256]{3,2,1,0} broadcast(broadcast.192), dimensions={3}
  reshape.1979 = f32[1,256]{1,0} reshape(broadcast.1978)
  broadcast.1980 = f32[1,14,14,256]{3,2,1,0} broadcast(reshape.1979), dimensions={0,3}
  add.1981 = f32[1,14,14,256]{3,2,1,0} add(multiply.1977, broadcast.1980)
  constant.1983 = f32[] constant(0)
  broadcast.1984 = f32[1,14,14,256]{3,2,1,0} broadcast(constant.1983), dimensions={}
  maximum.1985 = f32[1,14,14,256]{3,2,1,0} maximum(add.1981, broadcast.1984)
  constant.193 = f32[3,3,256,256]{3,2,1,0} constant({...})
  convolution.1986 = f32[1,14,14,256]{3,2,1,0} convolution(maximum.1985, constant.193), window={size=3x3 pad=1_1x1_1}, dim_labels=b01f_01io->b01f
  constant.194 = f32[1,1,1,256]{3,2,1,0} constant({...})
  reshape.1987 = f32[1,256]{1,0} reshape(constant.194)
  broadcast.1988 = f32[1,14,14,256]{3,2,1,0} broadcast(reshape.1987), dimensions={0,3}
  add.1989 = f32[1,14,14,256]{3,2,1,0} add(convolution.1986, broadcast.1988)
  constant.1990 = f32[] constant(0)
  reduce.1996 = f32[256]{0} reduce(add.1989, constant.1990), dimensions={0,1,2}, to_apply=primitive_computation_add__64.1991
  broadcast.1997 = f32[1,1,1,256]{3,2,1,0} broadcast(reduce.1996), dimensions={3}
  constant.1998 = f32[] constant(196)
  broadcast.1999 = f32[1,1,1,256]{3,2,1,0} broadcast(constant.1998), dimensions={}
  divide.2000 = f32[1,1,1,256]{3,2,1,0} divide(broadcast.1997, broadcast.1999)
  reshape.2015 = f32[1,256]{1,0} reshape(divide.2000)
  broadcast.2016 = f32[1,14,14,256]{3,2,1,0} broadcast(reshape.2015), dimensions={0,3}
  subtract.2017 = f32[1,14,14,256]{3,2,1,0} subtract(add.1989, broadcast.2016)
  multiply.2001 = f32[1,14,14,256]{3,2,1,0} multiply(add.1989, add.1989)
  constant.2002 = f32[] constant(0)
  reduce.2008 = f32[256]{0} reduce(multiply.2001, constant.2002), dimensions={0,1,2}, to_apply=primitive_computation_add__65.2003
  broadcast.2009 = f32[1,1,1,256]{3,2,1,0} broadcast(reduce.2008), dimensions={3}
  constant.2010 = f32[] constant(196)
  broadcast.2011 = f32[1,1,1,256]{3,2,1,0} broadcast(constant.2010), dimensions={}
  divide.2012 = f32[1,1,1,256]{3,2,1,0} divide(broadcast.2009, broadcast.2011)
  multiply.2013 = f32[1,1,1,256]{3,2,1,0} multiply(divide.2000, divide.2000)
  subtract.2014 = f32[1,1,1,256]{3,2,1,0} subtract(divide.2012, multiply.2013)
  constant.2018 = f32[] constant(1e-05)
  broadcast.2019 = f32[1,1,1,256]{3,2,1,0} broadcast(constant.2018), dimensions={}
  add.2020 = f32[1,1,1,256]{3,2,1,0} add(subtract.2014, broadcast.2019)
  rsqrt.2021 = f32[1,1,1,256]{3,2,1,0} rsqrt(add.2020)
  reshape.2022 = f32[1,256]{1,0} reshape(rsqrt.2021)
  broadcast.2023 = f32[1,14,14,256]{3,2,1,0} broadcast(reshape.2022), dimensions={0,3}
  multiply.2024 = f32[1,14,14,256]{3,2,1,0} multiply(subtract.2017, broadcast.2023)
  multiply.2028 = f32[1,14,14,256]{3,2,1,0} multiply(broadcast.2027, multiply.2024)
  constant.197 = f32[] constant(0)
  broadcast.198 = f32[256]{0} broadcast(constant.197), dimensions={}
  broadcast.2029 = f32[1,1,1,256]{3,2,1,0} broadcast(broadcast.198), dimensions={3}
  reshape.2030 = f32[1,256]{1,0} reshape(broadcast.2029)
  broadcast.2031 = f32[1,14,14,256]{3,2,1,0} broadcast(reshape.2030), dimensions={0,3}
  add.2032 = f32[1,14,14,256]{3,2,1,0} add(multiply.2028, broadcast.2031)
  constant.2034 = f32[] constant(0)
  broadcast.2035 = f32[1,14,14,256]{3,2,1,0} broadcast(constant.2034), dimensions={}
  maximum.2036 = f32[1,14,14,256]{3,2,1,0} maximum(add.2032, broadcast.2035)
  constant.199 = f32[1,1,256,1024]{3,2,1,0} constant({...})
  convolution.2037 = f32[1,14,14,1024]{3,2,1,0} convolution(maximum.2036, constant.199), window={size=1x1}, dim_labels=b01f_01io->b01f
  constant.200 = f32[1,1,1,1024]{3,2,1,0} constant({...})
  reshape.2038 = f32[1,1024]{1,0} reshape(constant.200)
  broadcast.2039 = f32[1,14,14,1024]{3,2,1,0} broadcast(reshape.2038), dimensions={0,3}
  add.2040 = f32[1,14,14,1024]{3,2,1,0} add(convolution.2037, broadcast.2039)
  constant.2041 = f32[] constant(0)
  reduce.2047 = f32[1024]{0} reduce(add.2040, constant.2041), dimensions={0,1,2}, to_apply=primitive_computation_add__66.2042
  broadcast.2048 = f32[1,1,1,1024]{3,2,1,0} broadcast(reduce.2047), dimensions={3}
  constant.2049 = f32[] constant(196)
  broadcast.2050 = f32[1,1,1,1024]{3,2,1,0} broadcast(constant.2049), dimensions={}
  divide.2051 = f32[1,1,1,1024]{3,2,1,0} divide(broadcast.2048, broadcast.2050)
  reshape.2066 = f32[1,1024]{1,0} reshape(divide.2051)
  broadcast.2067 = f32[1,14,14,1024]{3,2,1,0} broadcast(reshape.2066), dimensions={0,3}
  subtract.2068 = f32[1,14,14,1024]{3,2,1,0} subtract(add.2040, broadcast.2067)
  multiply.2052 = f32[1,14,14,1024]{3,2,1,0} multiply(add.2040, add.2040)
  constant.2053 = f32[] constant(0)
  reduce.2059 = f32[1024]{0} reduce(multiply.2052, constant.2053), dimensions={0,1,2}, to_apply=primitive_computation_add__67.2054
  broadcast.2060 = f32[1,1,1,1024]{3,2,1,0} broadcast(reduce.2059), dimensions={3}
  constant.2061 = f32[] constant(196)
  broadcast.2062 = f32[1,1,1,1024]{3,2,1,0} broadcast(constant.2061), dimensions={}
  divide.2063 = f32[1,1,1,1024]{3,2,1,0} divide(broadcast.2060, broadcast.2062)
  multiply.2064 = f32[1,1,1,1024]{3,2,1,0} multiply(divide.2051, divide.2051)
  subtract.2065 = f32[1,1,1,1024]{3,2,1,0} subtract(divide.2063, multiply.2064)
  constant.2069 = f32[] constant(1e-05)
  broadcast.2070 = f32[1,1,1,1024]{3,2,1,0} broadcast(constant.2069), dimensions={}
  add.2071 = f32[1,1,1,1024]{3,2,1,0} add(subtract.2065, broadcast.2070)
  rsqrt.2072 = f32[1,1,1,1024]{3,2,1,0} rsqrt(add.2071)
  reshape.2073 = f32[1,1024]{1,0} reshape(rsqrt.2072)
  broadcast.2074 = f32[1,14,14,1024]{3,2,1,0} broadcast(reshape.2073), dimensions={0,3}
  multiply.2075 = f32[1,14,14,1024]{3,2,1,0} multiply(subtract.2068, broadcast.2074)
  multiply.2079 = f32[1,14,14,1024]{3,2,1,0} multiply(broadcast.2078, multiply.2075)
  constant.203 = f32[] constant(0)
  broadcast.204 = f32[1024]{0} broadcast(constant.203), dimensions={}
  broadcast.2080 = f32[1,1,1,1024]{3,2,1,0} broadcast(broadcast.204), dimensions={3}
  reshape.2081 = f32[1,1024]{1,0} reshape(broadcast.2080)
  broadcast.2082 = f32[1,14,14,1024]{3,2,1,0} broadcast(reshape.2081), dimensions={0,3}
  add.2083 = f32[1,14,14,1024]{3,2,1,0} add(multiply.2079, broadcast.2082)
  constant.2084 = f32[] constant(0)
  broadcast.2085 = f32[1,14,14,1024]{3,2,1,0} broadcast(constant.2084), dimensions={}
  add.2086 = f32[1,14,14,1024]{3,2,1,0} add(add.2083, broadcast.2085)
  add.2087 = f32[1,14,14,1024]{3,2,1,0} add(add.2086, maximum.1934)
  constant.2089 = f32[] constant(0)
  broadcast.2090 = f32[1,14,14,1024]{3,2,1,0} broadcast(constant.2089), dimensions={}
  maximum.2091 = f32[1,14,14,1024]{3,2,1,0} maximum(add.2087, broadcast.2090)
  constant.205 = f32[1,1,1024,256]{3,2,1,0} constant({...})
  convolution.2092 = f32[1,14,14,256]{3,2,1,0} convolution(maximum.2091, constant.205), window={size=1x1}, dim_labels=b01f_01io->b01f
  constant.206 = f32[1,1,1,256]{3,2,1,0} constant({...})
  reshape.2093 = f32[1,256]{1,0} reshape(constant.206)
  broadcast.2094 = f32[1,14,14,256]{3,2,1,0} broadcast(reshape.2093), dimensions={0,3}
  add.2095 = f32[1,14,14,256]{3,2,1,0} add(convolution.2092, broadcast.2094)
  constant.2096 = f32[] constant(0)
  reduce.2102 = f32[256]{0} reduce(add.2095, constant.2096), dimensions={0,1,2}, to_apply=primitive_computation_add__68.2097
  broadcast.2103 = f32[1,1,1,256]{3,2,1,0} broadcast(reduce.2102), dimensions={3}
  constant.2104 = f32[] constant(196)
  broadcast.2105 = f32[1,1,1,256]{3,2,1,0} broadcast(constant.2104), dimensions={}
  divide.2106 = f32[1,1,1,256]{3,2,1,0} divide(broadcast.2103, broadcast.2105)
  reshape.2121 = f32[1,256]{1,0} reshape(divide.2106)
  broadcast.2122 = f32[1,14,14,256]{3,2,1,0} broadcast(reshape.2121), dimensions={0,3}
  subtract.2123 = f32[1,14,14,256]{3,2,1,0} subtract(add.2095, broadcast.2122)
  multiply.2107 = f32[1,14,14,256]{3,2,1,0} multiply(add.2095, add.2095)
  constant.2108 = f32[] constant(0)
  reduce.2114 = f32[256]{0} reduce(multiply.2107, constant.2108), dimensions={0,1,2}, to_apply=primitive_computation_add__69.2109
  broadcast.2115 = f32[1,1,1,256]{3,2,1,0} broadcast(reduce.2114), dimensions={3}
  constant.2116 = f32[] constant(196)
  broadcast.2117 = f32[1,1,1,256]{3,2,1,0} broadcast(constant.2116), dimensions={}
  divide.2118 = f32[1,1,1,256]{3,2,1,0} divide(broadcast.2115, broadcast.2117)
  multiply.2119 = f32[1,1,1,256]{3,2,1,0} multiply(divide.2106, divide.2106)
  subtract.2120 = f32[1,1,1,256]{3,2,1,0} subtract(divide.2118, multiply.2119)
  constant.2124 = f32[] constant(1e-05)
  broadcast.2125 = f32[1,1,1,256]{3,2,1,0} broadcast(constant.2124), dimensions={}
  add.2126 = f32[1,1,1,256]{3,2,1,0} add(subtract.2120, broadcast.2125)
  rsqrt.2127 = f32[1,1,1,256]{3,2,1,0} rsqrt(add.2126)
  reshape.2128 = f32[1,256]{1,0} reshape(rsqrt.2127)
  broadcast.2129 = f32[1,14,14,256]{3,2,1,0} broadcast(reshape.2128), dimensions={0,3}
  multiply.2130 = f32[1,14,14,256]{3,2,1,0} multiply(subtract.2123, broadcast.2129)
  multiply.2134 = f32[1,14,14,256]{3,2,1,0} multiply(broadcast.2133, multiply.2130)
  constant.209 = f32[] constant(0)
  broadcast.210 = f32[256]{0} broadcast(constant.209), dimensions={}
  broadcast.2135 = f32[1,1,1,256]{3,2,1,0} broadcast(broadcast.210), dimensions={3}
  reshape.2136 = f32[1,256]{1,0} reshape(broadcast.2135)
  broadcast.2137 = f32[1,14,14,256]{3,2,1,0} broadcast(reshape.2136), dimensions={0,3}
  add.2138 = f32[1,14,14,256]{3,2,1,0} add(multiply.2134, broadcast.2137)
  constant.2140 = f32[] constant(0)
  broadcast.2141 = f32[1,14,14,256]{3,2,1,0} broadcast(constant.2140), dimensions={}
  maximum.2142 = f32[1,14,14,256]{3,2,1,0} maximum(add.2138, broadcast.2141)
  constant.211 = f32[3,3,256,256]{3,2,1,0} constant({...})
  convolution.2143 = f32[1,14,14,256]{3,2,1,0} convolution(maximum.2142, constant.211), window={size=3x3 pad=1_1x1_1}, dim_labels=b01f_01io->b01f
  constant.212 = f32[1,1,1,256]{3,2,1,0} constant({...})
  reshape.2144 = f32[1,256]{1,0} reshape(constant.212)
  broadcast.2145 = f32[1,14,14,256]{3,2,1,0} broadcast(reshape.2144), dimensions={0,3}
  add.2146 = f32[1,14,14,256]{3,2,1,0} add(convolution.2143, broadcast.2145)
  constant.2147 = f32[] constant(0)
  reduce.2153 = f32[256]{0} reduce(add.2146, constant.2147), dimensions={0,1,2}, to_apply=primitive_computation_add__70.2148
  broadcast.2154 = f32[1,1,1,256]{3,2,1,0} broadcast(reduce.2153), dimensions={3}
  constant.2155 = f32[] constant(196)
  broadcast.2156 = f32[1,1,1,256]{3,2,1,0} broadcast(constant.2155), dimensions={}
  divide.2157 = f32[1,1,1,256]{3,2,1,0} divide(broadcast.2154, broadcast.2156)
  reshape.2172 = f32[1,256]{1,0} reshape(divide.2157)
  broadcast.2173 = f32[1,14,14,256]{3,2,1,0} broadcast(reshape.2172), dimensions={0,3}
  subtract.2174 = f32[1,14,14,256]{3,2,1,0} subtract(add.2146, broadcast.2173)
  multiply.2158 = f32[1,14,14,256]{3,2,1,0} multiply(add.2146, add.2146)
  constant.2159 = f32[] constant(0)
  reduce.2165 = f32[256]{0} reduce(multiply.2158, constant.2159), dimensions={0,1,2}, to_apply=primitive_computation_add__71.2160
  broadcast.2166 = f32[1,1,1,256]{3,2,1,0} broadcast(reduce.2165), dimensions={3}
  constant.2167 = f32[] constant(196)
  broadcast.2168 = f32[1,1,1,256]{3,2,1,0} broadcast(constant.2167), dimensions={}
  divide.2169 = f32[1,1,1,256]{3,2,1,0} divide(broadcast.2166, broadcast.2168)
…
  reduce.2271 = f32[256]{0} reduce(multiply.2264, constant.2265), dimensions={0,1,2}, to_apply=primitive_computation_add__75.2266
  broadcast.2272 = f32[1,1,1,256]{3,2,1,0} broadcast(reduce.2271), dimensions={3}
  constant.2273 = f32[] constant(196)
  broadcast.2274 = f32[1,1,1,256]{3,2,1,0} broadcast(constant.2273), dimensions={}
  divide.2275 = f32[1,1,1,256]{3,2,1,0} divide(broadcast.2272, broadcast.2274)
  multiply.2276 = f32[1,1,1,256]{3,2,1,0} multiply(divide.2263, divide.2263)
  subtract.2277 = f32[1,1,1,256]{3,2,1,0} subtract(divide.2275, multiply.2276)
  constant.2281 = f32[] constant(1e-05)
  broadcast.2282 = f32[1,1,1,256]{3,2,1,0} broadcast(constant.2281), dimensions={}
  add.2283 = f32[1,1,1,256]{3,2,1,0} add(subtract.2277, broadcast.2282)
  rsqrt.2284 = f32[1,1,1,256]{3,2,1,0} rsqrt(add.2283)
  reshape.2285 = f32[1,256]{1,0} reshape(rsqrt.2284)
  broadcast.2286 = f32[1,14,14,256]{3,2,1,0} broadcast(reshape.2285), dimensions={0,3}
  multiply.2287 = f32[1,14,14,256]{3,2,1,0} multiply(subtract.2280, broadcast.2286)
  multiply.2291 = f32[1,14,14,256]{3,2,1,0} multiply(broadcast.2290, multiply.2287)
  constant.227 = f32[] constant(0)
  broadcast.228 = f32[256]{0} broadcast(constant.227), dimensions={}
  broadcast.2292 = f32[1,1,1,256]{3,2,1,0} broadcast(broadcast.228), dimensions={3}
  reshape.2293 = f32[1,256]{1,0} reshape(broadcast.2292)
  broadcast.2294 = f32[1,14,14,256]{3,2,1,0} broadcast(reshape.2293), dimensions={0,3}
  add.2295 = f32[1,14,14,256]{3,2,1,0} add(multiply.2291, broadcast.2294)
  constant.2297 = f32[] constant(0)
  broadcast.2298 = f32[1,14,14,256]{3,2,1,0} broadcast(constant.2297), dimensions={}
  maximum.2299 = f32[1,14,14,256]{3,2,1,0} maximum(add.2295, broadcast.2298)
  constant.229 = f32[3,3,256,256]{3,2,1,0} constant({...})
  convolution.2300 = f32[1,14,14,256]{3,2,1,0} convolution(maximum.2299, constant.229), window={size=3x3 pad=1_1x1_1}, dim_labels=b01f_01io->b01f
  constant.230 = f32[1,1,1,256]{3,2,1,0} constant({...})
  reshape.2301 = f32[1,256]{1,0} reshape(constant.230)
  broadcast.2302 = f32[1,14,14,256]{3,2,1,0} broadcast(reshape.2301), dimensions={0,3}
  add.2303 = f32[1,14,14,256]{3,2,1,0} add(convolution.2300, broadcast.2302)
  constant.2304 = f32[] constant(0)
  reduce.2310 = f32[256]{0} reduce(add.2303, constant.2304), dimensions={0,1,2}, to_apply=primitive_computation_add__76.2305
  broadcast.2311 = f32[1,1,1,256]{3,2,1,0} broadcast(reduce.2310), dimensions={3}
  constant.2312 = f32[] constant(196)
  broadcast.2313 = f32[1,1,1,256]{3,2,1,0} broadcast(constant.2312), dimensions={}
  divide.2314 = f32[1,1,1,256]{3,2,1,0} divide(broadcast.2311, broadcast.2313)
  reshape.2329 = f32[1,256]{1,0} reshape(divide.2314)
  broadcast.2330 = f32[1,14,14,256]{3,2,1,0} broadcast(reshape.2329), dimensions={0,3}
  subtract.2331 = f32[1,14,14,256]{3,2,1,0} subtract(add.2303, broadcast.2330)
  multiply.2315 = f32[1,14,14,256]{3,2,1,0} multiply(add.2303, add.2303)
  constant.2316 = f32[] constant(0)
  reduce.2322 = f32[256]{0} reduce(multiply.2315, constant.2316), dimensions={0,1,2}, to_apply=primitive_computation_add__77.2317
  broadcast.2323 = f32[1,1,1,256]{3,2,1,0} broadcast(reduce.2322), dimensions={3}
  constant.2324 = f32[] constant(196)
  broadcast.2325 = f32[1,1,1,256]{3,2,1,0} broadcast(constant.2324), dimensions={}
  divide.2326 = f32[1,1,1,256]{3,2,1,0} divide(broadcast.2323, broadcast.2325)
  multiply.2327 = f32[1,1,1,256]{3,2,1,0} multiply(divide.2314, divide.2314)
  subtract.2328 = f32[1,1,1,256]{3,2,1,0} subtract(divide.2326, multiply.2327)
  constant.2332 = f32[] constant(1e-05)
  broadcast.2333 = f32[1,1,1,256]{3,2,1,0} broadcast(constant.2332), dimensions={}
  add.2334 = f32[1,1,1,256]{3,2,1,0} add(subtract.2328, broadcast.2333)
  rsqrt.2335 = f32[1,1,1,256]{3,2,1,0} rsqrt(add.2334)
  reshape.2336 = f32[1,256]{1,0} reshape(rsqrt.2335)
  broadcast.2337 = f32[1,14,14,256]{3,2,1,0} broadcast(reshape.2336), dimensions={0,3}
  multiply.2338 = f32[1,14,14,256]{3,2,1,0} multiply(subtract.2331, broadcast.2337)
  multiply.2342 = f32[1,14,14,256]{3,2,1,0} multiply(broadcast.2341, multiply.2338)
  constant.233 = f32[] constant(0)
  broadcast.234 = f32[256]{0} broadcast(constant.233), dimensions={}
  broadcast.2343 = f32[1,1,1,256]{3,2,1,0} broadcast(broadcast.234), dimensions={3}
  reshape.2344 = f32[1,256]{1,0} reshape(broadcast.2343)
  broadcast.2345 = f32[1,14,14,256]{3,2,1,0} broadcast(reshape.2344), dimensions={0,3}
  add.2346 = f32[1,14,14,256]{3,2,1,0} add(multiply.2342, broadcast.2345)
  constant.2348 = f32[] constant(0)
  broadcast.2349 = f32[1,14,14,256]{3,2,1,0} broadcast(constant.2348), dimensions={}
  maximum.2350 = f32[1,14,14,256]{3,2,1,0} maximum(add.2346, broadcast.2349)
  constant.235 = f32[1,1,256,1024]{3,2,1,0} constant({...})
  convolution.2351 = f32[1,14,14,1024]{3,2,1,0} convolution(maximum.2350, constant.235), window={size=1x1}, dim_labels=b01f_01io->b01f
  constant.236 = f32[1,1,1,1024]{3,2,1,0} constant({...})
  reshape.2352 = f32[1,1024]{1,0} reshape(constant.236)
  broadcast.2353 = f32[1,14,14,1024]{3,2,1,0} broadcast(reshape.2352), dimensions={0,3}
  add.2354 = f32[1,14,14,1024]{3,2,1,0} add(convolution.2351, broadcast.2353)
  constant.2355 = f32[] constant(0)
  reduce.2361 = f32[1024]{0} reduce(add.2354, constant.2355), dimensions={0,1,2}, to_apply=primitive_computation_add__78.2356
  broadcast.2362 = f32[1,1,1,1024]{3,2,1,0} broadcast(reduce.2361), dimensions={3}
  constant.2363 = f32[] constant(196)
  broadcast.2364 = f32[1,1,1,1024]{3,2,1,0} broadcast(constant.2363), dimensions={}
  divide.2365 = f32[1,1,1,1024]{3,2,1,0} divide(broadcast.2362, broadcast.2364)
  reshape.2380 = f32[1,1024]{1,0} reshape(divide.2365)
  broadcast.2381 = f32[1,14,14,1024]{3,2,1,0} broadcast(reshape.2380), dimensions={0,3}
  subtract.2382 = f32[1,14,14,1024]{3,2,1,0} subtract(add.2354, broadcast.2381)
  multiply.2366 = f32[1,14,14,1024]{3,2,1,0} multiply(add.2354, add.2354)
  constant.2367 = f32[] constant(0)
  reduce.2373 = f32[1024]{0} reduce(multiply.2366, constant.2367), dimensions={0,1,2}, to_apply=primitive_computation_add__79.2368
  broadcast.2374 = f32[1,1,1,1024]{3,2,1,0} broadcast(reduce.2373), dimensions={3}
  constant.2375 = f32[] constant(196)
  broadcast.2376 = f32[1,1,1,1024]{3,2,1,0} broadcast(constant.2375), dimensions={}
  divide.2377 = f32[1,1,1,1024]{3,2,1,0} divide(broadcast.2374, broadcast.2376)
  multiply.2378 = f32[1,1,1,1024]{3,2,1,0} multiply(divide.2365, divide.2365)
  subtract.2379 = f32[1,1,1,1024]{3,2,1,0} subtract(divide.2377, multiply.2378)
  constant.2383 = f32[] constant(1e-05)
  broadcast.2384 = f32[1,1,1,1024]{3,2,1,0} broadcast(constant.2383), dimensions={}
  add.2385 = f32[1,1,1,1024]{3,2,1,0} add(subtract.2379, broadcast.2384)
  rsqrt.2386 = f32[1,1,1,1024]{3,2,1,0} rsqrt(add.2385)
  reshape.2387 = f32[1,1024]{1,0} reshape(rsqrt.2386)
  broadcast.2388 = f32[1,14,14,1024]{3,2,1,0} broadcast(reshape.2387), dimensions={0,3}
  multiply.2389 = f32[1,14,14,1024]{3,2,1,0} multiply(subtract.2382, broadcast.2388)
  multiply.2393 = f32[1,14,14,1024]{3,2,1,0} multiply(broadcast.2392, multiply.2389)
  constant.239 = f32[] constant(0)
  broadcast.240 = f32[1024]{0} broadcast(constant.239), dimensions={}
  broadcast.2394 = f32[1,1,1,1024]{3,2,1,0} broadcast(broadcast.240), dimensions={3}
  reshape.2395 = f32[1,1024]{1,0} reshape(broadcast.2394)
  broadcast.2396 = f32[1,14,14,1024]{3,2,1,0} broadcast(reshape.2395), dimensions={0,3}
  add.2397 = f32[1,14,14,1024]{3,2,1,0} add(multiply.2393, broadcast.2396)
  constant.2398 = f32[] constant(0)
  broadcast.2399 = f32[1,14,14,1024]{3,2,1,0} broadcast(constant.2398), dimensions={}
  add.2400 = f32[1,14,14,1024]{3,2,1,0} add(add.2397, broadcast.2399)
  add.2401 = f32[1,14,14,1024]{3,2,1,0} add(add.2400, maximum.2248)
  constant.2403 = f32[] constant(0)
  broadcast.2404 = f32[1,14,14,1024]{3,2,1,0} broadcast(constant.2403), dimensions={}
  maximum.2405 = f32[1,14,14,1024]{3,2,1,0} maximum(add.2401, broadcast.2404)
  constant.241 = f32[1,1,1024,256]{3,2,1,0} constant({...})
  convolution.2406 = f32[1,14,14,256]{3,2,1,0} convolution(maximum.2405, constant.241), window={size=1x1}, dim_labels=b01f_01io->b01f
  constant.242 = f32[1,1,1,256]{3,2,1,0} constant({...})
  reshape.2407 = f32[1,256]{1,0} reshape(constant.242)
  broadcast.2408 = f32[1,14,14,256]{3,2,1,0} broadcast(reshape.2407), dimensions={0,3}
  add.2409 = f32[1,14,14,256]{3,2,1,0} add(convolution.2406, broadcast.2408)
  constant.2410 = f32[] constant(0)
  reduce.2416 = f32[256]{0} reduce(add.2409, constant.2410), dimensions={0,1,2}, to_apply=primitive_computation_add__80.2411
  broadcast.2417 = f32[1,1,1,256]{3,2,1,0} broadcast(reduce.2416), dimensions={3}
  constant.2418 = f32[] constant(196)
  broadcast.2419 = f32[1,1,1,256]{3,2,1,0} broadcast(constant.2418), dimensions={}
  divide.2420 = f32[1,1,1,256]{3,2,1,0} divide(broadcast.2417, broadcast.2419)
  reshape.2435 = f32[1,256]{1,0} reshape(divide.2420)
  broadcast.2436 = f32[1,14,14,256]{3,2,1,0} broadcast(reshape.2435), dimensions={0,3}
  subtract.2437 = f32[1,14,14,256]{3,2,1,0} subtract(add.2409, broadcast.2436)
  multiply.2421 = f32[1,14,14,256]{3,2,1,0} multiply(add.2409, add.2409)
  constant.2422 = f32[] constant(0)
  reduce.2428 = f32[256]{0} reduce(multiply.2421, constant.2422), dimensions={0,1,2}, to_apply=primitive_computation_add__81.2423
  broadcast.2429 = f32[1,1,1,256]{3,2,1,0} broadcast(reduce.2428), dimensions={3}
  constant.2430 = f32[] constant(196)
  broadcast.2431 = f32[1,1,1,256]{3,2,1,0} broadcast(constant.2430), dimensions={}
  divide.2432 = f32[1,1,1,256]{3,2,1,0} divide(broadcast.2429, broadcast.2431)
  multiply.2433 = f32[1,1,1,256]{3,2,1,0} multiply(divide.2420, divide.2420)
  subtract.2434 = f32[1,1,1,256]{3,2,1,0} subtract(divide.2432, multiply.2433)
  constant.2438 = f32[] constant(1e-05)
  broadcast.2439 = f32[1,1,1,256]{3,2,1,0} broadcast(constant.2438), dimensions={}
  add.2440 = f32[1,1,1,256]{3,2,1,0} add(subtract.2434, broadcast.2439)
  rsqrt.2441 = f32[1,1,1,256]{3,2,1,0} rsqrt(add.2440)
  reshape.2442 = f32[1,256]{1,0} reshape(rsqrt.2441)
  broadcast.2443 = f32[1,14,14,256]{3,2,1,0} broadcast(reshape.2442), dimensions={0,3}
  multiply.2444 = f32[1,14,14,256]{3,2,1,0} multiply(subtract.2437, broadcast.2443)
  multiply.2448 = f32[1,14,14,256]{3,2,1,0} multiply(broadcast.2447, multiply.2444)
  constant.245 = f32[] constant(0)
  broadcast.246 = f32[256]{0} broadcast(constant.245), dimensions={}
  broadcast.2449 = f32[1,1,1,256]{3,2,1,0} broadcast(broadcast.246), dimensions={3}
  reshape.2450 = f32[1,256]{1,0} reshape(broadcast.2449)
  broadcast.2451 = f32[1,14,14,256]{3,2,1,0} broadcast(reshape.2450), dimensions={0,3}
  add.2452 = f32[1,14,14,256]{3,2,1,0} add(multiply.2448, broadcast.2451)
  constant.2454 = f32[] constant(0)
  broadcast.2455 = f32[1,14,14,256]{3,2,1,0} broadcast(constant.2454), dimensions={}
  maximum.2456 = f32[1,14,14,256]{3,2,1,0} maximum(add.2452, broadcast.2455)
  constant.247 = f32[3,3,256,256]{3,2,1,0} constant({...})
  convolution.2457 = f32[1,14,14,256]{3,2,1,0} convolution(maximum.2456, constant.247), window={size=3x3 pad=1_1x1_1}, dim_labels=b01f_01io->b01f
  constant.248 = f32[1,1,1,256]{3,2,1,0} constant({...})
  reshape.2458 = f32[1,256]{1,0} reshape(constant.248)
  broadcast.2459 = f32[1,14,14,256]{3,2,1,0} broadcast(reshape.2458), dimensions={0,3}
  add.2460 = f32[1,14,14,256]{3,2,1,0} add(convolution.2457, broadcast.2459)
  constant.2461 = f32[] constant(0)
  reduce.2467 = f32[256]{0} reduce(add.2460, constant.2461), dimensions={0,1,2}, to_apply=primitive_computation_add__82.2462
  broadcast.2468 = f32[1,1,1,256]{3,2,1,0} broadcast(reduce.2467), dimensions={3}
  constant.2469 = f32[] constant(196)
  broadcast.2470 = f32[1,1,1,256]{3,2,1,0} broadcast(constant.2469), dimensions={}
  divide.2471 = f32[1,1,1,256]{3,2,1,0} divide(broadcast.2468, broadcast.2470)
  reshape.2486 = f32[1,256]{1,0} reshape(divide.2471)
  broadcast.2487 = f32[1,14,14,256]{3,2,1,0} broadcast(reshape.2486), dimensions={0,3}
  subtract.2488 = f32[1,14,14,256]{3,2,1,0} subtract(add.2460, broadcast.2487)
  multiply.2472 = f32[1,14,14,256]{3,2,1,0} multiply(add.2460, add.2460)
  constant.2473 = f32[] constant(0)
  reduce.2479 = f32[256]{0} reduce(multiply.2472, constant.2473), dimensions={0,1,2}, to_apply=primitive_computation_add__83.2474
  broadcast.2480 = f32[1,1,1,256]{3,2,1,0} broadcast(reduce.2479), dimensions={3}
  constant.2481 = f32[] constant(196)
  broadcast.2482 = f32[1,1,1,256]{3,2,1,0} broadcast(constant.2481), dimensions={}
  divide.2483 = f32[1,1,1,256]{3,2,1,0} divide(broadcast.2480, broadcast.2482)
  multiply.2484 = f32[1,1,1,256]{3,2,1,0} multiply(divide.2471, divide.2471)
  subtract.2485 = f32[1,1,1,256]{3,2,1,0} subtract(divide.2483, multiply.2484)
  constant.2489 = f32[] constant(1e-05)
  broadcast.2490 = f32[1,1,1,256]{3,2,1,0} broadcast(constant.2489), dimensions={}
  add.2491 = f32[1,1,1,256]{3,2,1,0} add(subtract.2485, broadcast.2490)
  rsqrt.2492 = f32[1,1,1,256]{3,2,1,0} rsqrt(add.2491)
  reshape.2493 = f32[1,256]{1,0} reshape(rsqrt.2492)
  broadcast.2494 = f32[1,14,14,256]{3,2,1,0} broadcast(reshape.2493), dimensions={0,3}
  multiply.2495 = f32[1,14,14,256]{3,2,1,0} multiply(subtract.2488, broadcast.2494)
  multiply.2499 = f32[1,14,14,256]{3,2,1,0} multiply(broadcast.2498, multiply.2495)
  constant.251 = f32[] constant(0)
  broadcast.252 = f32[256]{0} broadcast(constant.251), dimensions={}
  broadcast.2500 = f32[1,1,1,256]{3,2,1,0} broadcast(broadcast.252), dimensions={3}
  reshape.2501 = f32[1,256]{1,0} reshape(broadcast.2500)
  broadcast.2502 = f32[1,14,14,256]{3,2,1,0} broadcast(reshape.2501), dimensions={0,3}
  add.2503 = f32[1,14,14,256]{3,2,1,0} add(multiply.2499, broadcast.2502)
  constant.2505 = f32[] constant(0)
  broadcast.2506 = f32[1,14,14,256]{3,2,1,0} broadcast(constant.2505), dimensions={}
  maximum.2507 = f32[1,14,14,256]{3,2,1,0} maximum(add.2503, broadcast.2506)
  constant.253 = f32[1,1,256,1024]{3,2,1,0} constant({...})
  convolution.2508 = f32[1,14,14,1024]{3,2,1,0} convolution(maximum.2507, constant.253), window={size=1x1}, dim_labels=b01f_01io->b01f
  constant.254 = f32[1,1,1,1024]{3,2,1,0} constant({...})
  reshape.2509 = f32[1,1024]{1,0} reshape(constant.254)
  broadcast.2510 = f32[1,14,14,1024]{3,2,1,0} broadcast(reshape.2509), dimensions={0,3}
  add.2511 = f32[1,14,14,1024]{3,2,1,0} add(convolution.2508, broadcast.2510)
  constant.2512 = f32[] constant(0)
  reduce.2518 = f32[1024]{0} reduce(add.2511, constant.2512), dimensions={0,1,2}, to_apply=primitive_computation_add__84.2513
  broadcast.2519 = f32[1,1,1,1024]{3,2,1,0} broadcast(reduce.2518), dimensions={3}
  constant.2520 = f32[] constant(196)
  broadcast.2521 = f32[1,1,1,1024]{3,2,1,0} broadcast(constant.2520), dimensions={}
  divide.2522 = f32[1,1,1,1024]{3,2,1,0} divide(broadcast.2519, broadcast.2521)
  reshape.2537 = f32[1,1024]{1,0} reshape(divide.2522)
  broadcast.2538 = f32[1,14,14,1024]{3,2,1,0} broadcast(reshape.2537), dimensions={0,3}
  subtract.2539 = f32[1,14,14,1024]{3,2,1,0} subtract(add.2511, broadcast.2538)
  multiply.2523 = f32[1,14,14,1024]{3,2,1,0} multiply(add.2511, add.2511)
  constant.2524 = f32[] constant(0)
  reduce.2530 = f32[1024]{0} reduce(multiply.2523, constant.2524), dimensions={0,1,2}, to_apply=primitive_computation_add__85.2525
  broadcast.2531 = f32[1,1,1,1024]{3,2,1,0} broadcast(reduce.2530), dimensions={3}
  constant.2532 = f32[] constant(196)
  broadcast.2533 = f32[1,1,1,1024]{3,2,1,0} broadcast(constant.2532), dimensions={}
  divide.2534 = f32[1,1,1,1024]{3,2,1,0} divide(broadcast.2531, broadcast.2533)
  multiply.2535 = f32[1,1,1,1024]{3,2,1,0} multiply(divide.2522, divide.2522)
  subtract.2536 = f32[1,1,1,1024]{3,2,1,0} subtract(divide.2534, multiply.2535)
  constant.2540 = f32[] constant(1e-05)
  broadcast.2541 = f32[1,1,1,1024]{3,2,1,0} broadcast(constant.2540), dimensions={}
  add.2542 = f32[1,1,1,1024]{3,2,1,0} add(subtract.2536, broadcast.2541)
  rsqrt.2543 = f32[1,1,1,1024]{3,2,1,0} rsqrt(add.2542)
  reshape.2544 = f32[1,1024]{1,0} reshape(rsqrt.2543)
  broadcast.2545 = f32[1,14,14,1024]{3,2,1,0} broadcast(reshape.2544), dimensions={0,3}
  multiply.2546 = f32[1,14,14,1024]{3,2,1,0} multiply(subtract.2539, broadcast.2545)
  multiply.2550 = f32[1,14,14,1024]{3,2,1,0} multiply(broadcast.2549, multiply.2546)
  constant.257 = f32[] constant(0)
  broadcast.258 = f32[1024]{0} broadcast(constant.257), dimensions={}
  broadcast.2551 = f32[1,1,1,1024]{3,2,1,0} broadcast(broadcast.258), dimensions={3}
  reshape.2552 = f32[1,1024]{1,0} reshape(broadcast.2551)
  broadcast.2553 = f32[1,14,14,1024]{3,2,1,0} broadcast(reshape.2552), dimensions={0,3}
  add.2554 = f32[1,14,14,1024]{3,2,1,0} add(multiply.2550, broadcast.2553)
  constant.2555 = f32[] constant(0)
  broadcast.2556 = f32[1,14,14,1024]{3,2,1,0} broadcast(constant.2555), dimensions={}
  add.2557 = f32[1,14,14,1024]{3,2,1,0} add(add.2554, broadcast.2556)
  add.2558 = f32[1,14,14,1024]{3,2,1,0} add(add.2557, maximum.2405)
  constant.2560 = f32[] constant(0)
  broadcast.2561 = f32[1,14,14,1024]{3,2,1,0} broadcast(constant.2560), dimensions={}
  maximum.2562 = f32[1,14,14,1024]{3,2,1,0} maximum(add.2558, broadcast.2561)
  constant.259 = f32[1,1,1024,512]{3,2,1,0} constant({...})
  convolution.2563 = f32[1,7,7,512]{3,2,1,0} convolution(maximum.2562, constant.259), window={size=1x1 stride=2x2}, dim_labels=b01f_01io->b01f
  constant.260 = f32[1,1,1,512]{3,2,1,0} constant({...})
  reshape.2564 = f32[1,512]{1,0} reshape(constant.260)
  broadcast.2565 = f32[1,7,7,512]{3,2,1,0} broadcast(reshape.2564), dimensions={0,3}
  add.2566 = f32[1,7,7,512]{3,2,1,0} add(convolution.2563, broadcast.2565)
  constant.2567 = f32[] constant(0)
  reduce.2573 = f32[512]{0} reduce(add.2566, constant.2567), dimensions={0,1,2}, to_apply=primitive_computation_add__86.2568
  broadcast.2574 = f32[1,1,1,512]{3,2,1,0} broadcast(reduce.2573), dimensions={3}
  constant.2575 = f32[] constant(49)
  broadcast.2576 = f32[1,1,1,512]{3,2,1,0} broadcast(constant.2575), dimensions={}
  divide.2577 = f32[1,1,1,512]{3,2,1,0} divide(broadcast.2574, broadcast.2576)
  reshape.2592 = f32[1,512]{1,0} reshape(divide.2577)
  broadcast.2593 = f32[1,7,7,512]{3,2,1,0} broadcast(reshape.2592), dimensions={0,3}
  subtract.2594 = f32[1,7,7,512]{3,2,1,0} subtract(add.2566, broadcast.2593)
  multiply.2578 = f32[1,7,7,512]{3,2,1,0} multiply(add.2566, add.2566)
  constant.2579 = f32[] constant(0)
  reduce.2585 = f32[512]{0} reduce(multiply.2578, constant.2579), dimensions={0,1,2}, to_apply=primitive_computation_add__87.2580
  broadcast.2586 = f32[1,1,1,512]{3,2,1,0} broadcast(reduce.2585), dimensions={3}
  constant.2587 = f32[] constant(49)
  broadcast.2588 = f32[1,1,1,512]{3,2,1,0} broadcast(constant.2587), dimensions={}
  divide.2589 = f32[1,1,1,512]{3,2,1,0} divide(broadcast.2586, broadcast.2588)
  multiply.2590 = f32[1,1,1,512]{3,2,1,0} multiply(divide.2577, divide.2577)
  subtract.2591 = f32[1,1,1,512]{3,2,1,0} subtract(divide.2589, multiply.2590)
  constant.2595 = f32[] constant(1e-05)
  broadcast.2596 = f32[1,1,1,512]{3,2,1,0} broadcast(constant.2595), dimensions={}
  add.2597 = f32[1,1,1,512]{3,2,1,0} add(subtract.2591, broadcast.2596)
  rsqrt.2598 = f32[1,1,1,512]{3,2,1,0} rsqrt(add.2597)
  reshape.2599 = f32[1,512]{1,0} reshape(rsqrt.2598)
  broadcast.2600 = f32[1,7,7,512]{3,2,1,0} broadcast(reshape.2599), dimensions={0,3}
  multiply.2601 = f32[1,7,7,512]{3,2,1,0} multiply(subtract.2594, broadcast.2600)
  multiply.2605 = f32[1,7,7,512]{3,2,1,0} multiply(broadcast.2604, multiply.2601)
  constant.263 = f32[] constant(0)
  broadcast.264 = f32[512]{0} broadcast(constant.263), dimensions={}
  broadcast.2606 = f32[1,1,1,512]{3,2,1,0} broadcast(broadcast.264), dimensions={3}
  reshape.2607 = f32[1,512]{1,0} reshape(broadcast.2606)
  broadcast.2608 = f32[1,7,7,512]{3,2,1,0} broadcast(reshape.2607), dimensions={0,3}
  add.2609 = f32[1,7,7,512]{3,2,1,0} add(multiply.2605, broadcast.2608)
  constant.2611 = f32[] constant(0)
  broadcast.2612 = f32[1,7,7,512]{3,2,1,0} broadcast(constant.2611), dimensions={}
  maximum.2613 = f32[1,7,7,512]{3,2,1,0} maximum(add.2609, broadcast.2612)
  constant.265 = f32[3,3,512,512]{3,2,1,0} constant({...})
  convolution.2614 = f32[1,7,7,512]{3,2,1,0} convolution(maximum.2613, constant.265), window={size=3x3 pad=1_1x1_1}, dim_labels=b01f_01io->b01f
  constant.266 = f32[1,1,1,512]{3,2,1,0} constant({...})
  reshape.2615 = f32[1,512]{1,0} reshape(constant.266)
  broadcast.2616 = f32[1,7,7,512]{3,2,1,0} broadcast(reshape.2615), dimensions={0,3}
  add.2617 = f32[1,7,7,512]{3,2,1,0} add(convolution.2614, broadcast.2616)
  constant.2618 = f32[] constant(0)
  reduce.2624 = f32[512]{0} reduce(add.2617, constant.2618), dimensions={0,1,2}, to_apply=primitive_computation_add__88.2619
  broadcast.2625 = f32[1,1,1,512]{3,2,1,0} broadcast(reduce.2624), dimensions={3}
  constant.2626 = f32[] constant(49)
  broadcast.2627 = f32[1,1,1,512]{3,2,1,0} broadcast(constant.2626), dimensions={}
  divide.2628 = f32[1,1,1,512]{3,2,1,0} divide(broadcast.2625, broadcast.2627)
  reshape.2643 = f32[1,512]{1,0} reshape(divide.2628)
  broadcast.2644 = f32[1,7,7,512]{3,2,1,0} broadcast(reshape.2643), dimensions={0,3}
  subtract.2645 = f32[1,7,7,512]{3,2,1,0} subtract(add.2617, broadcast.2644)
  multiply.2629 = f32[1,7,7,512]{3,2,1,0} multiply(add.2617, add.2617)
  constant.2630 = f32[] constant(0)
  reduce.2636 = f32[512]{0} reduce(multiply.2629, constant.2630), dimensions={0,1,2}, to_apply=primitive_computation_add__89.2631
  broadcast.2637 = f32[1,1,1,512]{3,2,1,0} broadcast(reduce.2636), dimensions={3}
  constant.2638 = f32[] constant(49)
  broadcast.2639 = f32[1,1,1,512]{3,2,1,0} broadcast(constant.2638), dimensions={}
  divide.2640 = f32[1,1,1,512]{3,2,1,0} divide(broadcast.2637, broadcast.2639)
  multiply.2641 = f32[1,1,1,512]{3,2,1,0} multiply(divide.2628, divide.2628)
  subtract.2642 = f32[1,1,1,512]{3,2,1,0} subtract(divide.2640, multiply.2641)
  constant.2646 = f32[] constant(1e-05)
  broadcast.2647 = f32[1,1,1,512]{3,2,1,0} broadcast(constant.2646), dimensions={}
  add.2648 = f32[1,1,1,512]{3,2,1,0} add(subtract.2642, broadcast.2647)
  rsqrt.2649 = f32[1,1,1,512]{3,2,1,0} rsqrt(add.2648)
  reshape.2650 = f32[1,512]{1,0} reshape(rsqrt.2649)
  broadcast.2651 = f32[1,7,7,512]{3,2,1,0} broadcast(reshape.2650), dimensions={0,3}
  multiply.2652 = f32[1,7,7,512]{3,2,1,0} multiply(subtract.2645, broadcast.2651)
  multiply.2656 = f32[1,7,7,512]{3,2,1,0} multiply(broadcast.2655, multiply.2652)
  constant.269 = f32[] constant(0)
  broadcast.270 = f32[512]{0} broadcast(constant.269), dimensions={}
  broadcast.2657 = f32[1,1,1,512]{3,2,1,0} broadcast(broadcast.270), dimensions={3}
  reshape.2658 = f32[1,512]{1,0} reshape(broadcast.2657)
  broadcast.2659 = f32[1,7,7,512]{3,2,1,0} broadcast(reshape.2658), dimensions={0,3}
  add.2660 = f32[1,7,7,512]{3,2,1,0} add(multiply.2656, broadcast.2659)
  constant.2662 = f32[] constant(0)
  broadcast.2663 = f32[1,7,7,512]{3,2,1,0} broadcast(constant.2662), dimensions={}
  maximum.2664 = f32[1,7,7,512]{3,2,1,0} maximum(add.2660, broadcast.2663)
  constant.271 = f32[1,1,512,2048]{3,2,1,0} constant({...})
  convolution.2665 = f32[1,7,7,2048]{3,2,1,0} convolution(maximum.2664, constant.271), window={size=1x1}, dim_labels=b01f_01io->b01f
  constant.272 = f32[1,1,1,2048]{3,2,1,0} constant({...})
  reshape.2666 = f32[1,2048]{1,0} reshape(constant.272)
  broadcast.2667 = f32[1,7,7,2048]{3,2,1,0} broadcast(reshape.2666), dimensions={0,3}
  add.2668 = f32[1,7,7,2048]{3,2,1,0} add(convolution.2665, broadcast.2667)
  constant.2669 = f32[] constant(0)
  reduce.2675 = f32[2048]{0} reduce(add.2668, constant.2669), dimensions={0,1,2}, to_apply=primitive_computation_add__90.2670
  broadcast.2676 = f32[1,1,1,2048]{3,2,1,0} broadcast(reduce.2675), dimensions={3}
  constant.2677 = f32[] constant(49)
  broadcast.2678 = f32[1,1,1,2048]{3,2,1,0} broadcast(constant.2677), dimensions={}
  divide.2679 = f32[1,1,1,2048]{3,2,1,0} divide(broadcast.2676, broadcast.2678)
  reshape.2694 = f32[1,2048]{1,0} reshape(divide.2679)
  broadcast.2695 = f32[1,7,7,2048]{3,2,1,0} broadcast(reshape.2694), dimensions={0,3}
  subtract.2696 = f32[1,7,7,2048]{3,2,1,0} subtract(add.2668, broadcast.2695)
  multiply.2680 = f32[1,7,7,2048]{3,2,1,0} multiply(add.2668, add.2668)
  constant.2681 = f32[] constant(0)
  reduce.2687 = f32[2048]{0} reduce(multiply.2680, constant.2681), dimensions={0,1,2}, to_apply=primitive_computation_add__91.2682
  broadcast.2688 = f32[1,1,1,2048]{3,2,1,0} broadcast(reduce.2687), dimensions={3}
  constant.2689 = f32[] constant(49)
  broadcast.2690 = f32[1,1,1,2048]{3,2,1,0} broadcast(constant.2689), dimensions={}
  divide.2691 = f32[1,1,1,2048]{3,2,1,0} divide(broadcast.2688, broadcast.2690)
  multiply.2692 = f32[1,1,1,2048]{3,2,1,0} multiply(divide.2679, divide.2679)
  subtract.2693 = f32[1,1,1,2048]{3,2,1,0} subtract(divide.2691, multiply.2692)
  constant.2697 = f32[] constant(1e-05)
  broadcast.2698 = f32[1,1,1,2048]{3,2,1,0} broadcast(constant.2697), dimensions={}
  add.2699 = f32[1,1,1,2048]{3,2,1,0} add(subtract.2693, broadcast.2698)
  rsqrt.2700 = f32[1,1,1,2048]{3,2,1,0} rsqrt(add.2699)
  reshape.2701 = f32[1,2048]{1,0} reshape(rsqrt.2700)
  broadcast.2702 = f32[1,7,7,2048]{3,2,1,0} broadcast(reshape.2701), dimensions={0,3}
  multiply.2703 = f32[1,7,7,2048]{3,2,1,0} multiply(subtract.2696, broadcast.2702)
  multiply.2707 = f32[1,7,7,2048]{3,2,1,0} multiply(broadcast.2706, multiply.2703)
  constant.275 = f32[] constant(0)
  broadcast.276 = f32[2048]{0} broadcast(constant.275), dimensions={}
  broadcast.2708 = f32[1,1,1,2048]{3,2,1,0} broadcast(broadcast.276), dimensions={3}
  reshape.2709 = f32[1,2048]{1,0} reshape(broadcast.2708)
  broadcast.2710 = f32[1,7,7,2048]{3,2,1,0} broadcast(reshape.2709), dimensions={0,3}
  add.2711 = f32[1,7,7,2048]{3,2,1,0} add(multiply.2707, broadcast.2710)
  constant.2759 = f32[] constant(0)
  broadcast.2760 = f32[1,7,7,2048]{3,2,1,0} broadcast(constant.2759), dimensions={}
  add.2761 = f32[1,7,7,2048]{3,2,1,0} add(add.2711, broadcast.2760)
  constant.279 = f32[] constant(1)
  broadcast.280 = f32[2048]{0} broadcast(constant.279), dimensions={}
  broadcast.2751 = f32[1,1,1,2048]{3,2,1,0} broadcast(broadcast.280), dimensions={3}
  reshape.2752 = f32[1,2048]{1,0} reshape(broadcast.2751)
  broadcast.2753 = f32[1,7,7,2048]{3,2,1,0} broadcast(reshape.2752), dimensions={0,3}
  constant.277 = f32[1,1,1024,2048]{3,2,1,0} constant({...})
  convolution.2712 = f32[1,7,7,2048]{3,2,1,0} convolution(maximum.2562, constant.277), window={size=1x1 stride=2x2}, dim_labels=b01f_01io->b01f
  constant.278 = f32[1,1,1,2048]{3,2,1,0} constant({...})
  reshape.2713 = f32[1,2048]{1,0} reshape(constant.278)
  broadcast.2714 = f32[1,7,7,2048]{3,2,1,0} broadcast(reshape.2713), dimensions={0,3}
  add.2715 = f32[1,7,7,2048]{3,2,1,0} add(convolution.2712, broadcast.2714)
  constant.2716 = f32[] constant(0)
  reduce.2722 = f32[2048]{0} reduce(add.2715, constant.2716), dimensions={0,1,2}, to_apply=primitive_computation_add__92.2717
  broadcast.2723 = f32[1,1,1,2048]{3,2,1,0} broadcast(reduce.2722), dimensions={3}
  constant.2724 = f32[] constant(49)
  broadcast.2725 = f32[1,1,1,2048]{3,2,1,0} broadcast(constant.2724), dimensions={}
  divide.2726 = f32[1,1,1,2048]{3,2,1,0} divide(broadcast.2723, broadcast.2725)
  reshape.2741 = f32[1,2048]{1,0} reshape(divide.2726)
  broadcast.2742 = f32[1,7,7,2048]{3,2,1,0} broadcast(reshape.2741), dimensions={0,3}
  subtract.2743 = f32[1,7,7,2048]{3,2,1,0} subtract(add.2715, broadcast.2742)
  multiply.2727 = f32[1,7,7,2048]{3,2,1,0} multiply(add.2715, add.2715)
  constant.2728 = f32[] constant(0)
  reduce.2734 = f32[2048]{0} reduce(multiply.2727, constant.2728), dimensions={0,1,2}, to_apply=primitive_computation_add__93.2729
  broadcast.2735 = f32[1,1,1,2048]{3,2,1,0} broadcast(reduce.2734), dimensions={3}
  constant.2736 = f32[] constant(49)
  broadcast.2737 = f32[1,1,1,2048]{3,2,1,0} broadcast(constant.2736), dimensions={}
  divide.2738 = f32[1,1,1,2048]{3,2,1,0} divide(broadcast.2735, broadcast.2737)
  multiply.2739 = f32[1,1,1,2048]{3,2,1,0} multiply(divide.2726, divide.2726)
  subtract.2740 = f32[1,1,1,2048]{3,2,1,0} subtract(divide.2738, multiply.2739)
  constant.2744 = f32[] constant(1e-05)
  broadcast.2745 = f32[1,1,1,2048]{3,2,1,0} broadcast(constant.2744), dimensions={}
  add.2746 = f32[1,1,1,2048]{3,2,1,0} add(subtract.2740, broadcast.2745)
  rsqrt.2747 = f32[1,1,1,2048]{3,2,1,0} rsqrt(add.2746)
  reshape.2748 = f32[1,2048]{1,0} reshape(rsqrt.2747)
  broadcast.2749 = f32[1,7,7,2048]{3,2,1,0} broadcast(reshape.2748), dimensions={0,3}
  multiply.2750 = f32[1,7,7,2048]{3,2,1,0} multiply(subtract.2743, broadcast.2749)
  multiply.2754 = f32[1,7,7,2048]{3,2,1,0} multiply(broadcast.2753, multiply.2750)
  constant.281 = f32[] constant(0)
  broadcast.282 = f32[2048]{0} broadcast(constant.281), dimensions={}
  broadcast.2755 = f32[1,1,1,2048]{3,2,1,0} broadcast(broadcast.282), dimensions={3}
  reshape.2756 = f32[1,2048]{1,0} reshape(broadcast.2755)
  broadcast.2757 = f32[1,7,7,2048]{3,2,1,0} broadcast(reshape.2756), dimensions={0,3}
  add.2758 = f32[1,7,7,2048]{3,2,1,0} add(multiply.2754, broadcast.2757)
  add.2762 = f32[1,7,7,2048]{3,2,1,0} add(add.2761, add.2758)
  constant.2764 = f32[] constant(0)
  broadcast.2765 = f32[1,7,7,2048]{3,2,1,0} broadcast(constant.2764), dimensions={}
  maximum.2766 = f32[1,7,7,2048]{3,2,1,0} maximum(add.2762, broadcast.2765)
  constant.283 = f32[1,1,2048,512]{3,2,1,0} constant({...})
  convolution.2767 = f32[1,7,7,512]{3,2,1,0} convolution(maximum.2766, constant.283), window={size=1x1}, dim_labels=b01f_01io->b01f
  constant.284 = f32[1,1,1,512]{3,2,1,0} constant({...})
  reshape.2768 = f32[1,512]{1,0} reshape(constant.284)
  broadcast.2769 = f32[1,7,7,512]{3,2,1,0} broadcast(reshape.2768), dimensions={0,3}
  add.2770 = f32[1,7,7,512]{3,2,1,0} add(convolution.2767, broadcast.2769)
  constant.2771 = f32[] constant(0)
  reduce.2777 = f32[512]{0} reduce(add.2770, constant.2771), dimensions={0,1,2}, to_apply=primitive_computation_add__94.2772
  broadcast.2778 = f32[1,1,1,512]{3,2,1,0} broadcast(reduce.2777), dimensions={3}
  constant.2779 = f32[] constant(49)
  broadcast.2780 = f32[1,1,1,512]{3,2,1,0} broadcast(constant.2779), dimensions={}
  divide.2781 = f32[1,1,1,512]{3,2,1,0} divide(broadcast.2778, broadcast.2780)
  reshape.2796 = f32[1,512]{1,0} reshape(divide.2781)
  broadcast.2797 = f32[1,7,7,512]{3,2,1,0} broadcast(reshape.2796), dimensions={0,3}
  subtract.2798 = f32[1,7,7,512]{3,2,1,0} subtract(add.2770, broadcast.2797)
  multiply.2782 = f32[1,7,7,512]{3,2,1,0} multiply(add.2770, add.2770)
  constant.2783 = f32[] constant(0)
  reduce.2789 = f32[512]{0} reduce(multiply.2782, constant.2783), dimensions={0,1,2}, to_apply=primitive_computation_add__95.2784
  broadcast.2790 = f32[1,1,1,512]{3,2,1,0} broadcast(reduce.2789), dimensions={3}
  constant.2791 = f32[] constant(49)
  broadcast.2792 = f32[1,1,1,512]{3,2,1,0} broadcast(constant.2791), dimensions={}
  divide.2793 = f32[1,1,1,512]{3,2,1,0} divide(broadcast.2790, broadcast.2792)
  multiply.2794 = f32[1,1,1,512]{3,2,1,0} multiply(divide.2781, divide.2781)
  subtract.2795 = f32[1,1,1,512]{3,2,1,0} subtract(divide.2793, multiply.2794)
  constant.2799 = f32[] constant(1e-05)
  broadcast.2800 = f32[1,1,1,512]{3,2,1,0} broadcast(constant.2799), dimensions={}
  add.2801 = f32[1,1,1,512]{3,2,1,0} add(subtract.2795, broadcast.2800)
  rsqrt.2802 = f32[1,1,1,512]{3,2,1,0} rsqrt(add.2801)
  reshape.2803 = f32[1,512]{1,0} reshape(rsqrt.2802)
  broadcast.2804 = f32[1,7,7,512]{3,2,1,0} broadcast(reshape.2803), dimensions={0,3}
  multiply.2805 = f32[1,7,7,512]{3,2,1,0} multiply(subtract.2798, broadcast.2804)
  multiply.2809 = f32[1,7,7,512]{3,2,1,0} multiply(broadcast.2808, multiply.2805)
  constant.287 = f32[] constant(0)
  broadcast.288 = f32[512]{0} broadcast(constant.287), dimensions={}
  broadcast.2810 = f32[1,1,1,512]{3,2,1,0} broadcast(broadcast.288), dimensions={3}
  reshape.2811 = f32[1,512]{1,0} reshape(broadcast.2810)
  broadcast.2812 = f32[1,7,7,512]{3,2,1,0} broadcast(reshape.2811), dimensions={0,3}
  add.2813 = f32[1,7,7,512]{3,2,1,0} add(multiply.2809, broadcast.2812)
  constant.2815 = f32[] constant(0)
  broadcast.2816 = f32[1,7,7,512]{3,2,1,0} broadcast(constant.2815), dimensions={}
  maximum.2817 = f32[1,7,7,512]{3,2,1,0} maximum(add.2813, broadcast.2816)
  constant.289 = f32[3,3,512,512]{3,2,1,0} constant({...})
  convolution.2818 = f32[1,7,7,512]{3,2,1,0} convolution(maximum.2817, constant.289), window={size=3x3 pad=1_1x1_1}, dim_labels=b01f_01io->b01f
  constant.290 = f32[1,1,1,512]{3,2,1,0} constant({...})
  reshape.2819 = f32[1,512]{1,0} reshape(constant.290)
  broadcast.2820 = f32[1,7,7,512]{3,2,1,0} broadcast(reshape.2819), dimensions={0,3}
  add.2821 = f32[1,7,7,512]{3,2,1,0} add(convolution.2818, broadcast.2820)
  constant.2822 = f32[] constant(0)
  reduce.2828 = f32[512]{0} reduce(add.2821, constant.2822), dimensions={0,1,2}, to_apply=primitive_computation_add__96.2823
  broadcast.2829 = f32[1,1,1,512]{3,2,1,0} broadcast(reduce.2828), dimensions={3}
  constant.2830 = f32[] constant(49)
  broadcast.2831 = f32[1,1,1,512]{3,2,1,0} broadcast(constant.2830), dimensions={}
  divide.2832 = f32[1,1,1,512]{3,2,1,0} divide(broadcast.2829, broadcast.2831)
  reshape.2847 = f32[1,512]{1,0} reshape(divide.2832)
  broadcast.2848 = f32[1,7,7,512]{3,2,1,0} broadcast(reshape.2847), dimensions={0,3}
  subtract.2849 = f32[1,7,7,512]{3,2,1,0} subtract(add.2821, broadcast.2848)
  multiply.2833 = f32[1,7,7,512]{3,2,1,0} multiply(add.2821, add.2821)
  constant.2834 = f32[] constant(0)
  reduce.2840 = f32[512]{0} reduce(multiply.2833, constant.2834), dimensions={0,1,2}, to_apply=primitive_computation_add__97.2835
  broadcast.2841 = f32[1,1,1,512]{3,2,1,0} broadcast(reduce.2840), dimensions={3}
  constant.2842 = f32[] constant(49)
  broadcast.2843 = f32[1,1,1,512]{3,2,1,0} broadcast(constant.2842), dimensions={}
  divide.2844 = f32[1,1,1,512]{3,2,1,0} divide(broadcast.2841, broadcast.2843)
  multiply.2845 = f32[1,1,1,512]{3,2,1,0} multiply(divide.2832, divide.2832)
  subtract.2846 = f32[1,1,1,512]{3,2,1,0} subtract(divide.2844, multiply.2845)
  constant.2850 = f32[] constant(1e-05)
  broadcast.2851 = f32[1,1,1,512]{3,2,1,0} broadcast(constant.2850), dimensions={}
  add.2852 = f32[1,1,1,512]{3,2,1,0} add(subtract.2846, broadcast.2851)
  rsqrt.2853 = f32[1,1,1,512]{3,2,1,0} rsqrt(add.2852)
  reshape.2854 = f32[1,512]{1,0} reshape(rsqrt.2853)
  broadcast.2855 = f32[1,7,7,512]{3,2,1,0} broadcast(reshape.2854), dimensions={0,3}
  multiply.2856 = f32[1,7,7,512]{3,2,1,0} multiply(subtract.2849, broadcast.2855)
  multiply.2860 = f32[1,7,7,512]{3,2,1,0} multiply(broadcast.2859, multiply.2856)
  constant.293 = f32[] constant(0)
  broadcast.294 = f32[512]{0} broadcast(constant.293), dimensions={}
  broadcast.2861 = f32[1,1,1,512]{3,2,1,0} broadcast(broadcast.294), dimensions={3}
  reshape.2862 = f32[1,512]{1,0} reshape(broadcast.2861)
  broadcast.2863 = f32[1,7,7,512]{3,2,1,0} broadcast(reshape.2862), dimensions={0,3}
  add.2864 = f32[1,7,7,512]{3,2,1,0} add(multiply.2860, broadcast.2863)
  constant.2866 = f32[] constant(0)
  broadcast.2867 = f32[1,7,7,512]{3,2,1,0} broadcast(constant.2866), dimensions={}
  maximum.2868 = f32[1,7,7,512]{3,2,1,0} maximum(add.2864, broadcast.2867)
  constant.295 = f32[1,1,512,2048]{3,2,1,0} constant({...})
  convolution.2869 = f32[1,7,7,2048]{3,2,1,0} convolution(maximum.2868, constant.295), window={size=1x1}, dim_labels=b01f_01io->b01f
  constant.296 = f32[1,1,1,2048]{3,2,1,0} constant({...})
  reshape.2870 = f32[1,2048]{1,0} reshape(constant.296)
  broadcast.2871 = f32[1,7,7,2048]{3,2,1,0} broadcast(reshape.2870), dimensions={0,3}
  add.2872 = f32[1,7,7,2048]{3,2,1,0} add(convolution.2869, broadcast.2871)
  constant.2873 = f32[] constant(0)
  reduce.2879 = f32[2048]{0} reduce(add.2872, constant.2873), dimensions={0,1,2}, to_apply=primitive_computation_add__98.2874
  broadcast.2880 = f32[1,1,1,2048]{3,2,1,0} broadcast(reduce.2879), dimensions={3}
  constant.2881 = f32[] constant(49)
  broadcast.2882 = f32[1,1,1,2048]{3,2,1,0} broadcast(constant.2881), dimensions={}
  divide.2883 = f32[1,1,1,2048]{3,2,1,0} divide(broadcast.2880, broadcast.2882)
  reshape.2898 = f32[1,2048]{1,0} reshape(divide.2883)
  broadcast.2899 = f32[1,7,7,2048]{3,2,1,0} broadcast(reshape.2898), dimensions={0,3}
  subtract.2900 = f32[1,7,7,2048]{3,2,1,0} subtract(add.2872, broadcast.2899)
  multiply.2884 = f32[1,7,7,2048]{3,2,1,0} multiply(add.2872, add.2872)
  constant.2885 = f32[] constant(0)
  reduce.2891 = f32[2048]{0} reduce(multiply.2884, constant.2885), dimensions={0,1,2}, to_apply=primitive_computation_add__99.2886
  broadcast.2892 = f32[1,1,1,2048]{3,2,1,0} broadcast(reduce.2891), dimensions={3}
  constant.2893 = f32[] constant(49)
  broadcast.2894 = f32[1,1,1,2048]{3,2,1,0} broadcast(constant.2893), dimensions={}
  divide.2895 = f32[1,1,1,2048]{3,2,1,0} divide(broadcast.2892, broadcast.2894)
  multiply.2896 = f32[1,1,1,2048]{3,2,1,0} multiply(divide.2883, divide.2883)
  subtract.2897 = f32[1,1,1,2048]{3,2,1,0} subtract(divide.2895, multiply.2896)
  constant.2901 = f32[] constant(1e-05)
  broadcast.2902 = f32[1,1,1,2048]{3,2,1,0} broadcast(constant.2901), dimensions={}
  add.2903 = f32[1,1,1,2048]{3,2,1,0} add(subtract.2897, broadcast.2902)
  rsqrt.2904 = f32[1,1,1,2048]{3,2,1,0} rsqrt(add.2903)
  reshape.2905 = f32[1,2048]{1,0} reshape(rsqrt.2904)
  broadcast.2906 = f32[1,7,7,2048]{3,2,1,0} broadcast(reshape.2905), dimensions={0,3}
  multiply.2907 = f32[1,7,7,2048]{3,2,1,0} multiply(subtract.2900, broadcast.2906)
  multiply.2911 = f32[1,7,7,2048]{3,2,1,0} multiply(broadcast.2910, multiply.2907)
  constant.299 = f32[] constant(0)
  broadcast.300 = f32[2048]{0} broadcast(constant.299), dimensions={}
  broadcast.2912 = f32[1,1,1,2048]{3,2,1,0} broadcast(broadcast.300), dimensions={3}
  reshape.2913 = f32[1,2048]{1,0} reshape(broadcast.2912)
  broadcast.2914 = f32[1,7,7,2048]{3,2,1,0} broadcast(reshape.2913), dimensions={0,3}
  add.2915 = f32[1,7,7,2048]{3,2,1,0} add(multiply.2911, broadcast.2914)
  constant.2916 = f32[] constant(0)
  broadcast.2917 = f32[1,7,7,2048]{3,2,1,0} broadcast(constant.2916), dimensions={}
  add.2918 = f32[1,7,7,2048]{3,2,1,0} add(add.2915, broadcast.2917)
  add.2919 = f32[1,7,7,2048]{3,2,1,0} add(add.2918, maximum.2766)
  constant.2921 = f32[] constant(0)
  broadcast.2922 = f32[1,7,7,2048]{3,2,1,0} broadcast(constant.2921), dimensions={}
  maximum.2923 = f32[1,7,7,2048]{3,2,1,0} maximum(add.2919, broadcast.2922)
  constant.301 = f32[1,1,2048,512]{3,2,1,0} constant({...})
  convolution.2924 = f32[1,7,7,512]{3,2,1,0} convolution(maximum.2923, constant.301), window={size=1x1}, dim_labels=b01f_01io->b01f
  constant.302 = f32[1,1,1,512]{3,2,1,0} constant({...})
  reshape.2925 = f32[1,512]{1,0} reshape(constant.302)
  broadcast.2926 = f32[1,7,7,512]{3,2,1,0} broadcast(reshape.2925), dimensions={0,3}
  add.2927 = f32[1,7,7,512]{3,2,1,0} add(convolution.2924, broadcast.2926)
  constant.2928 = f32[] constant(0)
  reduce.2934 = f32[512]{0} reduce(add.2927, constant.2928), dimensions={0,1,2}, to_apply=primitive_computation_add__100.2929
  broadcast.2935 = f32[1,1,1,512]{3,2,1,0} broadcast(reduce.2934), dimensions={3}
  constant.2936 = f32[] constant(49)
  broadcast.2937 = f32[1,1,1,512]{3,2,1,0} broadcast(constant.2936), dimensions={}
  divide.2938 = f32[1,1,1,512]{3,2,1,0} divide(broadcast.2935, broadcast.2937)
  reshape.2953 = f32[1,512]{1,0} reshape(divide.2938)
  broadcast.2954 = f32[1,7,7,512]{3,2,1,0} broadcast(reshape.2953), dimensions={0,3}
  subtract.2955 = f32[1,7,7,512]{3,2,1,0} subtract(add.2927, broadcast.2954)
  multiply.2939 = f32[1,7,7,512]{3,2,1,0} multiply(add.2927, add.2927)
  constant.2940 = f32[] constant(0)
  reduce.2946 = f32[512]{0} reduce(multiply.2939, constant.2940), dimensions={0,1,2}, to_apply=primitive_computation_add__101.2941
  broadcast.2947 = f32[1,1,1,512]{3,2,1,0} broadcast(reduce.2946), dimensions={3}
  constant.2948 = f32[] constant(49)
  broadcast.2949 = f32[1,1,1,512]{3,2,1,0} broadcast(constant.2948), dimensions={}
  divide.2950 = f32[1,1,1,512]{3,2,1,0} divide(broadcast.2947, broadcast.2949)
  multiply.2951 = f32[1,1,1,512]{3,2,1,0} multiply(divide.2938, divide.2938)
  subtract.2952 = f32[1,1,1,512]{3,2,1,0} subtract(divide.2950, multiply.2951)
  constant.2956 = f32[] constant(1e-05)
  broadcast.2957 = f32[1,1,1,512]{3,2,1,0} broadcast(constant.2956), dimensions={}
  add.2958 = f32[1,1,1,512]{3,2,1,0} add(subtract.2952, broadcast.2957)
  rsqrt.2959 = f32[1,1,1,512]{3,2,1,0} rsqrt(add.2958)
  reshape.2960 = f32[1,512]{1,0} reshape(rsqrt.2959)
  broadcast.2961 = f32[1,7,7,512]{3,2,1,0} broadcast(reshape.2960), dimensions={0,3}
  multiply.2962 = f32[1,7,7,512]{3,2,1,0} multiply(subtract.2955, broadcast.2961)
  multiply.2966 = f32[1,7,7,512]{3,2,1,0} multiply(broadcast.2965, multiply.2962)
  constant.305 = f32[] constant(0)
  broadcast.306 = f32[512]{0} broadcast(constant.305), dimensions={}
  broadcast.2967 = f32[1,1,1,512]{3,2,1,0} broadcast(broadcast.306), dimensions={3}
  reshape.2968 = f32[1,512]{1,0} reshape(broadcast.2967)
  broadcast.2969 = f32[1,7,7,512]{3,2,1,0} broadcast(reshape.2968), dimensions={0,3}
  add.2970 = f32[1,7,7,512]{3,2,1,0} add(multiply.2966, broadcast.2969)
  constant.2972 = f32[] constant(0)
  broadcast.2973 = f32[1,7,7,512]{3,2,1,0} broadcast(constant.2972), dimensions={}
  maximum.2974 = f32[1,7,7,512]{3,2,1,0} maximum(add.2970, broadcast.2973)
  constant.307 = f32[3,3,512,512]{3,2,1,0} constant({...})
  convolution.2975 = f32[1,7,7,512]{3,2,1,0} convolution(maximum.2974, constant.307), window={size=3x3 pad=1_1x1_1}, dim_labels=b01f_01io->b01f
  constant.308 = f32[1,1,1,512]{3,2,1,0} constant({...})
  reshape.2976 = f32[1,512]{1,0} reshape(constant.308)
  broadcast.2977 = f32[1,7,7,512]{3,2,1,0} broadcast(reshape.2976), dimensions={0,3}
  add.2978 = f32[1,7,7,512]{3,2,1,0} add(convolution.2975, broadcast.2977)
  constant.2979 = f32[] constant(0)
  reduce.2985 = f32[512]{0} reduce(add.2978, constant.2979), dimensions={0,1,2}, to_apply=primitive_computation_add__102.2980
  broadcast.2986 = f32[1,1,1,512]{3,2,1,0} broadcast(reduce.2985), dimensions={3}
  constant.2987 = f32[] constant(49)
  broadcast.2988 = f32[1,1,1,512]{3,2,1,0} broadcast(constant.2987), dimensions={}
  divide.2989 = f32[1,1,1,512]{3,2,1,0} divide(broadcast.2986, broadcast.2988)
  reshape.3004 = f32[1,512]{1,0} reshape(divide.2989)
  broadcast.3005 = f32[1,7,7,512]{3,2,1,0} broadcast(reshape.3004), dimensions={0,3}
  subtract.3006 = f32[1,7,7,512]{3,2,1,0} subtract(add.2978, broadcast.3005)
  multiply.2990 = f32[1,7,7,512]{3,2,1,0} multiply(add.2978, add.2978)
  constant.2991 = f32[] constant(0)
  reduce.2997 = f32[512]{0} reduce(multiply.2990, constant.2991), dimensions={0,1,2}, to_apply=primitive_computation_add__103.2992
  broadcast.2998 = f32[1,1,1,512]{3,2,1,0} broadcast(reduce.2997), dimensions={3}
  constant.2999 = f32[] constant(49)
  broadcast.3000 = f32[1,1,1,512]{3,2,1,0} broadcast(constant.2999), dimensions={}
  divide.3001 = f32[1,1,1,512]{3,2,1,0} divide(broadcast.2998, broadcast.3000)
  multiply.3002 = f32[1,1,1,512]{3,2,1,0} multiply(divide.2989, divide.2989)
  subtract.3003 = f32[1,1,1,512]{3,2,1,0} subtract(divide.3001, multiply.3002)
  constant.3007 = f32[] constant(1e-05)
  broadcast.3008 = f32[1,1,1,512]{3,2,1,0} broadcast(constant.3007), dimensions={}
  add.3009 = f32[1,1,1,512]{3,2,1,0} add(subtract.3003, broadcast.3008)
  rsqrt.3010 = f32[1,1,1,512]{3,2,1,0} rsqrt(add.3009)
  reshape.3011 = f32[1,512]{1,0} reshape(rsqrt.3010)
  broadcast.3012 = f32[1,7,7,512]{3,2,1,0} broadcast(reshape.3011), dimensions={0,3}
  multiply.3013 = f32[1,7,7,512]{3,2,1,0} multiply(subtract.3006, broadcast.3012)
  multiply.3017 = f32[1,7,7,512]{3,2,1,0} multiply(broadcast.3016, multiply.3013)
  constant.311 = f32[] constant(0)
  broadcast.312 = f32[512]{0} broadcast(constant.311), dimensions={}
  broadcast.3018 = f32[1,1,1,512]{3,2,1,0} broadcast(broadcast.312), dimensions={3}
  reshape.3019 = f32[1,512]{1,0} reshape(broadcast.3018)
  broadcast.3020 = f32[1,7,7,512]{3,2,1,0} broadcast(reshape.3019), dimensions={0,3}
  add.3021 = f32[1,7,7,512]{3,2,1,0} add(multiply.3017, broadcast.3020)
  constant.3023 = f32[] constant(0)
  broadcast.3024 = f32[1,7,7,512]{3,2,1,0} broadcast(constant.3023), dimensions={}
  maximum.3025 = f32[1,7,7,512]{3,2,1,0} maximum(add.3021, broadcast.3024)
  constant.313 = f32[1,1,512,2048]{3,2,1,0} constant({...})
  convolution.3026 = f32[1,7,7,2048]{3,2,1,0} convolution(maximum.3025, constant.313), window={size=1x1}, dim_labels=b01f_01io->b01f
  constant.314 = f32[1,1,1,2048]{3,2,1,0} constant({...})
  reshape.3027 = f32[1,2048]{1,0} reshape(constant.314)
  broadcast.3028 = f32[1,7,7,2048]{3,2,1,0} broadcast(reshape.3027), dimensions={0,3}
  add.3029 = f32[1,7,7,2048]{3,2,1,0} add(convolution.3026, broadcast.3028)
  constant.3030 = f32[] constant(0)
  reduce.3036 = f32[2048]{0} reduce(add.3029, constant.3030), dimensions={0,1,2}, to_apply=primitive_computation_add__104.3031
  broadcast.3037 = f32[1,1,1,2048]{3,2,1,0} broadcast(reduce.3036), dimensions={3}
  constant.3038 = f32[] constant(49)
  broadcast.3039 = f32[1,1,1,2048]{3,2,1,0} broadcast(constant.3038), dimensions={}
  divide.3040 = f32[1,1,1,2048]{3,2,1,0} divide(broadcast.3037, broadcast.3039)
  reshape.3055 = f32[1,2048]{1,0} reshape(divide.3040)
  broadcast.3056 = f32[1,7,7,2048]{3,2,1,0} broadcast(reshape.3055), dimensions={0,3}
  subtract.3057 = f32[1,7,7,2048]{3,2,1,0} subtract(add.3029, broadcast.3056)
  multiply.3041 = f32[1,7,7,2048]{3,2,1,0} multiply(add.3029, add.3029)
  constant.3042 = f32[] constant(0)
  reduce.3048 = f32[2048]{0} reduce(multiply.3041, constant.3042), dimensions={0,1,2}, to_apply=primitive_computation_add__105.3043
  broadcast.3049 = f32[1,1,1,2048]{3,2,1,0} broadcast(reduce.3048), dimensions={3}
  constant.3050 = f32[] constant(49)
  broadcast.3051 = f32[1,1,1,2048]{3,2,1,0} broadcast(constant.3050), dimensions={}
  divide.3052 = f32[1,1,1,2048]{3,2,1,0} divide(broadcast.3049, broadcast.3051)
  multiply.3053 = f32[1,1,1,2048]{3,2,1,0} multiply(divide.3040, divide.3040)
  subtract.3054 = f32[1,1,1,2048]{3,2,1,0} subtract(divide.3052, multiply.3053)
  constant.3058 = f32[] constant(1e-05)
  broadcast.3059 = f32[1,1,1,2048]{3,2,1,0} broadcast(constant.3058), dimensions={}
  add.3060 = f32[1,1,1,2048]{3,2,1,0} add(subtract.3054, broadcast.3059)
  rsqrt.3061 = f32[1,1,1,2048]{3,2,1,0} rsqrt(add.3060)
  reshape.3062 = f32[1,2048]{1,0} reshape(rsqrt.3061)
  broadcast.3063 = f32[1,7,7,2048]{3,2,1,0} broadcast(reshape.3062), dimensions={0,3}
  multiply.3064 = f32[1,7,7,2048]{3,2,1,0} multiply(subtract.3057, broadcast.3063)
  multiply.3068 = f32[1,7,7,2048]{3,2,1,0} multiply(broadcast.3067, multiply.3064)
  constant.317 = f32[] constant(0)
  broadcast.318 = f32[2048]{0} broadcast(constant.317), dimensions={}
  broadcast.3069 = f32[1,1,1,2048]{3,2,1,0} broadcast(broadcast.318), dimensions={3}
  reshape.3070 = f32[1,2048]{1,0} reshape(broadcast.3069)
  broadcast.3071 = f32[1,7,7,2048]{3,2,1,0} broadcast(reshape.3070), dimensions={0,3}
  add.3072 = f32[1,7,7,2048]{3,2,1,0} add(multiply.3068, broadcast.3071)
  constant.3073 = f32[] constant(0)
  broadcast.3074 = f32[1,7,7,2048]{3,2,1,0} broadcast(constant.3073), dimensions={}
  add.3075 = f32[1,7,7,2048]{3,2,1,0} add(add.3072, broadcast.3074)
  add.3076 = f32[1,7,7,2048]{3,2,1,0} add(add.3075, maximum.2923)
  constant.3078 = f32[] constant(0)
  broadcast.3079 = f32[1,7,7,2048]{3,2,1,0} broadcast(constant.3078), dimensions={}
  maximum.3080 = f32[1,7,7,2048]{3,2,1,0} maximum(add.3076, broadcast.3079)
  constant.3081 = f32[] constant(0)
  reduce-window.3087 = f32[1,1,1,2048]{3,2,1,0} reduce-window(maximum.3080, constant.3081), window={size=1x7x7x1}, to_apply=primitive_computation_add__106.3082
  constant.3088 = f32[] constant(1)
  broadcast.3089 = f32[7,7]{1,0} broadcast(constant.3088), dimensions={}
  constant.3090 = f32[] constant(0)
  reduce-window.3096 = f32[1,1]{1,0} reduce-window(broadcast.3089, constant.3090), window={size=7x7}, to_apply=primitive_computation_add__107.3091
  broadcast.3097 = f32[1,1,1]{2,1,0} broadcast(reduce-window.3096), dimensions={1,2}
  broadcast.3098 = f32[1,1,1,1]{3,2,1,0} broadcast(broadcast.3097), dimensions={0,1,2}
  reshape.3099 = f32[1,1,1]{2,1,0} reshape(broadcast.3098)
  broadcast.3100 = f32[1,1,1,2048]{3,2,1,0} broadcast(reshape.3099), dimensions={0,1,2}
  divide.3101 = f32[1,1,1,2048]{3,2,1,0} divide(reduce-window.3087, broadcast.3100)
  reshape.3102 = f32[1,2048]{1,0} reshape(divide.3101)
  constant.319 = f32[2048,1000]{1,0} constant({...})
  dot.3103 = f32[1,1000]{1,0} dot(reshape.3102, constant.319), lhs_contracting_dims={1}, rhs_contracting_dims={0}
  constant.320 = f32[1000]{0} constant({...})
  broadcast.3104 = f32[1,1000]{1,0} broadcast(constant.320), dimensions={1}
  add.3105 = f32[1,1000]{1,0} add(dot.3103, broadcast.3104)
  constant.3106 = f32[] constant(-inf)
  reduce.3112 = f32[1]{0} reduce(add.3105, constant.3106), dimensions={1}, to_apply=primitive_computation_max__1.3107
  broadcast.3113 = f32[1,1]{1,0} broadcast(reduce.3112), dimensions={0}
  reshape.3114 = f32[1]{0} reshape(broadcast.3113)
  broadcast.3115 = f32[1,1000]{1,0} broadcast(reshape.3114), dimensions={0}
  subtract.3116 = f32[1,1000]{1,0} subtract(add.3105, broadcast.3115)
  exponential.3117 = f32[1,1000]{1,0} exponential(subtract.3116)
  constant.3118 = f32[] constant(0)
  reduce.3124 = f32[1]{0} reduce(exponential.3117, constant.3118), dimensions={1}, to_apply=primitive_computation_add__108.3119
  broadcast.3125 = f32[1,1]{1,0} broadcast(reduce.3124), dimensions={0}
  log.3126 = f32[1,1]{1,0} log(broadcast.3125)
  reshape.3127 = f32[1]{0} reshape(log.3126)
  broadcast.3128 = f32[1,1000]{1,0} broadcast(reshape.3127), dimensions={0}
  ROOT subtract.3129 = f32[1,1000]{1,0} subtract(subtract.3116, broadcast.3128)
}

